test/discrete/log/CartPole-v0/ppo/policy.pth (torch, 24655 bytes, 22 tensors)

actor.preprocess.model.model.0.weight f4 [64, 4]
0	0xbd395220	-0.045244336
1	0x3cc492b8	0.023995742
2	0xbd22f276	-0.03978201
3	0x3defc89e	0.117081866
4	0xbe02d8d1	-0.12778021
5	0x3e0ae23d	0.13562866
6	0xbe071291	-0.13190676
7	0xbe94c9cd	-0.29060212
8	0x3d1a11c8	0.037614614
9	0x3c7e6715	0.015527506
10	0x3cc85e5b	0.024459055
11	0x3e2d9b6c	0.1695382
12	0xbd68f0df	-0.056870338
13	0x3c64d45f	0.013966649
14	0x3da5adc2	0.08089782
15	0xbd100f76	-0.035170995
16	0xbe402382	-0.18763545
17	0xbe69a2da	-0.22816029
18	0xbe6ef6c8	-0.23336327
19	0x3df0d564	0.11759451
20	0x3dc8552a	0.09781869
21	0xbd393d0d	-0.04522424
22	0x3eb02306	0.3440172
23	0x3d75d90b	0.06002144
24	0xbde25650	-0.11051619
25	0x3d5f08e5	0.05445184
26	0x3d6cddae	0.057828598
27	0xbdba61c6	-0.0910068
28	0x3de6a883	0.1126261
29	0xbe05774c	-0.1303379
30	0xbd803f8a	-0.06262119
31	0xbd5fdf5c	-0.05465637
32	0xbe4ee7be	-0.2020559
33	0x3de2f63b	0.11082121
34	0x3d0ab02d	0.03385942
35	0xbd4086b5	-0.047003467
36	0x3dda1cfd	0.1065006
37	0xbe111e4b	-0.14171712
38	0xbe0ca286	-0.13733873
39	0xbd242a94	-0.04007967
40	0xbd9fe6ec	-0.07807717
41	0x3d1f22a4	0.038851395
42	0x3d59b2b3	0.053148936
43	0xbd7fdcb1	-0.062466327
44	0xbdb4654f	-0.088083856
45	0xbb71dc28	-0.0036904905
46	0x3da020e0	0.078187704
47	0x3dae4ab0	0.08510339
48	0xbd45dd9c	-0.048307046
49	0x3d833c56	0.064079925
50	0xbe8d3239	-0.2757738
51	0xbe1b793b	-0.15182965
52	0x3baf1d38	0.0053440593
53	0xbe036adc	-0.12833732
54	0xbe4efb4d	-0.20213051
55	0x3e839dae	0.25706238
56	0x3d0a01db	0.033693176
57	0x3dbaafb2	0.091155425
58	0xbc9c7bc5	-0.019101987
59	0x3cb4d652	0.022074852
60	0xbd668863	-0.056282412
61	0x3d6ad167	0.057328608
62	0xbd520f5a	-0.05128417
63	0xbd86338e	-0.06552802
64	0x3b815760	0.0039471835
65	0x3d84839a	0.064704135
66	0xbc307e8e	-0.0107723605
67	0x3dc43818	0.095810115
68	0xbc2401db	-0.010010208
69	0xbdd6beac	-0.104855865
70	0xbc0b095e	-0.00848612
71	0xbe6e5f54	-0.23278552
72	0xbdca4366	-0.098761365
73	0x3c4894c4	0.0122425
74	0x3de7a18f	0.11310112
75	0x3e7f42c8	0.24927819
76	0xbbd7f5f5	-0.0065905997
77	0x3c533c98	0.012892865
78	0xbded8280	-0.115971565
79	0x3ce7634b	0.028245589
80	0xbe9ff75f	-0.31243417
81	0xbe411a7c	-0.18857759
82	0x3db58c26	0.08864622
83	0x3d03e51d	0.03220092
84	0xbd4a5cfe	-0.04940509
85	0x3e281925	0.16415842
86	0x3d82b6a8	0.06382495
87	0x3d167539	0.036732886
88	0x3c004eb8	0.007831268
89	0x3d3f1df7	0.046659436
90	0xbc77b258	-0.015118204
91	0xbc58d423	-0.013234171
92	0xbe10d13f	-0.14142321
93	0xbcc97d9b	-0.024596026
94	0xbcd8783b	-0.026424518
95	0x3d99ca26	0.0750926
96	0x3e1746bf	0.14773081
97	0x3e700ce1	0.23442413
98	0xbdc49629	-0.09598953
99	0xbde59cac	-0.112115234
100	0x3d309277	0.04310843
101	0x3cae93d6	0.021310728
102	0x3d37c4e5	0.044865508
103	0xbd9f6a7a	-0.07783981
104	0xbe52519d	-0.20538945
105	0x3e610026	0.21972713
106	0x3e2907c8	0.16506875
107	0x3d8ca63a	0.06867643
108	0xbd556ec6	-0.052107595
109	0x3bac8bc8	0.0052656867
110	0xbdd38b60	-0.10329318
111	0x3c3d71bf	0.011562764
112	0x3dcf2a41	0.10115481
113	0xbd347147	-0.044053342
114	0xbe0bedc0	-0.13664913
115	0x3d10b523	0.035328995
116	0x3e0f6c14	0.14006072
117	0x3ca00f04	0.01953841
118	0xbe4ac0a3	-0.19800048
119	0xbd43f98c	-0.04784541
120	0x3e3a6307	0.18201838
121	0x3debe1ba	0.11517663
122	0xbd84549d	-0.06461451
123	0x3dfbca1b	0.12294408
124	0x3c822164	0.015885063
125	0xb9806d66	-0.0002449557
126	0x3d8eae88	0.06966883
127	0x3e5a1316	0.21296343
128	0xbdec9b1d	-0.11553023
129	0xbdec5e9f	-0.11541485
130	0x3ead5b8e	0.33858913
131	0xbe06c9b6	-0.13162884
132	0xbe14e472	-0.1454027
133	0x3db0c19d	0.08630679
134	0x3cb5152a	0.022104818
135	0x3b4bba72	0.0031086472
136	0x3d03e48c	0.03220038
137	0xbda2ee93	-0.07955661
138	0x3cae9cda	0.021315027
139	0xbdac47b2	-0.08412112
140	0x3daab4ed	0.0833529
141	0x3d856bbb	0.065146886
142	0xbbf93a80	-0.0076058507
143	0x3ccfa2fb	0.02534627
144	0xbdf68da9	-0.12038738
145	0xbe1adee4	-0.15124089
146	0xbe428b20	-0.18998384
147	0xbde29486	-0.11063485
148	0xbe24fc44	-0.16111857
149	0x3d9db7d5	0.07701079
150	0x3cb60481	0.022218945
151	0xbde582ae	-0.11206566
152	0xbe2bc224	-0.16773278
153	0x3c4fa911	0.012674586
154	0x3de04439	0.109505124
155	0x3d07b01d	0.03312694
156	0x3b54b979	0.0032459183
157	0x3ce31888	0.027721658
158	0x3df94564	0.12171438
159	0xbc6d10fc	-0.014469381
160	0xbe116974	-0.14200383
161	0x3df66b3a	0.120321706
162	0xbdb7d417	-0.08976
163	0x3e266052	0.16247681
164	0xbe63f745	-0.22262295
165	0x3dbf4669	0.093396015
166	0xbd9fd7af	-0.0780481
167	0x3e43eff8	0.1913451
168	0x3d29e79c	0.041480646
169	0xbde2165f	-0.11039423
170	0xbc2c23ef	-0.010506614
171	0x3e5cda56	0.21567664
172	0x3dd9cb67	0.10634499
173	0xbe6af3e8	-0.22944605
174	0x3dc0c839	0.094131894
175	0xbd9c7a22	-0.076404825
176	0x3eb69b8c	0.35665548
177	0x3e3425ee	0.17592594
178	0xbbc45308	-0.0059913434
179	0x3e094dcf	0.13408588
180	0x3d33fa38	0.0439398
181	0xbeb01d74	-0.3439747
182	0xbd928220	-0.071537256
183	0xbd8ef603	-0.06980517
184	0xbe5d951d	-0.21638913
185	0x3acd2d7d	0.0015653815
186	0xbd316e61	-0.043318156
187	0x3d04dde6	0.03243818
188	0x3d32a915	0.04361828
189	0x3e3ccdf8	0.18437946
190	0x3dd95838	0.106125295
191	0xbdbce2d9	-0.09222955
192	0xbe089b23	-0.1334043
193	0x3e225b07	0.15855037
194	0xbe977fc4	-0.29589665
195	0x3e772662	0.24135736
196	0xbd2b149e	-0.04176771
197	0x3e0dc7ad	0.13845702
198	0xbe72990b	-0.23691194
199	0xbdf4f7c7	-0.11961322
200	0xbd942289	-0.072331496
201	0x3d03c766	0.032172583
202	0xbd98c118	-0.07458705
203	0xbdad1279	-0.08450789
204	0x3d82a9bd	0.06380031
205	0xbdab4ae8	-0.083638966
206	0x3dcfd6c8	0.10148388
207	0xbdb027a6	-0.08601312
208	0x3d42ad98	0.047528833
209	0x3e6b1255	0.22956212
210	0x3db7c724	0.0897353
211	0x3e6eae0a	0.23308578
212	0xbc85ac41	-0.016317489
213	0x3d813f39	0.06310887
214	0xbe182d9e	-0.14861152
215	0xbd677a42	-0.05651308
216	0x3dad4126	0.08459692
217	0x3c95d5f2	0.018290494
218	0x3c422715	0.011850138
219	0xbda06737	-0.07832187
220	0x3dff54a4	0.12467316
221	0xbe6a8357	-0.22901665
222	0xbc976a1b	-0.018483212
223	0x3e2090c9	0.15680231
224	0x3e3dcf0d	0.18536015
225	0x3d95a188	0.073062
226	0xbdde720e	-0.10861598
227	0x3cb2ce1b	0.021826794
228	0x3e10e20a	0.14148727
229	0xbd869465	-0.06571273
230	0xbd63c845	-0.055610914
231	0x39f509ed	0.00046737437
232	0x3e4c48c2	0.1994963
233	0x3d7bc36e	0.061465673
234	0x3def3ab1	0.11681116
235	0x3dfd0cd1	0.1235596
236	0x3ce27a8a	0.027646322
237	0x3d686d23	0.056744706
238	0xbe131207	-0.14362346
239	0xbe7d8e60	-0.24761343
240	0x3b515444	0.0031941095
241	0x3d172d9b	0.036908727
242	0xbca3f8cc	-0.020016097
243	0x3c26c4f0	0.0101787895
244	0xbdd806f6	-0.10548203
245	0x3e04d10e	0.12970373
246	0x3e0b2ea4	0.1359201
247	0xbe354fb6	-0.17706189
248	0xbdcc69ea	-0.09981139
249	0x3e3436fb	0.17599098
250	0xbdb62313	-0.088934086
251	0x3db1963b	0.08671232
252	0x3e34361b	0.17598765
253	0x3e912b51	0.2835336
254	0x3d6271c1	0.055284265
255	0xbe17d4fa	-0.14827338

actor.preprocess.model.model.0.bias f4 [64]
0	0x00000000	0.0
1	0x00000000	0.0
2	0x00000000	0.0
3	0x00000000	0.0
4	0x00000000	0.0
5	0x00000000	0.0
6	0x00000000	0.0
7	0x00000000	0.0
8	0x00000000	0.0
9	0x00000000	0.0
10	0x00000000	0.0
11	0x00000000	0.0
12	0x00000000	0.0
13	0x00000000	0.0
14	0x00000000	0.0
15	0x00000000	0.0
16	0x00000000	0.0
17	0x00000000	0.0
18	0x00000000	0.0
19	0x00000000	0.0
20	0x00000000	0.0
21	0x00000000	0.0
22	0x00000000	0.0
23	0x00000000	0.0
24	0x00000000	0.0
25	0x00000000	0.0
26	0x00000000	0.0
27	0x00000000	0.0
28	0x00000000	0.0
29	0x00000000	0.0
30	0x00000000	0.0
31	0x00000000	0.0
32	0x00000000	0.0
33	0x00000000	0.0
34	0x00000000	0.0
35	0x00000000	0.0
36	0x00000000	0.0
37	0x00000000	0.0
38	0x00000000	0.0
39	0x00000000	0.0
40	0x00000000	0.0
41	0x00000000	0.0
42	0x00000000	0.0
43	0x00000000	0.0
44	0x00000000	0.0
45	0x00000000	0.0
46	0x00000000	0.0
47	0x00000000	0.0
48	0x00000000	0.0
49	0x00000000	0.0
50	0x00000000	0.0
51	0x00000000	0.0
52	0x00000000	0.0
53	0x00000000	0.0
54	0x00000000	0.0
55	0x00000000	0.0
56	0x00000000	0.0
57	0x00000000	0.0
58	0x00000000	0.0
59	0x00000000	0.0
60	0x00000000	0.0
61	0x00000000	0.0
62	0x00000000	0.0
63	0x00000000	0.0

actor.preprocess.model.model.2.weight f4 [64, 64]
0	0xbd0a3e80	-0.03375101
1	0x3c9acfd1	0.018897923
2	0xbc7f7449	-0.015591689
3	0xbdf4b14d	-0.1194788
4	0xbc9c4459	-0.01907556
5	0x3cdf53fd	0.027261728
6	0x3db38085	0.087647475
7	0xbe073f8d	-0.13207836
8	0x3e229c8e	0.15880033
9	0x3e601b32	0.21885374
10	0xbe7daf78	-0.24773967
11	0xbd3c95c3	-0.04604126
12	0x3d9ce09b	0.076600276
13	0x3e2f3266	0.17109069
14	0xbe3b92ad	-0.18317671
15	0x3d2f218c	0.042756602
16	0x3c9922f5	0.018693427
17	0xbc9a793a	-0.018856633
18	0xbcbefdf5	-0.023314456
19	0x3e3aea96	0.1825355
20	0x3ddba5d6	0.1072499
21	0xbc43bd0f	-0.011946931
22	0xbd825e1d	-0.06365607
23	0xbe2305b7	-0.15920149
24	0x3e5069bb	0.20352833
25	0x3de74e22	0.112941995
26	0xbe73df1a	-0.23815575
27	0xbe41538c	-0.18879527
28	0x3ea8c37f	0.32961652
29	0xbe203d45	-0.15648372
30	0xbcde3a5d	-0.02712744
31	0xbc91597c	-0.017742865
32	0xbd29fbdc	-0.041499957
33	0xbcc59e2f	-0.02412328
34	0x3b040be5	0.0020148691
35	0x3d16321b	0.036668878
36	0xbe2dce4b	-0.16973226
37	0xbd4dab78	-0.050212353
38	0xbe175e23	-0.14782004
39	0x3e02778a	0.12740913
40	0xbe50678c	-0.20352
41	0xbd89e1a0	-0.06732488
42	0xbd1cb491	-0.03825814
43	0xbd3ecd2b	-0.046582382
44	0x3c3ad0ee	0.011402352
45	0xbcede65a	-0.029040504
46	0xbc533ffc	-0.012893673
47	0xbe825497	-0.25455162
48	0xbe3584c2	-0.17726424
49	0x3da3114d	0.07962284
50	0x3dd74fcf	0.10513269
51	0xbdcf2b9d	-0.101157404
52	0xbd44d60f	-0.048055705
53	0xbd6edda4	-0.05831684
54	0x3b9e7978	0.0048362575
55	0xbd43ad44	-0.04777266
56	0xbd29c40e	-0.041446738
57	0x3d9f0359	0.077643104
58	0x3e290319	0.16505088
59	0xbd881540	-0.06644678
60	0x3caede7b	0.021346321
61	0x3e2e824d	0.17041893
62	0xbde80da5	-0.113307275
63	0x3e743dae	0.23851654
64	0xbcbe394c	-0.02322068
65	0xbde07ef1	-0.10961712
66	0x3e2a0e0d	0.16606922
67	0x3dfa8693	0.12232699
68	0xbcb4620e	-0.022019412
69	0x3e81476d	0.25249806
70	0x3e4698e9	0.19394268
71	0x3def7401	0.11692048
72	0x3df05198	0.11734313
73	0xbe1cf737	-0.1532868
74	0x3d25295a	0.04032264
75	0x3d5a05b2	0.053228088
76	0x3e2cf79d	0.16891332
77	0xbd81585f	-0.063156836
78	0xbcd8b6ec	-0.026454411
79	0x3d993434	0.0748066
80	0x3e321800	0.17391968
81	0x3cf206b6	0.029544216
82	0x3d052618	0.032507032
83	0x3e169de1	0.14708664
84	0x3decd3ba	0.11563821
85	0x3da76529	0.08173592
86	0xbd956f48	-0.07296616
87	0x3c96affd	0.018394465
88	0xbd15ae4d	-0.03654318
89	0xbe0963f2	-0.13417032
90	0xbcd0aa8a	-0.025471944
91	0x3d8ae1e9	0.0678137
92	0x3d8092a1	0.06277967
93	0xbe62301d	-0.22088666
94	0xbdfceace	-0.12349473
95	0xbd5967b8	-0.05307743
96	0x3e07ea36	0.13272938
97	0xbddd478d	-0.10804663
98	0xba78cacb	-0.0009490668
99	0x3d6ad767	0.05733433
100	0xbe057e70	-0.13036513
101	0xbe31d8c8	-0.17367852
102	0x3e3197ae	0.17343017
103	0xbdeb99db	-0.11503955
104	0xbe292348	-0.16517365
105	0xbe064c42	-0.13115028
106	0xbd1b0fc9	-0.03785685
107	0x3e1d865d	0.15383287
108	0xbd5a1e1a	-0.053251363
109	0x3d05cda3	0.032666814
110	0xbd6e4d9f	-0.058179494
111	0x3dfffbcb	0.124991976
112	0x3e47cef2	0.19512537
113	0xbcec6023	-0.028854435
114	0xbe14ec12	-0.14543179
115	0x3cf17c98	0.029478356
116	0xbe4c74ca	-0.19966426
117	0xbe16d29e	-0.14728782
118	0xbe05ad3b	-0.13054363
119	0x3e6ce694	0.23134834
120	0xbe205c3a	-0.15660182
121	0xbe20c2f3	-0.15699367
122	0x3e08f062	0.13372949
123	0xbd24101c	-0.040054426
124	0xbe5bc218	-0.2146076
125	0xbe46e7d9	-0.1942438
126	0xbda68815	-0.08131424
127	0x3da23a38	0.079212606
128	0x3e13998d	0.14414044
129	0x3e7e4da7	0.2483431
130	0x3d937961	0.072008856
131	0xbdc5c098	-0.09655875
132	0xbe361af6	-0.17783722
133	0xbd7dda7d	-0.061975945
134	0xbdf27e9c	-0.11840555
135	0xbe3613d6	-0.17781004
136	0xbc43b775	-0.011945595
137	0x3da191dc	0.078891486
138	0x3e1fd227	0.1560751
139	0x3d7dd331	0.061968986
140	0xbe14c82c	-0.14529485
141	0xbd330640	-0.043707132
142	0x3d1e2c79	0.03861663
143	0xbdd1c42a	-0.102424935
144	0xbd586435	-0.05282994
145	0xbde426fe	-0.1114025
146	0x3e181ff7	0.14855944
147	0x3dd770d4	0.10519567
148	0xbd23397b	-0.03984974
149	0x3e26ec19	0.16301002
150	0xbd9ac002	-0.07556154
151	0x3e032264	0.12806088
152	0x3d2c1566	0.042012595
153	0x3b32b074	0.0027265819
154	0xbe3834cf	-0.17988895
155	0x3d7fc096	0.062439524
156	0xbdbdda92	-0.092702046
157	0xbc6f2760	-0.01459679
158	0x3e3c1138	0.18365943
159	0x3d8e7196	0.069552585
160	0xbdcacc44	-0.09902242
161	0xbe863158	-0.2620952
162	0xbdf66223	-0.12030437
163	0xbe2187d6	-0.15774474
164	0xbe11dde9	-0.14244808
165	0xbddc5658	-0.10758656
166	0xbd31b76a	-0.043387808
167	0x3d758ebf	0.059950586
168	0xbe3e8956	-0.18607077
169	0x3befc4b0	0.007317148
170	0xbd8cc9c1	-0.06874419
171	0xbe8405b6	-0.25785607
172	0xbd8f49a7	-0.0699647
173	0x3d964994	0.07338253
174	0xbe72f363	-0.23725657
175	0x3e4e2132	0.2012985
176	0x3d07378c	0.033011958
177	0x3de23602	0.110454574
178	0xbe3d6e55	-0.1849912
179	0xbe759980	-0.23984337
180	0xbdae115a	-0.08499403
181	0x3e360dca	0.17778698
182	0xbc37410a	-0.01118494
183	0x3ca4e3c2	0.020128135
184	0x3dd29053	0.10281434
185	0xbe09250d	-0.1339304
186	0x3ca98fc0	0.020698428
187	0x3d887654	0.06663194
188	0xbd273e90	-0.04083115
189	0xbd48be3d	-0.04900955
190	0xbe059cfe	-0.13048169
191	0xbd13d5d7	-0.036092605
192	0x3d1958a7	0.03743806
193	0xbe219517	-0.1577953
194	0x3cadbf2f	0.021209328
195	0xbe220317	-0.15821491
196	0x3e2e0faa	0.16998163
197	0xbc300544	-0.010743443
198	0xbd7bb015	-0.06144722
199	0x3e0b3bec	0.13597077
200	0x3d896162	0.067080274
201	0x3df663d5	0.1203076
202	0x3e9d50e6	0.30725783
203	0x3da94fd4	0.08267179
204	0x3e0e56db	0.1390032
205	0x3e9de455	0.30838266
206	0xbd9b371c	-0.07578871
207	0xbde3dc72	-0.11126031
208	0xbc5928b8	-0.013254337
209	0x3d9935e4	0.07480982
210	0x3cf7b1d6	0.030236166
211	0xbe047964	-0.12936932
212	0x3da095c0	0.078410625
213	0x3e33add6	0.17546782
214	0x3dbe11c7	0.092807345
215	0x3bfd0dc7	0.0077225897
216	0x38d3b000	0.000100940466
217	0xbe1b6892	-0.15176609
218	0xbe2bd08e	-0.16778776
219	0xbd6709f8	-0.05640599
220	0x3d8150bb	0.06314226
221	0x3c0170a4	0.007900391
222	0x3d7a1bb9	0.061061595
223	0xbc8f966f	-0.017527787
224	0x3e5150ec	0.20441025
225	0x3d79c5c1	0.06097961
226	0xbdb31e4b	-0.08746012
227	0xbd540505	-0.0517626
228	0x3c65c817	0.014024756
229	0xbe28f25a	-0.164987
230	0xbe4fafbd	-0.20281883
231	0xbd5626a0	-0.05228293
232	0x3d8f5180	0.06997967
233	0xbe09b2a2	-0.1344705
234	0xbe7113a7	-0.23542653
235	0xbc970ebe	-0.018439647
236	0xbd45c622	-0.048284657
237	0xbd41091b	-0.047127824
238	0xbdb5e27c	-0.08881089
239	0xbe070371	-0.13184907
240	0x3e1eb584	0.1549893
241	0xbd149424	-0.03627409
242	0xbcaf93ee	-0.021432843
243	0x3dca8004	0.09887698
244	0x3ea22287	0.31666967
245	0xbc386825	-0.011255299
246	0xbd9940c5	-0.07483057
247	0xbe19d02e	-0.1502082
248	0xbd2604fc	-0.040532097
249	0xbe4f0e48	-0.20220292
250	0xbe447959	-0.19186915
251	0xbcfd4004	-0.030914314
252	0xbca4776a	-0.020076472
253	0x3cf4c070	0.029876918
254	0xbe0f19cd	-0.13974686
255	0xbdddf88e	-0.10838424

actor.preprocess.model.model.2.bias f4 [64]
0	0x00000000	0.0
1	0x00000000	0.0
2	0x00000000	0.0
3	0x00000000	0.0
4	0x00000000	0.0
5	0x00000000	0.0
6	0x00000000	0.0
7	0x00000000	0.0
8	0x00000000	0.0
9	0x00000000	0.0
10	0x00000000	0.0
11	0x00000000	0.0
12	0x00000000	0.0
13	0x00000000	0.0
14	0x00000000	0.0
15	0x00000000	0.0
16	0x00000000	0.0
17	0x00000000	0.0
18	0x00000000	0.0
19	0x00000000	0.0
20	0x00000000	0.0
21	0x00000000	0.0
22	0x00000000	0.0
23	0x00000000	0.0
24	0x00000000	0.0
25	0x00000000	0.0
26	0x00000000	0.0
27	0x00000000	0.0
28	0x00000000	0.0
29	0x00000000	0.0
30	0x00000000	0.0
31	0x00000000	0.0
32	0x00000000	0.0
33	0x00000000	0.0
34	0x00000000	0.0
35	0x00000000	0.0
36	0x00000000	0.0
37	0x00000000	0.0
38	0x00000000	0.0
39	0x00000000	0.0
40	0x00000000	0.0
41	0x00000000	0.0
42	0x00000000	0.0
43	0x00000000	0.0
44	0x00000000	0.0
45	0x00000000	0.0
46	0x00000000	0.0
47	0x00000000	0.0
48	0x00000000	0.0
49	0x00000000	0.0
50	0x00000000	0.0
51	0x00000000	0.0
52	0x00000000	0.0
53	0x00000000	0.0
54	0x00000000	0.0
55	0x00000000	0.0
56	0x00000000	0.0
57	0x00000000	0.0
58	0x00000000	0.0
59	0x00000000	0.0
60	0x00000000	0.0
61	0x00000000	0.0
62	0x00000000	0.0
63	0x00000000	0.0

actor.last.model.0.weight f4 [2, 64]
0	0xbd2cf2c0	-0.042223692
1	0xbdb2a0bb	-0.08722063
2	0x3d7ea5f1	0.062169973
3	0x3d871532	0.065958396
4	0xbd8cbd3e	-0.068720326
5	0xbd8b53e8	-0.06803113
6	0x3dd96563	0.10615041
7	0xbcdddacf	-0.027081875
8	0xbe0f99b5	-0.14023478
9	0xbd23902b	-0.03993241
10	0xbccb508f	-0.024818687
11	0x3d4c4881	0.049873833
12	0x3e05d8d8	0.13071
13	0xbcfd2656	-0.030902069
14	0xbe66d24d	-0.22541161
15	0x3e0471d6	0.1293405
16	0xbe3364ee	-0.1751897
17	0xbe3e3133	-0.18573456
18	0x3e2a0146	0.16602048
19	0x3e463dcc	0.19359511
20	0x3d372685	0.04471447
21	0x3d06df19	0.032927606
22	0xbcd95f99	-0.026534842
23	0xbac66fce	-0.0015139522
24	0x3e130afe	0.14359662
25	0xbd7d56f3	-0.0618505
26	0xbe341e10	-0.17589593
27	0xbe15b575	-0.14620002
28	0xbd3307bd	-0.04370855
29	0x3db30fc1	0.08743239
30	0xbdef7863	-0.11692884
31	0xbe00fbd4	-0.12596065
32	0x3e473990	0.19455552
33	0x3e2bf6d2	0.16793373
34	0x3e1b3609	0.15157332
35	0x3e2f6391	0.17127825
36	0xbd9ae8b5	-0.075639166
37	0x3dff554b	0.1246744
38	0x3c5a6450	0.01332958
39	0xbd46d380	-0.048541546
40	0x3df3f6c7	0.119123034
41	0x3e1868e4	0.14883763
42	0xbd0a8621	-0.03381932
43	0x3df41996	0.11918943
44	0xbcbcdc8d	-0.023054386
45	0x3c9cd326	0.019143652
46	0xbd285136	-0.041093074
47	0x3d5f3e85	0.054502983
48	0xbe1ea2d1	-0.15491797
49	0x3e6276eb	0.22115676
50	0x3da4081b	0.080093585
51	0xbe4dc089	-0.20092978
52	0x3e0f5771	0.139982
53	0xbbf0442f	-0.007332347
54	0xbe530770	-0.20608306
55	0xbe82fec3	-0.25584993
56	0xbea12766	-0.3147537
57	0xbbd63318	-0.0065368526
58	0x3d1d0ce9	0.03834239
59	0x3e1452ef	0.14484762
60	0x3d5c8d38	0.053845614
61	0x3d312126	0.043244503
62	0x3e241dc9	0.16026987
63	0xbd4d8491	-0.050175253
64	0xbd9c882a	-0.07643159
65	0xbe79ec0b	-0.2440645
66	0xbd0d16b3	-0.034445476
67	0x3e169e13	0.14708738
68	0xbd639c7c	-0.055569157
69	0x3d5670fc	0.052353844
70	0x3e18bbb1	0.14915349
71	0x3dafa6ac	0.08576712
72	0x3e3f5c60	0.18687582
73	0xbb334199	-0.0027352332
74	0xbe4d8056	-0.20068488
75	0xbe1e3d38	-0.1545304
76	0x3da7790f	0.08177387
77	0xbe97f6d1	-0.29680493
78	0x3e2b6c4f	0.16740535
79	0xbe7595b8	-0.23982894
80	0xbd1d464b	-0.038397115
81	0x3d07693d	0.033059347
82	0x3eb07686	0.34465426
83	0xbd0cd853	-0.03438599
84	0x3d408b0b	0.0470076
85	0xbd7737b2	-0.06035585
86	0xbdb32b4d	-0.08748493
87	0xbdcfabc7	-0.10140186
88	0x3d2230e6	0.039597414
89	0xbe577fe3	-0.21044879
90	0xbd8c1f98	-0.068419635
91	0xbdbddecc	-0.09271011
92	0xbd677704	-0.056509987
93	0xbd9c3ac6	-0.07628398
94	0x3d2cffed	0.042236257
95	0xbaeefac9	-0.0018232699
96	0x3e2841ab	0.164313
97	0xbcfd613f	-0.03093016
98	0xbc6f70b7	-0.014614276
99	0xbdf99f32	-0.12188567
100	0xbd0485b2	-0.032354064
101	0xbe03b43c	-0.12861723
102	0x3df41be2	0.11919381
103	0xbd50a413	-0.050937723
104	0x3d074154	0.033021286
105	0xbd413468	-0.04716912
106	0xbdf1baf2	-0.11803235
107	0xbc6ffd5a	-0.014647806
108	0x3da33400	0.079689026
109	0xbe1ae090	-0.15124726
110	0x3d7d75fe	0.061880104
111	0x3d63a8bc	0.05558084
112	0x3e903f29	0.28173187
113	0x3d436da7	0.047711994
114	0x3e220dee	0.15825626
115	0xbda22ea0	-0.07919049
116	0x3d428a3d	0.047495116
117	0xbe162ff1	-0.14666726
118	0x3cb7c084	0.022430666
119	0x3c673449	0.014111587
120	0x3e0127b8	0.12612808
121	0xbde08719	-0.10963268
122	0xbe557979	-0.2084712
123	0xbdf5b6ca	-0.11997755
124	0xbd52e214	-0.051485136
125	0x3d97b251	0.07407058
126	0x3dffe0f7	0.124940805
127	0xbd54520f	-0.05183607

actor.last.model.0.bias f4 [2]
0	0x00000000	0.0
1	0x00000000	0.0

critic.preprocess.model.model.0.weight f4 [64, 4]
0	0xbd395220	-0.045244336
1	0x3cc492b8	0.023995742
2	0xbd22f276	-0.03978201
3	0x3defc89e	0.117081866
4	0xbe02d8d1	-0.12778021
5	0x3e0ae23d	0.13562866
6	0xbe071291	-0.13190676
7	0xbe94c9cd	-0.29060212
8	0x3d1a11c8	0.037614614
9	0x3c7e6715	0.015527506
10	0x3cc85e5b	0.024459055
11	0x3e2d9b6c	0.1695382
12	0xbd68f0df	-0.056870338
13	0x3c64d45f	0.013966649
14	0x3da5adc2	0.08089782
15	0xbd100f76	-0.035170995
16	0xbe402382	-0.18763545
17	0xbe69a2da	-0.22816029
18	0xbe6ef6c8	-0.23336327
19	0x3df0d564	0.11759451
20	0x3dc8552a	0.09781869
21	0xbd393d0d	-0.04522424
22	0x3eb02306	0.3440172
23	0x3d75d90b	0.06002144
24	0xbde25650	-0.11051619
25	0x3d5f08e5	0.05445184
26	0x3d6cddae	0.057828598
27	0xbdba61c6	-0.0910068
28	0x3de6a883	0.1126261
29	0xbe05774c	-0.1303379
30	0xbd803f8a	-0.06262119
31	0xbd5fdf5c	-0.05465637
32	0xbe4ee7be	-0.2020559
33	0x3de2f63b	0.11082121
34	0x3d0ab02d	0.03385942
35	0xbd4086b5	-0.047003467
36	0x3dda1cfd	0.1065006
37	0xbe111e4b	-0.14171712
38	0xbe0ca286	-0.13733873
39	0xbd242a94	-0.04007967
40	0xbd9fe6ec	-0.07807717
41	0x3d1f22a4	0.038851395
42	0x3d59b2b3	0.053148936
43	0xbd7fdcb1	-0.062466327
44	0xbdb4654f	-0.088083856
45	0xbb71dc28	-0.0036904905
46	0x3da020e0	0.078187704
47	0x3dae4ab0	0.08510339
48	0xbd45dd9c	-0.048307046
49	0x3d833c56	0.064079925
50	0xbe8d3239	-0.2757738
51	0xbe1b793b	-0.15182965
52	0x3baf1d38	0.0053440593
53	0xbe036adc	-0.12833732
54	0xbe4efb4d	-0.20213051
55	0x3e839dae	0.25706238
56	0x3d0a01db	0.033693176
57	0x3dbaafb2	0.091155425
58	0xbc9c7bc5	-0.019101987
59	0x3cb4d652	0.022074852
60	0xbd668863	-0.056282412
61	0x3d6ad167	0.057328608
62	0xbd520f5a	-0.05128417
63	0xbd86338e	-0.06552802
64	0x3b815760	0.0039471835
65	0x3d84839a	0.064704135
66	0xbc307e8e	-0.0107723605
67	0x3dc43818	0.095810115
68	0xbc2401db	-0.010010208
69	0xbdd6beac	-0.104855865
70	0xbc0b095e	-0.00848612
71	0xbe6e5f54	-0.23278552
72	0xbdca4366	-0.098761365
73	0x3c4894c4	0.0122425
74	0x3de7a18f	0.11310112
75	0x3e7f42c8	0.24927819
76	0xbbd7f5f5	-0.0065905997
77	0x3c533c98	0.012892865
78	0xbded8280	-0.115971565
79	0x3ce7634b	0.028245589
80	0xbe9ff75f	-0.31243417
81	0xbe411a7c	-0.18857759
82	0x3db58c26	0.08864622
83	0x3d03e51d	0.03220092
84	0xbd4a5cfe	-0.04940509
85	0x3e281925	0.16415842
86	0x3d82b6a8	0.06382495
87	0x3d167539	0.036732886
88	0x3c004eb8	0.007831268
89	0x3d3f1df7	0.046659436
90	0xbc77b258	-0.015118204
91	0xbc58d423	-0.013234171
92	0xbe10d13f	-0.14142321
93	0xbcc97d9b	-0.024596026
94	0xbcd8783b	-0.026424518
95	0x3d99ca26	0.0750926
96	0x3e1746bf	0.14773081
97	0x3e700ce1	0.23442413
98	0xbdc49629	-0.09598953
99	0xbde59cac	-0.112115234
100	0x3d309277	0.04310843
101	0x3cae93d6	0.021310728
102	0x3d37c4e5	0.044865508
103	0xbd9f6a7a	-0.07783981
104	0xbe52519d	-0.20538945
105	0x3e610026	0.21972713
106	0x3e2907c8	0.16506875
107	0x3d8ca63a	0.06867643
108	0xbd556ec6	-0.052107595
109	0x3bac8bc8	0.0052656867
110	0xbdd38b60	-0.10329318
111	0x3c3d71bf	0.011562764
112	0x3dcf2a41	0.10115481
113	0xbd347147	-0.044053342
114	0xbe0bedc0	-0.13664913
115	0x3d10b523	0.035328995
116	0x3e0f6c14	0.14006072
117	0x3ca00f04	0.01953841
118	0xbe4ac0a3	-0.19800048
119	0xbd43f98c	-0.04784541
120	0x3e3a6307	0.18201838
121	0x3debe1ba	0.11517663
122	0xbd84549d	-0.06461451
123	0x3dfbca1b	0.12294408
124	0x3c822164	0.015885063
125	0xb9806d66	-0.0002449557
126	0x3d8eae88	0.06966883
127	0x3e5a1316	0.21296343
128	0xbdec9b1d	-0.11553023
129	0xbdec5e9f	-0.11541485
130	0x3ead5b8e	0.33858913
131	0xbe06c9b6	-0.13162884
132	0xbe14e472	-0.1454027
133	0x3db0c19d	0.08630679
134	0x3cb5152a	0.022104818
135	0x3b4bba72	0.0031086472
136	0x3d03e48c	0.03220038
137	0xbda2ee93	-0.07955661
138	0x3cae9cda	0.021315027
139	0xbdac47b2	-0.08412112
140	0x3daab4ed	0.0833529
141	0x3d856bbb	0.065146886
142	0xbbf93a80	-0.0076058507
143	0x3ccfa2fb	0.02534627
144	0xbdf68da9	-0.12038738
145	0xbe1adee4	-0.15124089
146	0xbe428b20	-0.18998384
147	0xbde29486	-0.11063485
148	0xbe24fc44	-0.16111857
149	0x3d9db7d5	0.07701079
150	0x3cb60481	0.022218945
151	0xbde582ae	-0.11206566
152	0xbe2bc224	-0.16773278
153	0x3c4fa911	0.012674586
154	0x3de04439	0.109505124
155	0x3d07b01d	0.03312694
156	0x3b54b979	0.0032459183
157	0x3ce31888	0.027721658
158	0x3df94564	0.12171438
159	0xbc6d10fc	-0.014469381
160	0xbe116974	-0.14200383
161	0x3df66b3a	0.120321706
162	0xbdb7d417	-0.08976
163	0x3e266052	0.16247681
164	0xbe63f745	-0.22262295
165	0x3dbf4669	0.093396015
166	0xbd9fd7af	-0.0780481
167	0x3e43eff8	0.1913451
168	0x3d29e79c	0.041480646
169	0xbde2165f	-0.11039423
170	0xbc2c23ef	-0.010506614
171	0x3e5cda56	0.21567664
172	0x3dd9cb67	0.10634499
173	0xbe6af3e8	-0.22944605
174	0x3dc0c839	0.094131894
175	0xbd9c7a22	-0.076404825
176	0x3eb69b8c	0.35665548
177	0x3e3425ee	0.17592594
178	0xbbc45308	-0.0059913434
179	0x3e094dcf	0.13408588
180	0x3d33fa38	0.0439398
181	0xbeb01d74	-0.3439747
182	0xbd928220	-0.071537256
183	0xbd8ef603	-0.06980517
184	0xbe5d951d	-0.21638913
185	0x3acd2d7d	0.0015653815
186	0xbd316e61	-0.043318156
187	0x3d04dde6	0.03243818
188	0x3d32a915	0.04361828
189	0x3e3ccdf8	0.18437946
190	0x3dd95838	0.106125295
191	0xbdbce2d9	-0.09222955
192	0xbe089b23	-0.1334043
193	0x3e225b07	0.15855037
194	0xbe977fc4	-0.29589665
195	0x3e772662	0.24135736
196	0xbd2b149e	-0.04176771
197	0x3e0dc7ad	0.13845702
198	0xbe72990b	-0.23691194
199	0xbdf4f7c7	-0.11961322
200	0xbd942289	-0.072331496
201	0x3d03c766	0.032172583
202	0xbd98c118	-0.07458705
203	0xbdad1279	-0.08450789
204	0x3d82a9bd	0.06380031
205	0xbdab4ae8	-0.083638966
206	0x3dcfd6c8	0.10148388
207	0xbdb027a6	-0.08601312
208	0x3d42ad98	0.047528833
209	0x3e6b1255	0.22956212
210	0x3db7c724	0.0897353
211	0x3e6eae0a	0.23308578
212	0xbc85ac41	-0.016317489
213	0x3d813f39	0.06310887
214	0xbe182d9e	-0.14861152
215	0xbd677a42	-0.05651308
216	0x3dad4126	0.08459692
217	0x3c95d5f2	0.018290494
218	0x3c422715	0.011850138
219	0xbda06737	-0.07832187
220	0x3dff54a4	0.12467316
221	0xbe6a8357	-0.22901665
222	0xbc976a1b	-0.018483212
223	0x3e2090c9	0.15680231
224	0x3e3dcf0d	0.18536015
225	0x3d95a188	0.073062
226	0xbdde720e	-0.10861598
227	0x3cb2ce1b	0.021826794
228	0x3e10e20a	0.14148727
229	0xbd869465	-0.06571273
230	0xbd63c845	-0.055610914
231	0x39f509ed	0.00046737437
232	0x3e4c48c2	0.1994963
233	0x3d7bc36e	0.061465673
234	0x3def3ab1	0.11681116
235	0x3dfd0cd1	0.1235596
236	0x3ce27a8a	0.027646322
237	0x3d686d23	0.056744706
238	0xbe131207	-0.14362346
239	0xbe7d8e60	-0.24761343
240	0x3b515444	0.0031941095
241	0x3d172d9b	0.036908727
242	0xbca3f8cc	-0.020016097
243	0x3c26c4f0	0.0101787895
244	0xbdd806f6	-0.10548203
245	0x3e04d10e	0.12970373
246	0x3e0b2ea4	0.1359201
247	0xbe354fb6	-0.17706189
248	0xbdcc69ea	-0.09981139
249	0x3e3436fb	0.17599098
250	0xbdb62313	-0.088934086
251	0x3db1963b	0.08671232
252	0x3e34361b	0.17598765
253	0x3e912b51	0.2835336
254	0x3d6271c1	0.055284265
255	0xbe17d4fa	-0.14827338

critic.preprocess.model.model.0.bias f4 [64]
0	0x00000000	0.0
1	0x00000000	0.0
2	0x00000000	0.0
3	0x00000000	0.0
4	0x00000000	0.0
5	0x00000000	0.0
6	0x00000000	0.0
7	0x00000000	0.0
8	0x00000000	0.0
9	0x00000000	0.0
10	0x00000000	0.0
11	0x00000000	0.0
12	0x00000000	0.0
13	0x00000000	0.0
14	0x00000000	0.0
15	0x00000000	0.0
16	0x00000000	0.0
17	0x00000000	0.0
18	0x00000000	0.0
19	0x00000000	0.0
20	0x00000000	0.0
21	0x00000000	0.0
22	0x00000000	0.0
23	0x00000000	0.0
24	0x00000000	0.0
25	0x00000000	0.0
26	0x00000000	0.0
27	0x00000000	0.0
28	0x00000000	0.0
29	0x00000000	0.0
30	0x00000000	0.0
31	0x00000000	0.0
32	0x00000000	0.0
33	0x00000000	0.0
34	0x00000000	0.0
35	0x00000000	0.0
36	0x00000000	0.0
37	0x00000000	0.0
38	0x00000000	0.0
39	0x00000000	0.0
40	0x00000000	0.0
41	0x00000000	0.0
42	0x00000000	0.0
43	0x00000000	0.0
44	0x00000000	0.0
45	0x00000000	0.0
46	0x00000000	0.0
47	0x00000000	0.0
48	0x00000000	0.0
49	0x00000000	0.0
50	0x00000000	0.0
51	0x00000000	0.0
52	0x00000000	0.0
53	0x00000000	0.0
54	0x00000000	0.0
55	0x00000000	0.0
56	0x00000000	0.0
57	0x00000000	0.0
58	0x00000000	0.0
59	0x00000000	0.0
60	0x00000000	0.0
61	0x00000000	0.0
62	0x00000000	0.0
63	0x00000000	0.0

critic.preprocess.model.model.2.weight f4 [64, 64]
0	0xbd0a3e80	-0.03375101
1	0x3c9acfd1	0.018897923
2	0xbc7f7449	-0.015591689
3	0xbdf4b14d	-0.1194788
4	0xbc9c4459	-0.01907556
5	0x3cdf53fd	0.027261728
6	0x3db38085	0.087647475
7	0xbe073f8d	-0.13207836
8	0x3e229c8e	0.15880033
9	0x3e601b32	0.21885374
10	0xbe7daf78	-0.24773967
11	0xbd3c95c3	-0.04604126
12	0x3d9ce09b	0.076600276
13	0x3e2f3266	0.17109069
14	0xbe3b92ad	-0.18317671
15	0x3d2f218c	0.042756602
16	0x3c9922f5	0.018693427
17	0xbc9a793a	-0.018856633
18	0xbcbefdf5	-0.023314456
19	0x3e3aea96	0.1825355
20	0x3ddba5d6	0.1072499
21	0xbc43bd0f	-0.011946931
22	0xbd825e1d	-0.06365607
23	0xbe2305b7	-0.15920149
24	0x3e5069bb	0.20352833
25	0x3de74e22	0.112941995
26	0xbe73df1a	-0.23815575
27	0xbe41538c	-0.18879527
28	0x3ea8c37f	0.32961652
29	0xbe203d45	-0.15648372
30	0xbcde3a5d	-0.02712744
31	0xbc91597c	-0.017742865
32	0xbd29fbdc	-0.041499957
33	0xbcc59e2f	-0.02412328
34	0x3b040be5	0.0020148691
35	0x3d16321b	0.036668878
36	0xbe2dce4b	-0.16973226
37	0xbd4dab78	-0.050212353
38	0xbe175e23	-0.14782004
39	0x3e02778a	0.12740913
40	0xbe50678c	-0.20352
41	0xbd89e1a0	-0.06732488
42	0xbd1cb491	-0.03825814
43	0xbd3ecd2b	-0.046582382
44	0x3c3ad0ee	0.011402352
45	0xbcede65a	-0.029040504
46	0xbc533ffc	-0.012893673
47	0xbe825497	-0.25455162
48	0xbe3584c2	-0.17726424
49	0x3da3114d	0.07962284
50	0x3dd74fcf	0.10513269
51	0xbdcf2b9d	-0.101157404
52	0xbd44d60f	-0.048055705
53	0xbd6edda4	-0.05831684
54	0x3b9e7978	0.0048362575
55	0xbd43ad44	-0.04777266
56	0xbd29c40e	-0.041446738
57	0x3d9f0359	0.077643104
58	0x3e290319	0.16505088
59	0xbd881540	-0.06644678
60	0x3caede7b	0.021346321
61	0x3e2e824d	0.17041893
62	0xbde80da5	-0.113307275
63	0x3e743dae	0.23851654
64	0xbcbe394c	-0.02322068
65	0xbde07ef1	-0.10961712
66	0x3e2a0e0d	0.16606922
67	0x3dfa8693	0.12232699
68	0xbcb4620e	-0.022019412
69	0x3e81476d	0.25249806
70	0x3e4698e9	0.19394268
71	0x3def7401	0.11692048
72	0x3df05198	0.11734313
73	0xbe1cf737	-0.1532868
74	0x3d25295a	0.04032264
75	0x3d5a05b2	0.053228088
76	0x3e2cf79d	0.16891332
77	0xbd81585f	-0.063156836
78	0xbcd8b6ec	-0.026454411
79	0x3d993434	0.0748066
80	0x3e321800	0.17391968
81	0x3cf206b6	0.029544216
82	0x3d052618	0.032507032
83	0x3e169de1	0.14708664
84	0x3decd3ba	0.11563821
85	0x3da76529	0.08173592
86	0xbd956f48	-0.07296616
87	0x3c96affd	0.018394465
88	0xbd15ae4d	-0.03654318
89	0xbe0963f2	-0.13417032
90	0xbcd0aa8a	-0.025471944
91	0x3d8ae1e9	0.0678137
92	0x3d8092a1	0.06277967
93	0xbe62301d	-0.22088666
94	0xbdfceace	-0.12349473
95	0xbd5967b8	-0.05307743
96	0x3e07ea36	0.13272938
97	0xbddd478d	-0.10804663
98	0xba78cacb	-0.0009490668
99	0x3d6ad767	0.05733433
100	0xbe057e70	-0.13036513
101	0xbe31d8c8	-0.17367852
102	0x3e3197ae	0.17343017
103	0xbdeb99db	-0.11503955
104	0xbe292348	-0.16517365
105	0xbe064c42	-0.13115028
106	0xbd1b0fc9	-0.03785685
107	0x3e1d865d	0.15383287
108	0xbd5a1e1a	-0.053251363
109	0x3d05cda3	0.032666814
110	0xbd6e4d9f	-0.058179494
111	0x3dfffbcb	0.124991976
112	0x3e47cef2	0.19512537
113	0xbcec6023	-0.028854435
114	0xbe14ec12	-0.14543179
115	0x3cf17c98	0.029478356
116	0xbe4c74ca	-0.19966426
117	0xbe16d29e	-0.14728782
118	0xbe05ad3b	-0.13054363
119	0x3e6ce694	0.23134834
120	0xbe205c3a	-0.15660182
121	0xbe20c2f3	-0.15699367
122	0x3e08f062	0.13372949
123	0xbd24101c	-0.040054426
124	0xbe5bc218	-0.2146076
125	0xbe46e7d9	-0.1942438
126	0xbda68815	-0.08131424
127	0x3da23a38	0.079212606
128	0x3e13998d	0.14414044
129	0x3e7e4da7	0.2483431
130	0x3d937961	0.072008856
131	0xbdc5c098	-0.09655875
132	0xbe361af6	-0.17783722
133	0xbd7dda7d	-0.061975945
134	0xbdf27e9c	-0.11840555
135	0xbe3613d6	-0.17781004
136	0xbc43b775	-0.011945595
137	0x3da191dc	0.078891486
138	0x3e1fd227	0.1560751
139	0x3d7dd331	0.061968986
140	0xbe14c82c	-0.14529485
141	0xbd330640	-0.043707132
142	0x3d1e2c79	0.03861663
143	0xbdd1c42a	-0.102424935
144	0xbd586435	-0.05282994
145	0xbde426fe	-0.1114025
146	0x3e181ff7	0.14855944
147	0x3dd770d4	0.10519567
148	0xbd23397b	-0.03984974
149	0x3e26ec19	0.16301002
150	0xbd9ac002	-0.07556154
151	0x3e032264	0.12806088
152	0x3d2c1566	0.042012595
153	0x3b32b074	0.0027265819
154	0xbe3834cf	-0.17988895
155	0x3d7fc096	0.062439524
156	0xbdbdda92	-0.092702046
157	0xbc6f2760	-0.01459679
158	0x3e3c1138	0.18365943
159	0x3d8e7196	0.069552585
160	0xbdcacc44	-0.09902242
161	0xbe863158	-0.2620952
162	0xbdf66223	-0.12030437
163	0xbe2187d6	-0.15774474
164	0xbe11dde9	-0.14244808
165	0xbddc5658	-0.10758656
166	0xbd31b76a	-0.043387808
167	0x3d758ebf	0.059950586
168	0xbe3e8956	-0.18607077
169	0x3befc4b0	0.007317148
170	0xbd8cc9c1	-0.06874419
171	0xbe8405b6	-0.25785607
172	0xbd8f49a7	-0.0699647
173	0x3d964994	0.07338253
174	0xbe72f363	-0.23725657
175	0x3e4e2132	0.2012985
176	0x3d07378c	0.033011958
177	0x3de23602	0.110454574
178	0xbe3d6e55	-0.1849912
179	0xbe759980	-0.23984337
180	0xbdae115a	-0.08499403
181	0x3e360dca	0.17778698
182	0xbc37410a	-0.01118494
183	0x3ca4e3c2	0.020128135
184	0x3dd29053	0.10281434
185	0xbe09250d	-0.1339304
186	0x3ca98fc0	0.020698428
187	0x3d887654	0.06663194
188	0xbd273e90	-0.04083115
189	0xbd48be3d	-0.04900955
190	0xbe059cfe	-0.13048169
191	0xbd13d5d7	-0.036092605
192	0x3d1958a7	0.03743806
193	0xbe219517	-0.1577953
194	0x3cadbf2f	0.021209328
195	0xbe220317	-0.15821491
196	0x3e2e0faa	0.16998163
197	0xbc300544	-0.010743443
198	0xbd7bb015	-0.06144722
199	0x3e0b3bec	0.13597077
200	0x3d896162	0.067080274
201	0x3df663d5	0.1203076
202	0x3e9d50e6	0.30725783
203	0x3da94fd4	0.08267179
204	0x3e0e56db	0.1390032
205	0x3e9de455	0.30838266
206	0xbd9b371c	-0.07578871
207	0xbde3dc72	-0.11126031
208	0xbc5928b8	-0.013254337
209	0x3d9935e4	0.07480982
210	0x3cf7b1d6	0.030236166
211	0xbe047964	-0.12936932
212	0x3da095c0	0.078410625
213	0x3e33add6	0.17546782
214	0x3dbe11c7	0.092807345
215	0x3bfd0dc7	0.0077225897
216	0x38d3b000	0.000100940466
217	0xbe1b6892	-0.15176609
218	0xbe2bd08e	-0.16778776
219	0xbd6709f8	-0.05640599
220	0x3d8150bb	0.06314226
221	0x3c0170a4	0.007900391
222	0x3d7a1bb9	0.061061595
223	0xbc8f966f	-0.017527787
224	0x3e5150ec	0.20441025
225	0x3d79c5c1	0.06097961
226	0xbdb31e4b	-0.08746012
227	0xbd540505	-0.0517626
228	0x3c65c817	0.014024756
229	0xbe28f25a	-0.164987
230	0xbe4fafbd	-0.20281883
231	0xbd5626a0	-0.05228293
232	0x3d8f5180	0.06997967
233	0xbe09b2a2	-0.1344705
234	0xbe7113a7	-0.23542653
235	0xbc970ebe	-0.018439647
236	0xbd45c622	-0.048284657
237	0xbd41091b	-0.047127824
238	0xbdb5e27c	-0.08881089
239	0xbe070371	-0.13184907
240	0x3e1eb584	0.1549893
241	0xbd149424	-0.03627409
242	0xbcaf93ee	-0.021432843
243	0x3dca8004	0.09887698
244	0x3ea22287	0.31666967
245	0xbc386825	-0.011255299
246	0xbd9940c5	-0.07483057
247	0xbe19d02e	-0.1502082
248	0xbd2604fc	-0.040532097
249	0xbe4f0e48	-0.20220292
250	0xbe447959	-0.19186915
251	0xbcfd4004	-0.030914314
252	0xbca4776a	-0.020076472
253	0x3cf4c070	0.029876918
254	0xbe0f19cd	-0.13974686
255	0xbdddf88e	-0.10838424

critic.preprocess.model.model.2.bias f4 [64]
0	0x00000000	0.0
1	0x00000000	0.0
2	0x00000000	0.0
3	0x00000000	0.0
4	0x00000000	0.0
5	0x00000000	0.0
6	0x00000000	0.0
7	0x00000000	0.0
8	0x00000000	0.0
9	0x00000000	0.0
10	0x00000000	0.0
11	0x00000000	0.0
12	0x00000000	0.0
13	0x00000000	0.0
14	0x00000000	0.0
15	0x00000000	0.0
16	0x00000000	0.0
17	0x00000000	0.0
18	0x00000000	0.0
19	0x00000000	0.0
20	0x00000000	0.0
21	0x00000000	0.0
22	0x00000000	0.0
23	0x00000000	0.0
24	0x00000000	0.0
25	0x00000000	0.0
26	0x00000000	0.0
27	0x00000000	0.0
28	0x00000000	0.0
29	0x00000000	0.0
30	0x00000000	0.0
31	0x00000000	0.0
32	0x00000000	0.0
33	0x00000000	0.0
34	0x00000000	0.0
35	0x00000000	0.0
36	0x00000000	0.0
37	0x00000000	0.0
38	0x00000000	0.0
39	0x00000000	0.0
40	0x00000000	0.0
41	0x00000000	0.0
42	0x00000000	0.0
43	0x00000000	0.0
44	0x00000000	0.0
45	0x00000000	0.0
46	0x00000000	0.0
47	0x00000000	0.0
48	0x00000000	0.0
49	0x00000000	0.0
50	0x00000000	0.0
51	0x00000000	0.0
52	0x00000000	0.0
53	0x00000000	0.0
54	0x00000000	0.0
55	0x00000000	0.0
56	0x00000000	0.0
57	0x00000000	0.0
58	0x00000000	0.0
59	0x00000000	0.0
60	0x00000000	0.0
61	0x00000000	0.0
62	0x00000000	0.0
63	0x00000000	0.0

critic.last.model.0.weight f4 [1, 64]
0	0x3e3906c8	0.18068993
1	0x3d544922	0.051827557
2	0xbe619b84	-0.22031981
3	0xbda86b55	-0.08223597
4	0x3e02d572	0.12776735
5	0xbda460f4	-0.08026305
6	0x3e1d7f6a	0.15380636
7	0x3de8b017	0.113617115
8	0x3d9ee456	0.077583954
9	0x3d73fb94	0.059566095
10	0xbd96d48b	-0.07364758
11	0x3d9ba250	0.07599318
12	0x3e4db9ed	0.20090456
13	0x3e1b8e8c	0.15191096
14	0x3caef512	0.021357093
15	0xbd5d7ebc	-0.05407594
16	0xbd451085	-0.048111457
17	0xbd9cd8b4	-0.0765852
18	0xbe0f2cb6	-0.139819
19	0xbca27c06	-0.01983453
20	0xbc9895bd	-0.018626088
21	0x3dc2efa7	0.09518366
22	0x3e8ff0d2	0.2811342
23	0xbdf57ce2	-0.1198671
24	0xbd3c828a	-0.04602293
25	0x3da619c2	0.08110382
26	0x3dd46777	0.10371297
27	0x3b444f6c	0.0029954566
28	0xbdfb4724	-0.12269428
29	0x3d4ec555	0.05048116
30	0x3e69f97b	0.22849075
31	0x3e461614	0.1934436
32	0x3e008ad1	0.12552954
33	0xbccc126d	-0.02491113
34	0xbe913698	-0.28361964
35	0xbd84a953	-0.064776085
36	0xbd054ff6	-0.03254696
37	0xbe05f541	-0.13081838
38	0xbe8c69c1	-0.27424434
39	0xbe1d7f4a	-0.15380588
40	0x3d9517cf	0.07279932
41	0x3d9b375f	0.075789206
42	0x3c7f92c0	0.015598953
43	0xbe43a271	-0.19104935
44	0x3ddd8e11	0.10818113
45	0xbdb8bd14	-0.09020439
46	0xbe1a7397	-0.15083157
47	0x3e85c616	0.2612769
48	0xbd81b8fd	-0.06334112
49	0xbe2d306e	-0.16913006
50	0xbb4df378	-0.0031425636
51	0x3d7125f1	0.058874074
52	0xbc945046	-0.018104684
53	0xbe247e4a	-0.160638
54	0x3d7eb8c6	0.062187932
55	0x3d331f24	0.04373087
56	0x3dbf15ec	0.09330353
57	0x3ce84fb9	0.028358327
58	0xbd02d287	-0.031939056
59	0x3daa71a8	0.083224595
60	0x3dff9f33	0.12481537
61	0x3c01d5f8	0.007924549
62	0x3dc9bd81	0.09850598
63	0x3e06be1c	0.13158458

_actor_critic.actor.preprocess.model.model.0.weight f4 [64, 4]
0	0xbd395220	-0.045244336
1	0x3cc492b8	0.023995742
2	0xbd22f276	-0.03978201
3	0x3defc89e	0.117081866
4	0xbe02d8d1	-0.12778021
5	0x3e0ae23d	0.13562866
6	0xbe071291	-0.13190676
7	0xbe94c9cd	-0.29060212
8	0x3d1a11c8	0.037614614
9	0x3c7e6715	0.015527506
10	0x3cc85e5b	0.024459055
11	0x3e2d9b6c	0.1695382
12	0xbd68f0df	-0.056870338
13	0x3c64d45f	0.013966649
14	0x3da5adc2	0.08089782
15	0xbd100f76	-0.035170995
16	0xbe402382	-0.18763545
17	0xbe69a2da	-0.22816029
18	0xbe6ef6c8	-0.23336327
19	0x3df0d564	0.11759451
20	0x3dc8552a	0.09781869
21	0xbd393d0d	-0.04522424
22	0x3eb02306	0.3440172
23	0x3d75d90b	0.06002144
24	0xbde25650	-0.11051619
25	0x3d5f08e5	0.05445184
26	0x3d6cddae	0.057828598
27	0xbdba61c6	-0.0910068
28	0x3de6a883	0.1126261
29	0xbe05774c	-0.1303379
30	0xbd803f8a	-0.06262119
31	0xbd5fdf5c	-0.05465637
32	0xbe4ee7be	-0.2020559
33	0x3de2f63b	0.11082121
34	0x3d0ab02d	0.03385942
35	0xbd4086b5	-0.047003467
36	0x3dda1cfd	0.1065006
37	0xbe111e4b	-0.14171712
38	0xbe0ca286	-0.13733873
39	0xbd242a94	-0.04007967
40	0xbd9fe6ec	-0.07807717
41	0x3d1f22a4	0.038851395
42	0x3d59b2b3	0.053148936
43	0xbd7fdcb1	-0.062466327
44	0xbdb4654f	-0.088083856
45	0xbb71dc28	-0.0036904905
46	0x3da020e0	0.078187704
47	0x3dae4ab0	0.08510339
48	0xbd45dd9c	-0.048307046
49	0x3d833c56	0.064079925
50	0xbe8d3239	-0.2757738
51	0xbe1b793b	-0.15182965
52	0x3baf1d38	0.0053440593
53	0xbe036adc	-0.12833732
54	0xbe4efb4d	-0.20213051
55	0x3e839dae	0.25706238
56	0x3d0a01db	0.033693176
57	0x3dbaafb2	0.091155425
58	0xbc9c7bc5	-0.019101987
59	0x3cb4d652	0.022074852
60	0xbd668863	-0.056282412
61	0x3d6ad167	0.057328608
62	0xbd520f5a	-0.05128417
63	0xbd86338e	-0.06552802
64	0x3b815760	0.0039471835
65	0x3d84839a	0.064704135
66	0xbc307e8e	-0.0107723605
67	0x3dc43818	0.095810115
68	0xbc2401db	-0.010010208
69	0xbdd6beac	-0.104855865
70	0xbc0b095e	-0.00848612
71	0xbe6e5f54	-0.23278552
72	0xbdca4366	-0.098761365
73	0x3c4894c4	0.0122425
74	0x3de7a18f	0.11310112
75	0x3e7f42c8	0.24927819
76	0xbbd7f5f5	-0.0065905997
77	0x3c533c98	0.012892865
78	0xbded8280	-0.115971565
79	0x3ce7634b	0.028245589
80	0xbe9ff75f	-0.31243417
81	0xbe411a7c	-0.18857759
82	0x3db58c26	0.08864622
83	0x3d03e51d	0.03220092
84	0xbd4a5cfe	-0.04940509
85	0x3e281925	0.16415842
86	0x3d82b6a8	0.06382495
87	0x3d167539	0.036732886
88	0x3c004eb8	0.007831268
89	0x3d3f1df7	0.046659436
90	0xbc77b258	-0.015118204
91	0xbc58d423	-0.013234171
92	0xbe10d13f	-0.14142321
93	0xbcc97d9b	-0.024596026
94	0xbcd8783b	-0.026424518
95	0x3d99ca26	0.0750926
96	0x3e1746bf	0.14773081
97	0x3e700ce1	0.23442413
98	0xbdc49629	-0.09598953
99	0xbde59cac	-0.112115234
100	0x3d309277	0.04310843
101	0x3cae93d6	0.021310728
102	0x3d37c4e5	0.044865508
103	0xbd9f6a7a	-0.07783981
104	0xbe52519d	-0.20538945
105	0x3e610026	0.21972713
106	0x3e2907c8	0.16506875
107	0x3d8ca63a	0.06867643
108	0xbd556ec6	-0.052107595
109	0x3bac8bc8	0.0052656867
110	0xbdd38b60	-0.10329318
111	0x3c3d71bf	0.011562764
112	0x3dcf2a41	0.10115481
113	0xbd347147	-0.044053342
114	0xbe0bedc0	-0.13664913
115	0x3d10b523	0.035328995
116	0x3e0f6c14	0.14006072
117	0x3ca00f04	0.01953841
118	0xbe4ac0a3	-0.19800048
119	0xbd43f98c	-0.04784541
120	0x3e3a6307	0.18201838
121	0x3debe1ba	0.11517663
122	0xbd84549d	-0.06461451
123	0x3dfbca1b	0.12294408
124	0x3c822164	0.015885063
125	0xb9806d66	-0.0002449557
126	0x3d8eae88	0.06966883
127	0x3e5a1316	0.21296343
128	0xbdec9b1d	-0.11553023
129	0xbdec5e9f	-0.11541485
130	0x3ead5b8e	0.33858913
131	0xbe06c9b6	-0.13162884
132	0xbe14e472	-0.1454027
133	0x3db0c19d	0.08630679
134	0x3cb5152a	0.022104818
135	0x3b4bba72	0.0031086472
136	0x3d03e48c	0.03220038
137	0xbda2ee93	-0.07955661
138	0x3cae9cda	0.021315027
139	0xbdac47b2	-0.08412112
140	0x3daab4ed	0.0833529
141	0x3d856bbb	0.065146886
142	0xbbf93a80	-0.0076058507
143	0x3ccfa2fb	0.02534627
144	0xbdf68da9	-0.12038738
145	0xbe1adee4	-0.15124089
146	0xbe428b20	-0.18998384
147	0xbde29486	-0.11063485
148	0xbe24fc44	-0.16111857
149	0x3d9db7d5	0.07701079
150	0x3cb60481	0.022218945
151	0xbde582ae	-0.11206566
152	0xbe2bc224	-0.16773278
153	0x3c4fa911	0.012674586
154	0x3de04439	0.109505124
155	0x3d07b01d	0.03312694
156	0x3b54b979	0.0032459183
157	0x3ce31888	0.027721658
158	0x3df94564	0.12171438
159	0xbc6d10fc	-0.014469381
160	0xbe116974	-0.14200383
161	0x3df66b3a	0.120321706
162	0xbdb7d417	-0.08976
163	0x3e266052	0.16247681
164	0xbe63f745	-0.22262295
165	0x3dbf4669	0.093396015
166	0xbd9fd7af	-0.0780481
167	0x3e43eff8	0.1913451
168	0x3d29e79c	0.041480646
169	0xbde2165f	-0.11039423
170	0xbc2c23ef	-0.010506614
171	0x3e5cda56	0.21567664
172	0x3dd9cb67	0.10634499
173	0xbe6af3e8	-0.22944605
174	0x3dc0c839	0.094131894
175	0xbd9c7a22	-0.076404825
176	0x3eb69b8c	0.35665548
177	0x3e3425ee	0.17592594
178	0xbbc45308	-0.0059913434
179	0x3e094dcf	0.13408588
180	0x3d33fa38	0.0439398
181	0xbeb01d74	-0.3439747
182	0xbd928220	-0.071537256
183	0xbd8ef603	-0.06980517
184	0xbe5d951d	-0.21638913
185	0x3acd2d7d	0.0015653815
186	0xbd316e61	-0.043318156
187	0x3d04dde6	0.03243818
188	0x3d32a915	0.04361828
189	0x3e3ccdf8	0.18437946
190	0x3dd95838	0.106125295
191	0xbdbce2d9	-0.09222955
192	0xbe089b23	-0.1334043
193	0x3e225b07	0.15855037
194	0xbe977fc4	-0.29589665
195	0x3e772662	0.24135736
196	0xbd2b149e	-0.04176771
197	0x3e0dc7ad	0.13845702
198	0xbe72990b	-0.23691194
199	0xbdf4f7c7	-0.11961322
200	0xbd942289	-0.072331496
201	0x3d03c766	0.032172583
202	0xbd98c118	-0.07458705
203	0xbdad1279	-0.08450789
204	0x3d82a9bd	0.06380031
205	0xbdab4ae8	-0.083638966
206	0x3dcfd6c8	0.10148388
207	0xbdb027a6	-0.08601312
208	0x3d42ad98	0.047528833
209	0x3e6b1255	0.22956212
210	0x3db7c724	0.0897353
211	0x3e6eae0a	0.23308578
212	0xbc85ac41	-0.016317489
213	0x3d813f39	0.06310887
214	0xbe182d9e	-0.14861152
215	0xbd677a42	-0.05651308
216	0x3dad4126	0.08459692
217	0x3c95d5f2	0.018290494
218	0x3c422715	0.011850138
219	0xbda06737	-0.07832187
220	0x3dff54a4	0.12467316
221	0xbe6a8357	-0.22901665
222	0xbc976a1b	-0.018483212
223	0x3e2090c9	0.15680231
224	0x3e3dcf0d	0.18536015
225	0x3d95a188	0.073062
226	0xbdde720e	-0.10861598
227	0x3cb2ce1b	0.021826794
228	0x3e10e20a	0.14148727
229	0xbd869465	-0.06571273
230	0xbd63c845	-0.055610914
231	0x39f509ed	0.00046737437
232	0x3e4c48c2	0.1994963
233	0x3d7bc36e	0.061465673
234	0x3def3ab1	0.11681116
235	0x3dfd0cd1	0.1235596
236	0x3ce27a8a	0.027646322
237	0x3d686d23	0.056744706
238	0xbe131207	-0.14362346
239	0xbe7d8e60	-0.24761343
240	0x3b515444	0.0031941095
241	0x3d172d9b	0.036908727
242	0xbca3f8cc	-0.020016097
243	0x3c26c4f0	0.0101787895
244	0xbdd806f6	-0.10548203
245	0x3e04d10e	0.12970373
246	0x3e0b2ea4	0.1359201
247	0xbe354fb6	-0.17706189
248	0xbdcc69ea	-0.09981139
249	0x3e3436fb	0.17599098
250	0xbdb62313	-0.088934086
251	0x3db1963b	0.08671232
252	0x3e34361b	0.17598765
253	0x3e912b51	0.2835336
254	0x3d6271c1	0.055284265
255	0xbe17d4fa	-0.14827338

_actor_critic.actor.preprocess.model.model.0.bias f4 [64]
0	0x00000000	0.0
1	0x00000000	0.0
2	0x00000000	0.0
3	0x00000000	0.0
4	0x00000000	0.0
5	0x00000000	0.0
6	0x00000000	0.0
7	0x00000000	0.0
8	0x00000000	0.0
9	0x00000000	0.0
10	0x00000000	0.0
11	0x00000000	0.0
12	0x00000000	0.0
13	0x00000000	0.0
14	0x00000000	0.0
15	0x00000000	0.0
16	0x00000000	0.0
17	0x00000000	0.0
18	0x00000000	0.0
19	0x00000000	0.0
20	0x00000000	0.0
21	0x00000000	0.0
22	0x00000000	0.0
23	0x00000000	0.0
24	0x00000000	0.0
25	0x00000000	0.0
26	0x00000000	0.0
27	0x00000000	0.0
28	0x00000000	0.0
29	0x00000000	0.0
30	0x00000000	0.0
31	0x00000000	0.0
32	0x00000000	0.0
33	0x00000000	0.0
34	0x00000000	0.0
35	0x00000000	0.0
36	0x00000000	0.0
37	0x00000000	0.0
38	0x00000000	0.0
39	0x00000000	0.0
40	0x00000000	0.0
41	0x00000000	0.0
42	0x00000000	0.0
43	0x00000000	0.0
44	0x00000000	0.0
45	0x00000000	0.0
46	0x00000000	0.0
47	0x00000000	0.0
48	0x00000000	0.0
49	0x00000000	0.0
50	0x00000000	0.0
51	0x00000000	0.0
52	0x00000000	0.0
53	0x00000000	0.0
54	0x00000000	0.0
55	0x00000000	0.0
56	0x00000000	0.0
57	0x00000000	0.0
58	0x00000000	0.0
59	0x00000000	0.0
60	0x00000000	0.0
61	0x00000000	0.0
62	0x00000000	0.0
63	0x00000000	0.0
