test/discrete/log/CartPole-v0/dqn/policy.pth (torch, 409833 bytes, 20 tensors)

model.model.model.0.weight f4 [128, 4]
00000000: 6c53 773e 4e18 853e 9876 84be d883 88bd
00000010: 1052 a03d ecf8 c9be 8c28 753e 6ca8 52be
00000020: 54ae 45be 280e d7be 20a4 fa3e 803b b2bd
00000030: c0a8 47bd 50c4 043d cc1a a2be 0cd5 8fbe
00000040: f4e4 eabe 2813 f23d 50a0 5fbe 1ebf aabe
00000050: d4d8 64be 80ae e5bc f6f3 e4be 24b1 533e
00000060: aaf5 c0be 2c1b a8be 5ee9 c03e ee8f a8be
00000070: 32f8 aa3e 5069 b43e 5c23 f03e 0013 9cbd
00000080: d047 003e 7c6f 683e 4048 63be 5490 643e
00000090: 481a e03e be52 f0be c245 f83e 00bd b9bc
000000a0: 982d d03d 52e7 94be 7684 dcbe 1c06 693e
000000b0: 6cbd f13e b413 37be f4b8 0bbe 5e67 f0be
000000c0: 7649 eebe dc80 a4be 24a4 5ebe ec8c a13e
000000d0: 3625 f3be d0ad 19be 143f c6be 96e3 c5be
000000e0: 602c 773d 7471 fbbe b0bb 8ebe 1499 90be
000000f0: bcb3 c23e 8039 62bc b044 69be 9089 153d
00000100: a439 b7be c823 b93d c26c a3be 90ca 273d
00000110: a833 d83d c81e a73e cceb 903e f0f8 c93d
00000120: 583f b63e 7c3b 2d3e 0a26 d43e c8a4 333e
00000130: caef b9be 32d3 cfbe e4af 133e 3c99 5dbe
00000140: 46cb a0be 7a19 e73e ece3 233e 6adc f03e
00000150: 80f1 063c b6eb b8be 508a e3be 94df 41be
00000160: d827 8ebd f0ec 6cbe ec82 303e 34dc a53e
00000170: f082 debe e4d9 11be dce7 933e 3089 b3bd
00000180: 1ea1 a4be d0b2 2dbe 7083 88be 28a0 a53d
00000190: 48c4 2abe f0e1 4bbe 3c9b 3abe 6e7e d13e
000001a0: 30de df3d 8e7f fdbe d047 233d c099 dabd
000001b0: 92a1 e4be f045 4dbe 6010 66bd a024 ebbd
000001c0: c6af a73e 3a22 c33e 904f c03e 00af 8fbc
000001d0: 9094 b4bd d8df df3d eedc c63e e4bd 403e
000001e0: 104c d6be 78ff 5ebe 201d e33d 38de d53d
000001f0: 02a3 f03e d03e 153d 4c62 5dbe 40de 76bc
00000200: 207d ff3c f067 1cbd a816 18be 94be f83e
00000210: 122a f73e 9cef e7be d68d f13e 100e 00bd
00000220: 80c3 623e a4ad 703e a083 ab3c dc4a 8abe
00000230: d886 923d 1468 6e3e a64a ae3e 30fb 353d
00000240: 383b d53e 6c56 acbe 483e 09be ee07 a5be
00000250: 7add 93be b8d8 ffbe f0dc ea3d 8a6a d4be
00000260: 804e b7be dec8 db3e 3e71 8e3e 2c1d c23e
00000270: b8a0 a2be 7e5b c5be c032 4d3d e07a 7b3d
00000280: d88d ccbd 10e1 f43d 6078 603e 9408 fcbe
00000290: 0cac 593e 0c3e d73e 165a a93e 6889 a6be
000002a0: 9454 0ebe d898 28be 4c10 333e 089c e6bd
000002b0: c847 50be e019 d3be 7028 15be 6ae0 cabe
000002c0: b43d 29be 0010 ed3c 4467 2cbe c447 0dbe
000002d0: 38e8 76be 3ca0 8dbe 3a19 c6be c461 9f3e
000002e0: 1826 95be 5e11 93be 9aac 83be 36a9 d5be
000002f0: c0b3 833d b06a e73e 80c9 733e 88a6 c1bd
00000300: 584f 63be 1057 57be 1c61 773e 146b 7f3e
00000310: 9c7c e03e 008e 143d 4a82 943e d0c0 55bd
00000320: 7aad ca3e 0a30 f8be 5441 05be c005 c2bd
00000330: f08a f1be 48ba 963d 2c52 b6be a037 fb3e
00000340: 56fb b43e 1e43 9abe 4229 e73e 4420 acbe
00000350: 2c61 9cbe f404 21be b08a 1a3d 503e d53d
00000360: 40aa 29bd dc53 0c3e 389a c93d 4254 bd3e
00000370: e05b 90be 4079 ce3c 807a babd 82d3 953e
00000380: 5862 6ebe ec48 d7be 001a adbc 10ad b73d
00000390: 305c 15bd a891 aabe 5844 47be 4032 ee3c
000003a0: 1033 14be d47d 2a3e c05e 43bd 101a 023d
000003b0: d686 d73e 5076 a2bd f042 d2be c02c cc3e
000003c0: c8a3 e4bd a4db cdbe 68d6 88be 1c7c 193e
000003d0: c490 4b3e f684 e93e 3c27 ba3e 649e ed3e
000003e0: f0a6 c43e e0e3 9c3e e6f6 e7be 307a e43d
000003f0: 00ab a83d 84d7 a1be cef7 b43e 08e8 9d3e
0.24152917 0.25995106 -0.2587173 -0.06665772 0.07828152 -0.39447725 0.23941249 -0.2057206
-0.19304782 -0.42002988 0.48953342 -0.08702755 -0.048744917 0.03241378 -0.3166107 -0.2809223
-0.45877802 0.1182006 -0.21838498 -0.33348936 -0.22348338 -0.02803731 -0.44717377 0.20673043
-0.37687427 -0.3283323 0.37678045 -0.3292231 0.33392483 0.35236597 0.46901977 -0.076208115
0.12527394 0.22698778 -0.2219553 0.22320682 0.4377005 -0.46938127 0.4849072 -0.02267313
0.10164946 -0.29082733 -0.4306981 0.22756237 0.4721483 -0.1787861 -0.13644773 -0.46953863
-0.4654042 -0.32129562 -0.21742302 0.31552827 -0.47489327 -0.1500771 -0.3872 -0.38650197
0.060345054 -0.49109995 -0.2787757 -0.2824179 0.3802775 -0.013807654 -0.22780108 0.036508143
-0.35786164 0.09040028 -0.31918913 0.040964663 0.10556728 0.32640672 0.283049 0.09861934
0.35595202 0.16917223 0.41435272 0.17543328 -0.36315757 -0.40590817 0.14422566 -0.21640486
-0.31405085 0.45136625 0.16004914 0.47043163 0.008236289 -0.36117333 -0.44441462 -0.18932945
-0.06941193 -0.2313726 0.17237443 0.32394564 -0.43459272 -0.14243275 0.28887832 -0.08766401
-0.32154173 -0.16962743 -0.2666278 0.08087188 -0.16676438 -0.19910407 -0.1822328 0.4091677
0.10931051 -0.4951138 0.039863408 -0.10673857 -0.44654518 -0.2004621 -0.05616796 -0.11481595
0.32751292 0.3811205 0.375607 -0.017539501 -0.088173985 0.10931367 0.3884043 0.18822438
-0.41854906 -0.21777141 0.110895395 0.104427755 0.46999365 0.036436856 -0.21619529 -0.015067637
0.031187594 -0.03818506 -0.14852393 0.485829 0.48274285 -0.45299995 0.47178525 -0.03126341
0.2214489 0.23503739 0.020936787 -0.27010238 0.07154626 0.2328189 0.34041327 0.044429004
0.41646743 -0.33659685 -0.13402665 -0.32232612 -0.2887991 -0.4997003 0.11467922 -0.41487533
-0.35802078 0.42926687 0.27820772 0.3791288 -0.31763244 -0.38546365 0.050097227 0.06139648
-0.09987992 0.1195699 0.2192092 -0.49225295 0.21257037 0.42039526 0.33076543 -0.32526708
-0.13899451 -0.16464555 0.17486686 -0.11260229 -0.20339882 -0.4123068 -0.14566207 -0.3962434
-0.16527444 0.028938293 -0.16836268 -0.13796908 -0.24112022 -0.27661312 -0.3869112 0.31129277
-0.29130626 -0.28724188 -0.25717622 -0.4173066 0.06430769 0.45198584 0.23807335 -0.094555914
-0.22198236 -0.21029305 0.24158138 0.24943191 0.4384507 0.036268234 0.29005653 -0.052185833
0.39585477 -0.4847415 -0.13013202 -0.09473753 -0.47176313 0.07359749 -0.35609567 0.49065876
0.35348004 -0.3012933 0.45148665 -0.33618367 -0.30542886 -0.15724546 0.03772992 0.10412276
-0.04142213 0.13703865 0.09843868 0.36978346 -0.28195095 0.0252043 -0.09105396 0.2926293
-0.23279703 -0.42047822 -0.021130562 0.08968556 -0.03646487 -0.33314252 -0.19459665 0.029076695
-0.14472604 0.16649562 -0.047697783 0.031763136 0.4209506 -0.079327226 -0.41066694 0.39877892
-0.11164051 -0.40206635 -0.2672608 0.1498875 0.19879442 0.45609254 0.36358058 0.46409905
0.38408613 0.30642605 -0.45305556 0.11156118 0.08235741 -0.31609738 0.3534531 0.30841088

model.model.model.0.bias f4 [128]
00000000: d88a f9be c044 e53e 1e66 ecbe e863 553e
00000010: 5831 75be d00a eabe 08de a0bd 4efb f5be
00000020: 966b d83e f401 1bbe bc75 71be 6020 a6be
00000030: 7adb efbe 1e0b 8cbe d605 ea3e c077 0bbe
00000040: 8e72 9ebe d098 52bd 5050 49be 122b ca3e
00000050: 3c34 ee3e 40d7 803d 5cba 81be e4fb dbbe
00000060: cc50 173e 148c 73be cca4 c63e 848d da3e
00000070: 189c 8f3d 18a3 9fbd 1869 83bd 4202 fbbe
00000080: 24e9 5d3e e47a 923e fc98 9d3e 1cd3 a33e
00000090: 04b0 973e 2a20 b23e 0c7d b8be a8f6 89be
000000a0: dc81 3bbe 7084 ce3d 2087 e8be ca8b dabe
000000b0: 9ce1 eabe 98ec 74be 5438 e1be 68bf f13d
000000c0: 6ca2 343e 8e37 c3be 28ad 6ebe a8db f93d
000000d0: b014 523d 58d8 293e 3a3f fe3e 6010 7f3d
000000e0: 7092 b33d 3c67 92be 764d f23e 74cc e23e
000000f0: 8601 a43e a644 fe3e a0a3 76be d830 853d
00000100: 74ab 95be d443 ab3e 9cb4 ba3e 40ab 72bd
00000110: 7843 5e3e c825 d2bd 24bc ff3e f048 2c3e
00000120: 8a55 d93e 40c6 ec3d e0e3 96bc c274 81be
00000130: 781e f83d ead3 d63e c407 66be 32c3 ac3e
00000140: 1007 b13d 8230 a6be 74d8 033e ccd3 053e
00000150: c44e 41be a0f0 693e 9042 8bbd 8062 f0bc
00000160: 7c3a 273e 54fc 09be e847 87be 8413 2cbe
00000170: a061 cf3e 3034 9b3e b0a1 253e 1a19 843e
00000180: 5806 533e 2c0c c2be f8e4 a6be a692 a63e
00000190: ae72 c03e 5e36 ffbe 5891 013e 805d 86bc
000001a0: ecd2 8abe fc29 e93e 0064 d43c 003f 1e3e
000001b0: 0cb9 ef3e e612 b3be f86a b53d a859 eabe
000001c0: e684 a73e dc22 90be d8e9 943d b6e1 e0be
000001d0: 0002 7e3b 5883 633e e4d1 f73e 78a8 f3be
000001e0: 2051 d8bc c8d2 3cbe fa2e be3e 6ad1 ed3e
000001f0: 507b 443d 0010 4eba cc01 adbe ac99 edbe
-0.48738742 0.44779015 -0.4617166 0.20838892 -0.23944604 -0.45711374 -0.07854849 -0.48043293
0.42269582 -0.15137464 -0.23580068 -0.32446575 -0.46847135 -0.27352232 0.45707577 -0.136199
-0.30946773 -0.051415265 -0.19659543 0.39485985 0.46524227 0.06291056 -0.25337493 -0.42965615
0.14776915 -0.23783904 0.38797605 0.42686093 0.070121944 -0.077947795 -0.064165294 -0.4902516
0.21670967 0.28609383 0.3078078 0.31997 0.29626477 0.34790164 -0.36032903 -0.26945996
-0.18311256 0.10083854 -0.45415592 -0.42684776 -0.4587525 -0.23918378 -0.43988287 0.11804086
0.17640084 -0.38128322 -0.23308241 0.12200099 0.05128926 0.16586435 0.49657613 0.062271476
0.08768165 -0.28594387 0.47324723 0.4429661 0.32032412 0.4966175 -0.24085855 0.06503457
-0.2923237 0.33450186 0.3646592 -0.059245348 0.21705425 -0.102611125 0.49948227 0.16824698
0.42448074 0.11561251 -0.018419206 -0.25284392 0.121151865 0.41958553 -0.224639 0.33742672
0.08643925 -0.32458884 0.12875539 0.13069075 -0.18877703 0.22845697 -0.06799805 -0.029343843
0.16330904 -0.13475162 -0.26422048 -0.1680432 0.4050417 0.30313253 0.1617496 0.258004
0.20607889 -0.3789991 -0.32596564 0.3253376 0.37587494 -0.49846166 0.126531 -0.016402006
-0.27114046 0.45539844 0.02592659 0.1545372 0.46820867 -0.34975356 0.08858293 -0.45771527
0.3271858 -0.28151596 0.07271165 -0.43922204 0.0038758516 0.22218072 0.4840232 -0.4758947
-0.02640587 -0.18439782 0.37145215 0.46448833 0.047969162 -0.00078606606 -0.33790433 -0.46406305

model.model.model.2.weight f4 [128, 128]
00000000: d0ad 443c 9a5d 723d 695a 39bd 5a65 3c3d
00000010: 00e9 eab9 e039 69bd 50b7 483c 04ba ea3c
00000020: b95b a53d ddc7 9e3d deda 51bd ec3e ea3c
00000030: 2c09 acbc 0b21 94bd 4924 61bd 7083 91bc
00000040: e6ba 3c3d 9e21 793d 8623 5abd b6b6 e1bc
00000050: e853 4b3c 18be a03c 2460 afbd 08f6 283c
00000060: 7aa6 383d cfe6 a0bd 8320 803d fc40 e73c
00000070: 6919 853d 5076 c93c 19ff 983d 74a4 6ebd
00000080: 1ed9 ddbc 94b8 983c c4da 86bc f23b 87bd
00000090: d8d0 afbc 1378 8abd 808a 49bc 0cba c8bc
000000a0: 0850 7ebc e195 953d 025b 273d 38ef 663c
000000b0: 4603 623d 8ff0 953d 2e33 13bd 9c4a f7bc
000000c0: 8eb9 463d 8e79 7dbd b8da 79bc 48da 973c
000000d0: 90d3 5abd 254b 97bd a3d2 9c3d 6ce7 0bbd
000000e0: daff 733d acb1 88bd d0df c7bb 5d62 933d
000000f0: 30c5 c4bc 0566 a03d 50e9 183c 7376 09bd
00000100: fe37 193d 0010 2ab9 bce4 e93c 2ca9 80bd
00000110: d4ac bfbc e231 91bd 84d9 2abd 2482 89bd
00000120: 2305 6ebd 3397 a8bd 267c 4d3d 5d48 943d
00000130: 4628 41bd 8c77 e3bc 8836 7dbd 798b 4bbd
00000140: ae30 9dbd 408d d6ba 2046 0fbb 1769 b43d
00000150: b190 b3bd 585c 01bc eed7 7f3d 2826 c8bc
00000160: 9c36 8a3c face 623d f19f ae3d 7672 443d
00000170: f0d2 35bc dca3 90bc a07a ae3b 39c9 8c3d
00000180: 98eb 93bc c49d ca3c 2d71 ab3d 201b 563c
00000190: 204a 7a3b c2c6 94bd 220c 363d 984b 1cbc
000001a0: c0d2 eb3a d00e 38bc 8873 35bc d273 363d
000001b0: 2d3f 8e3d 22f0 163d c0a0 d23b 64b8 90bc
000001c0: 2fbe 9dbd a4bb a0bc 74c0 40bd 5cf8 d43c
000001d0: 43d0 a83d 7d29 65bd 6083 ce3c 505d afbb
000001e0: beb2 9abd 10c6 84bc c635 8bbd 360e 193d
000001f0: 6bb5 8e3d b24d 733d 3065 d23b 2c04 e43c
00000200: df31 923d 691a 943d 3480 27bd e0f1 2abc
00000210: 4a7b eebc 3721 acbd ca57 033d 6092 cdbc
00000220: 807d 3d3c 680a 7f3c 68d6 053d a287 163d
00000230: 568f 0cbd d63e 043d 40cb 37bb 80ab 823a
00000240: e1f3 a2bd f079 fb3c 3a7a 573d b1f6 8bbd
00000250: c61d 653d 36e9 6f3d 4e98 eebc eb5e a6bd
00000260: 7f8f 9e3d 3407 053d d0d8 f0bc 98e8 82bd
00000270: 389c a63c 99cb 79bd 1be4 a53d c81b a1bd
00000280: a03b 113c 32f2 223d d587 37bd f57c a43d
00000290: 6cb1 89bc 84d5 a7bc d285 9cbd 5ab7 313d
000002a0: 8ec0 7d3d 60a5 b5bc a0a5 55bd abf0 afbd
000002b0: c7e2 b03d 0f4d 8a3d 206b cbbc 59bf 20bd
000002c0: d076 3c3c b534 3cbd 8065 1fbc 2a65 173d
000002d0: 6226 88bd 243f 053d 503f 00bc fcc1 d93c
000002e0: 4723 1ebd fb83 833d 9642 5b3d 6c3f 69bd
000002f0: 2cdc 9dbd da73 12bd b02c fbbb e06a 3bbd
00000300: 219a 19bd 87c3 873d 9ab2 d9bc a46d 8cbc
00000310: 8014 85bc bbe8 b13d 185f 8d3c 3f8e 883d
00000320: e5e8 85bd 98a0 6bbc d603 30bd b06d ed3c
00000330: 2afb 07bd bd87 8b3d 1066 683c 10d1 aebd
00000340: a6f9 703d a1a1 833d 78e7 3b3c 28b0 16bd
00000350: 6d73 ac3d 5a3d acbd acdc 073d 201d 50bc
00000360: 28e3 2a3c 90bc aabb 80a6 35bd 70c0 533c
00000370: 5c00 aabc d028 a5bc b42f 913c 88aa 2dbd
00000380: 0269 383d 210d ae3d 5bfa 80bd 35e8 ad3d
00000390: eef2 4e3d 8a88 703d ba44 debc a01b 8dbd
000003a0: 5713 89bd 2e10 553d 44f4 8abc fe5b 80bd
000003b0: b398 2dbd cd54 913d 036f 83bd 6c02 86bd
000003c0: 8054 e0ba 67c3 853d 4e35 dabc eb69 83bd
000003d0: ca06 51bd ddce 5fbd 90e3 2b3c 317e 90bd
000003e0: 942c a3bc 156f 843d a0fb 48bb f06a 97bc
000003f0: 289f 04bd 520d 5f3d 6848 b73c 3ea9 1a3d
0.012004331 0.059171297 -0.045252237 0.045995094 -0.00044805557 -0.05693996 0.012250736 0.028653152
0.08074135 0.07752965 -0.05123412 0.028594457 -0.021000467 -0.07232865 -0.054966245 -0.01776287
0.046076678 0.060823075 -0.053256534 -0.027552944 0.0124101415 0.019621894 -0.08563259 0.010312565
0.04508064 -0.07856523 0.06256201 0.02822923 0.06498987 0.024592549 0.07470531 -0.058262303
-0.027081069 0.018642701 -0.016461737 -0.066032305 -0.02146189 -0.067611836 -0.012301087 -0.024502777
-0.015522011 0.07303978 0.040858276 0.01409512 0.055178903 0.073212735 -0.03593748 -0.030186944
0.048516802 -0.0618835 -0.0152499005 0.018536702 -0.053424418 -0.073873796 0.07657363 -0.034156248
0.05957017 -0.06674513 -0.0060996786 0.07196496 -0.024019808 0.07831959 0.00933297 -0.033560228
0.037406914 -0.00016218424 0.028551452 -0.06282267 -0.02339784 -0.070895925 -0.041711345 -0.067142755
-0.058110368 -0.08231964 0.050167225 0.07240365 -0.04715755 -0.027766965 -0.061819583 -0.04969356
-0.076753005 -0.0016369 -0.0021861866 0.08809107 -0.08767832 -0.007895552 0.062461786 -0.024432257
0.016871743 0.05537317 0.085266 0.04796072 -0.011097655 -0.01765626 0.0053246766 0.06874318
-0.018056676 0.024733432 0.08371196 0.013067991 0.0038191155 -0.072644725 0.044445165 -0.009539507
0.0017991886 -0.011234 -0.011074908 0.04454405 0.069456436 0.036850102 0.0064278543 -0.01766605
-0.0770229 -0.019620724 -0.047058538 0.025997333 0.08242848 -0.05594777 0.025209129 -0.0053517
-0.075536236 -0.016207725 -0.06797366 0.03736707 0.069681965 0.059400268 0.006420754 0.02783402
0.071384184 0.072316 -0.04089375 -0.010433644 -0.029111523 -0.08404773 0.032066144 -0.025094211
0.011565566 0.015566446 0.032675177 0.036750443 -0.034316383 0.032286488 -0.002804473 0.0009969324
-0.079566725 0.030697793 0.0526068 -0.06834162 0.055936597 0.058572017 -0.029125359 -0.08123573
0.077422135 0.032477573 -0.02940026 -0.0639202 0.020338163 -0.06098518 0.08100148 -0.07866627
0.008864313 0.039781757 -0.044807274 0.08031646 -0.016808234 -0.020487554 -0.07642712 0.04338775
0.061951213 -0.022173584 -0.052159905 -0.08590826 0.08637004 0.06752979 -0.024831355 -0.039244983
0.0115029365 -0.045948703 -0.009728789 0.036961712 -0.06647946 0.03253092 -0.007827595 0.026581757
-0.03860786 0.06421658 0.0535303 -0.05694525 -0.0770801 -0.035755016 -0.0076652393 -0.04575622
-0.037500504 0.06629091 -0.026574422 -0.017142124 -0.016245127 0.08686968 0.017257258 0.06667756
-0.06538562 -0.01438155 -0.04297241 0.028982967 -0.033198513 0.068129994 0.01418449 -0.08535969
0.058831833 0.06427313 0.011468761 -0.03678909 0.08420453 -0.084101394 0.033169433 -0.012702256
0.010430135 -0.0052104667 -0.04434824 0.012924299 -0.020752124 -0.020161062 0.017722942 -0.04239896
0.04502202 0.08498598 -0.062977515 0.084915556 0.050524645 0.058723964 -0.02713238 -0.06890035
-0.06693142 0.052017383 -0.016962178 -0.06267546 -0.042381953 0.070962526 -0.06417658 -0.06543431
-0.0017115027 0.06531411 -0.026636746 -0.064166866 -0.051031865 -0.05464064 0.010491267 -0.07055319
-0.019918717 0.064665 -0.0030667558 -0.018483609 -0.032378346 0.054456063 0.022373393 0.03775906

model.model.model.2.bias f4 [128]
00000000: e25f 5d3d 2069 3fbb 3079 19bc fb4a b43d
00000010: b0c9 75bc a00a 66bc 2ac4 3b3d e0da 1b3b
00000020: b8da 073d 0816 213c 5b3c 893d 2bf7 843d
00000030: 4048 d4bc 36ad 243d 9e7f 2a3d 2008 8fbb
00000040: 799a afbd c648 87bd 98ca 1cbd 2646 4b3d
00000050: 9041 2b3c 87cc 83bd 0435 b0bc 0885 df3c
00000060: 1573 0bbd a02a 1c3c d825 a6bc 263e 363d
00000070: 102f 143d 1247 463d b418 abbd 4d23 b03d
00000080: 821f 2bbd 906e 803c c83d 9b3c e0da 1abc
00000090: f8ee 263c 5344 833d 303f 8bbd 5c5a efbc
000000a0: 9a15 11bd aa14 643d 469c acbd 509f a6bc
000000b0: 0766 a2bd f4c6 d4bc 1a5e ffbc 3a86 96bd
000000c0: 099f 63bd 0e15 66bd 5837 5fbd 18c4 b73c
000000d0: 30e3 10bd 0004 023c 9be2 a8bd 93a7 b13d
000000e0: 9000 cb3c 5b0b b23d 4022 2fbb 6476 4bbd
000000f0: 57fd 833d 2e69 573d 0893 d3bc 900c f13c
00000100: 3b8f acbd 22ce 213d b74e a03d ffcb b43d
00000110: 38ca 413c 9080 ee3c 244d f13c 4072 243c
00000120: dd71 9e3d e638 89bd 0166 56bd f97c 823d
00000130: 2093 9a3b 83bf 873d 316b 963d 009b d43b
00000140: 4866 bd3c 4798 a13d 68a6 23bc 108e e43c
00000150: a08a 5bbd f2a4 85bd a004 553b b058 3a3c
00000160: 86fb 85bd b0a8 1ebc 400d 28bd b83e abbd
00000170: dc93 f7bc e66a 783d 6c9b bbbc 284d 6dbd
00000180: d74c 803d 6856 813c 50f6 2dbd 12e3 773d
00000190: b025 393c 7067 e2bb 6b11 9e3d 8806 283c
000001a0: 1415 8a3c c075 c2ba 02f6 72bd 83b9 823d
000001b0: 1aaf 703d 14ba 943c 63e8 9d3d 4e43 4a3d
000001c0: 9ae7 f0bc 08f7 6cbc 547f db3c 79e7 66bd
000001d0: d636 5d3d cbe6 a4bd 10df b63b c2e1 1d3d
000001e0: 36ec 003d 509a 86bd 6832 9abd fcfa cabc
000001f0: 21cc 93bd ea33 5d3d 1795 a43d 56eb 2d3d
0.05404652 -0.0029206946 -0.009367272 0.08803364 -0.015001699 -0.014040619 0.045841374 0.0023781583
0.03316757 0.009831913 0.06700965 0.06492456 -0.025913358 0.04020425 0.04162561 -0.0043649822
-0.08574385 -0.06605677 -0.038279146 0.049627446 0.010452643 -0.06435495 -0.021509655 0.027285114
-0.034045298 0.009531647 -0.020281717 0.044492863 0.036177695 0.04840762 -0.08354321 0.08600483
-0.041778095 0.01567772 0.018950358 -0.009451598 0.0101888105 0.06409516 -0.067991614 -0.029217891
-0.03542099 0.05568377 -0.08428244 -0.020339638 -0.079296164 -0.025973774 -0.0311728 -0.073498204
-0.05557159 -0.056172423 -0.05449614 0.022432372 -0.035372913 0.007935524 -0.082463466 0.0867454
0.024780542 0.08693572 -0.0026723295 -0.049673453 0.06444805 0.05259054 -0.025826946 0.029424936
-0.084257565 0.039503224 0.07827514 0.08827972 0.011827998 0.029114038 0.029455729 0.010037005
0.077365614 -0.06700306 -0.052343372 0.06371493 0.0047172457 0.06628325 0.07344664 0.006488204
0.02312006 0.07890373 -0.009988405 0.027899772 -0.053599 -0.065256014 0.0032503977 0.011373684
-0.06542115 -0.009683773 -0.04102826 -0.08361572 -0.030221872 0.06064882 -0.02290126 -0.05793491
0.06264656 0.015788272 -0.04247123 0.060519286 0.011300489 -0.0069093034 0.07718166 0.010255463
0.016855754 -0.0014836118 -0.059316643 0.0638304 0.05876074 0.018155135 0.0771034 0.049380593
-0.029407311 -0.014463194 0.026794113 -0.056373093 0.054007374 -0.08051833 0.0055807903 0.038545378
0.03147527 -0.065724015 -0.075291455 -0.024777882 -0.07216669 0.054004587 0.08036249 0.042460762

model.model.model.4.weight f4 [128, 128]
00000000: 8822 273c b1b8 a3bd cc45 a7bc dab1 563d
00000010: 28de ab3c d7c0 9ebd 70d6 083c c64d 3fbd
00000020: 94fb 83bd 6029 2d3c 58d2 d93c 9047 a7bd
00000030: ca15 94bd 098d 8a3d 9039 61bd 0d0e a63d
00000040: 606e c2bb 20ce cb3b a30d 99bd 0833 f13c
00000050: 5028 a33c 3f29 8f3d 97bc 9d3d ac4e ff3c
00000060: e082 483b 8501 843d c009 343c b3b1 873d
00000070: 6ef7 153d de99 4bbd 2ece 96bd 6df9 a3bd
00000080: 2820 32bd 4b24 803d 3283 64bd 9f71 83bd
00000090: 8815 a33c 986a 92bd b622 463d cd8c a03d
000000a0: 8242 533d 8ccd a0bc cf1c 9e3d 5efe 4a3d
000000b0: 50ba 15bc 18f1 913c a646 0a3d 4442 dc3c
000000c0: 00f4 5d3c 7318 9fbd 92c1 493d 363d 3a3d
000000d0: 80fa 453a 4625 723d dfcb 8d3d 76d7 363d
000000e0: 0f3a 973d c126 ae3d a8b2 4e3c 2461 a2bd
000000f0: be48 03bd 2156 4dbd 527e 74bd 9744 09bd
00000100: 3d0c 12bd 20f7 e63c 76ba 1a3d 5dda 3dbd
00000110: 25b4 9abd 3052 283c d930 a23d 9615 05bd
00000120: 197e 22bd c851 173c bd3d 39bd 7a28 213d
00000130: 139f b13d ae4d 4fbd cba6 0ebd 9487 3bbd
00000140: 46ad 153d dc21 a3bc 0427 a03c c091 db3c
00000150: e7e8 883d 2edb 693d 10ac c23b 4b78 8e3d
00000160: 95cc 843d 4ab2 85bd b4da d1bc fc2e 89bd
00000170: 5d8f b0bd 23c1 b43d d724 903d e633 473d
00000180: 4ce8 8fbd ee52 5dbd 1ce4 a6bd 040a b13c
00000190: f0f2 0e3c 1f17 b1bd c08c 793c 38b9 4cbd
000001a0: d8fe 123c 0a93 5c3d 574b 8b3d f04f a2bd
000001b0: 56d2 7c3d b5df 44bd 1a67 1b3d 30f0 f2bb
000001c0: 3fc3 9abd 0e80 783d dce5 aabc e077 3b3c
000001d0: 0c8c f63c 60db f03b 9dc2 49bd ef91 b3bd
000001e0: 207d 0f3c dc00 a63c 9ada 413d 3c1b 92bd
000001f0: daa7 7d3d c0ff 833c 998d a03d 16d0 753d
00000200: 5607 5a3d c49f 0abd 5772 53bd 3fd9 a93d
00000210: 386c 0d3d 1088 493c 40d8 143d 59b3 3abd
00000220: 1f30 a43d 0c20 ac3c e75e ae3d 8cdf a13c
00000230: 086b 19bd 6601 29bd 333d 13bd 387f e7bc
00000240: 42ed 2f3d f0e8 2abd ca9f 34bd bafe 3a3d
00000250: 2a7c 513d 4689 8fbd b6c3 1ebd fe0c 7c3d
00000260: e9fa 1abd 687b a4bd c815 7f3c d599 89bd
00000270: f644 653d 6077 b73b 32bb 433d 9bc6 7bbd
00000280: d825 40bc 4b1d a83d ba95 303d d010 1c3c
00000290: 2b1f 993d 86e6 763d 6de7 adbd 0a44 efbc
000002a0: 6642 613d 109f 623c b5bd 98bd fe54 013d
000002b0: 6d9c ac3d fee6 1c3d 27d6 0bbd 7890 823c
000002c0: 5029 81bd 01d3 823d eced 043d b01b 7dbd
000002d0: 36e5 233d 5497 73bd 9efb 75bd 9e5c 3d3d
000002e0: 265a acbd 3a89 433d 221f f9bc 3a7f e9bc
000002f0: c07b 2f3b d6f7 1fbd 207b 44bb 7d86 8abd
00000300: e88c 5abc c219 02bd d225 393d 72cb b1bd
00000310: 5a1d 693d 0cba 9ebc a550 903d 2e0c 153d
00000320: 3858 8ebd a090 6cbd d8c5 893c 32f3 333d
00000330: 72c6 553d 0432 b2bc 8718 8a3d 1a4e 563d
00000340: c86a c73c 90b8 a7bb 33d3 25bd acea 69bd
00000350: 7c73 91bd c0a0 3bbc a45b 103d a041 b5bc
00000360: 7349 903d ab1d 43bd ce64 77bd d9c8 8a3d
00000370: 6931 56bd 9009 f13c c5d4 12bd 9bea 54bd
00000380: 98e1 253c bb13 b4bd d67b 703d 5eaf 4dbd
00000390: 6eaa 1fbd 2ada 303d 50b7 053c 8ee9 5e3d
000003a0: 502b 9b3b 00c1 eaba 44f0 acbc ba96 683d
000003b0: 7914 8ebd d6e5 353d 947d 9fbc 6807 613c
000003c0: 3e31 8cbd 580d 40bd 18b8 56bd bc74 8bbc
000003d0: 42a1 1d3d 3a25 523d 2100 a8bd 4ac6 4d3d
000003e0: df94 34bd 0691 503d 60f6 a23c 5f93 9c3d
000003f0: 0885 123d d0d5 a5bc b227 42bd 9d5e 853d
0.010201104 -0.079942115 -0.020419024 0.052415706 0.020979956 -0.07751625 0.008351907 -0.04670503
-0.06444469 0.010568947 0.026589558 -0.08167946 -0.072307184 0.067651816 -0.054986537 0.08108149
-0.005933568 0.0062196404 -0.07473304 0.029443279 0.019916683 0.06990289 0.07701986 0.031165443
0.0030595586 0.06445602 0.010988653 0.0662569 0.03661292 -0.049707286 -0.073635444 -0.080065586
-0.043487698 0.06256922 -0.05578918 -0.06418156 0.019907728 -0.071492374 0.048372947 0.078393556
0.0515771 -0.019629262 0.077203386 0.04955899 -0.009138659 0.017815158 0.03375878 0.026887067
0.013546944 -0.07768335 0.04925687 0.04546853 0.0007552281 0.059117578 0.06923651 0.044639073
0.07384121 0.085034855 0.012615837 -0.07928684 -0.032051794 -0.050130967 -0.05969078 -0.033512678
-0.035656203 0.02819401 0.03777548 -0.046350826 -0.07553891 0.010273501 0.07919473 -0.03249129
-0.039671037 0.009235807 -0.045224894 0.039345242 0.08672919 -0.05061119 -0.034827035 -0.045783594
0.0365422 -0.019913606 0.019549854 0.026802897 0.066850476 0.05709379 0.0059409216 0.06956538
0.064843334 -0.065281466 -0.025616981 -0.06698415 -0.086210944 0.088259004 0.07038277 0.04863348
-0.07026729 -0.054034166 -0.08148977 0.021611221 0.008724913 -0.08646988 0.015231311 -0.049981326
0.008971892 0.053851165 0.06801479 -0.07925403 0.06172403 -0.048064906 0.037940122 -0.0074138865
-0.075567715 0.060668997 -0.020861559 0.011442155 0.030096076 0.0073503703 -0.049257863 -0.08768069
0.0087578595 0.020264082 0.047327615 -0.07134101 0.061927654 0.016113162 0.078395076 0.0600129
0.053229652 -0.03384377 -0.051622715 0.082933895 0.034527034 0.012300506 0.036339045 -0.045581196
0.08016991 0.021011375 0.08514195 0.019759916 -0.03745559 -0.0412611 -0.035947036 -0.028258905
0.042950876 -0.041726053 -0.0440977 0.045653082 0.051143803 -0.07008605 -0.038760863 0.061535828
-0.037836943 -0.080313504 0.015569158 -0.06718794 0.05597397 0.0055989474 0.047785945 -0.0614687
-0.011727773 0.08208712 0.04311154 0.009525493 0.07476648 0.060278438 -0.084914066 -0.029207248
0.054994963 0.013831869 -0.07458059 0.031575195 0.08428273 0.03830623 -0.03413978 0.015938029
-0.06306708 0.06387902 0.032453462 -0.061793983 0.040013514 -0.05947049 -0.060054414 0.046230905
-0.08415632 0.04773829 -0.030410353 -0.02850305 0.0026776642 -0.039054714 -0.0029980615 -0.06763933
-0.013339259 -0.031762846 0.045202084 -0.08681382 0.056912757 -0.019375823 0.07046632 0.03638857
-0.0695042 -0.057755113 0.016817972 0.0439331 0.052191205 -0.021752365 0.067429595 0.052320577
0.02434291 -0.005118437 -0.04048462 -0.057108566 -0.07102105 -0.0114519 0.035243645 -0.022126019
0.07045259 -0.047635715 -0.06039887 0.0677659 -0.052293215 0.029423505 -0.035847444 -0.05198155
0.0101245865 -0.08792826 0.05871185 -0.05021607 -0.038980894 0.043176807 0.008161381 0.054421954
0.004735388 -0.0017910302 -0.021110661 0.05678437 -0.069374986 0.04440864 -0.01946906 0.013734676
-0.0684533 -0.046887726 -0.05242166 -0.017023437 0.038483866 0.051305033 -0.082031496 0.05023793
-0.044087287 0.050919555 0.019892871 0.07645296 0.0357714 -0.020243555 -0.047401138 0.06512187

model.model.model.4.bias f4 [128]
00000000: 80a6 b1bd 13fd 91bd 1535 aa3d e819 b33c
00000010: e3c0 8b3d b7ea 843d 86d1 2e3d d5cc 17bd
00000020: 5b0e 02bd 5bb8 ad3d d8ca c7bc e10a 9abd
00000030: 8078 dfbb f80e 03bd d549 1fbd df65 873d
00000040: a40a adbd e8c2 113d eaba edbc 0df4 a53d
00000050: 80bb 243c 5972 813d 5bb1 9a3d a058 7dbc
00000060: a042 553b 3ed0 7dbd 6ba2 99bd dd91 00bd
00000070: 2416 d63c 50fc 72bc e096 93bc 4990 aa3d
00000080: 89b6 9c3d e803 a1bd 68ff 043c 5e60 3a3d
00000090: 307a bfbc 0b9e 853d d847 59bc fe62 1d3d
000000a0: c202 393d 6027 2abb 9cf5 dbbc c025 acbb
000000b0: a2da 7ebd 8899 f93c 5fa0 963d 82f2 723d
000000c0: 8059 25bc d46e d8bc 57a2 903d 22c2 423d
000000d0: 2eb1 503d d04f f33b 9a43 043d f0be 73bc
000000e0: b504 aa3d cba9 ad3d ce86 513d 6276 223d
000000f0: 421c 703d eedc dfbc ac21 bf3c c211 91bd
00000100: cb94 a7bd 26ec 693d f5b6 803d 495f a43d
00000110: 90a7 48bc b081 b1bb 08be 6ebd 08c5 c8bc
00000120: 1d38 a63d 90c5 3c3c de84 ecbc 6ee6 583d
00000130: f3b6 b23d a036 a2bb 493c 0cbd e0d4 0f3c
00000140: 507f 64bc 7c93 48bd 0027 f23b 34c3 0f3d
00000150: a180 afbd d26f 3a3d 2cf7 b0bd 8085 fd3a
00000160: 00d6 e23c dab1 683d 4313 b03d b024 1fbd
00000170: 0bd4 ab3d 89a3 b2bd 807f c7bc 9155 8c3d
00000180: 0eda 6f3d ca77 a5bd 6c55 d8bc e7a6 a83d
00000190: aa56 733d 92c2 153d 9473 a0bd 26c2 85bd
000001a0: c9d1 a43d 7ad0 7cbd 91bf 99bd f8e0 4cbc
000001b0: 27e2 88bd 61b5 ae3d ce90 94bd 1b75 3bbd
000001c0: faca dcbc 457e a33d e090 c6bb 245a 893c
000001d0: 8c20 f13c da10 41bd 9142 8e3d b8ce 86bc
000001e0: c087 963c 32b4 273d 8416 40bd 50c2 1c3c
000001f0: e0bf c9bb d04b a8bd 857f 953d cfeb 9bbd
-0.086743355 -0.07128348 0.08310906 0.021862939 0.068238996 0.06490081 0.042680286 -0.037060577
-0.03175197 0.08482429 -0.024388716 -0.07521606 -0.0068197846 -0.031996697 -0.03888877 0.06611227
-0.08449295 0.035586268 -0.029019792 0.081031896 0.010054469 0.06320638 0.07553359 -0.015463024
0.0032540932 -0.061966173 -0.07501682 -0.031389106 0.026133604 -0.014830664 -0.018016279 0.083283015
0.07652003 -0.07862073 0.008117534 0.04550206 -0.023373693 0.06524285 -0.013261758 0.038424484
0.045168646 -0.002596341 -0.026850514 -0.0052535236 -0.062220223 0.030468717 0.07354807 0.059313305
-0.010092139 -0.026420034 0.07062214 0.04754842 0.05095022 0.007425286 0.032291032 -0.014877066
0.08301679 0.08479651 0.05115395 0.03966368 0.0586207 -0.027327027 0.023331486 -0.07083465
-0.08182677 0.057109974 0.06284896 0.08025987 -0.012246981 -0.0054170713 -0.058286697 -0.024508014
0.081161715 0.011521712 -0.02887195 0.05295413 0.08726301 -0.0049503595 -0.03423718 0.008778781
-0.013946369 -0.048968777 0.007389903 0.03509827 -0.08569456 0.045516796 -0.08640894 0.0019342154
0.027689934 0.056810237 0.08597424 -0.038853347 0.08390053 -0.08722598 -0.024352789 0.06852258
0.058557563 -0.080794886 -0.02640792 0.08234959 0.05940882 0.03656251 -0.07834545 -0.065311715
0.08047826 -0.061722256 -0.075072415 -0.012504809 -0.0668376 0.08530689 -0.07254182 -0.045765977
-0.026952256 0.079830684 -0.006059751 0.016766615 0.029434465 -0.04713521 0.0694629 -0.016455993
0.018375278 0.040943332 -0.046896473 0.009567812 -0.0061569065 -0.08217585 0.07299713 -0.07613336

model.model.model.6.weight f4 [128, 128]
00000000: b0b6 0abc a3ac 43bd 0084 fb3b b84f d53c
00000010: 6130 a33d 8ab8 b3bd 1b34 0dbd edf7 963d
00000020: b225 1f3d e853 11bc 12a6 473d bc13 0d3d
00000030: 00ed ff3a da49 003d dac6 8cbd 4c58 a4bc
00000040: 8021 f8ba b020 8bbb 6fe2 19bd d8e5 b43c
00000050: c1a7 963d b01b bc3c 0094 ff3c dad9 643d
00000060: fe14 5e3d 7a57 77bd 1ef4 a8bd fd25 aa3d
00000070: e86d 12bc 5c64 21bd 2484 8cbc 148b b2bc
00000080: 826b dabc 64a8 f23c 938b a33d 1a94 ffbc
00000090: 1fd9 68bd 8a74 37bd e7af 84bd 2c76 a6bd
000000a0: 9fbd 923d 5055 6f3c 80e3 0f3d 980d 473c
000000b0: dc65 90bc 2268 1e3d e448 143d cb58 82bd
000000c0: 209b a4bc c390 8b3d 4cce 46bd 2dcb 833d
000000d0: f622 7b3d 9d6b 933d 0a1b e4bc 0e07 87bd
000000e0: 0304 8d3d 6835 27bc 4ad1 6f3d 8fcc a1bd
000000f0: e0af d63c 888e 1e3c 3f04 923d fbfb a33d
00000100: 3fe6 1dbd c14f 9dbd 2531 91bd cc6e 24bd
00000110: 196d 953d 6eb6 5f3d 5eb2 073d 18b8 a9bc
00000120: b8da 473c d644 003d 4f6b 30bd 00c6 b1bb
00000130: d053 843b 6602 acbd 4eab 183d 0c54 70bd
00000140: 73ba 833d bc50 c43c 77e5 2dbd be4d 1e3d
00000150: e257 473d 4060 123b 8858 afbd c675 96bd
00000160: 217f ae3d b684 5f3d 18e5 7ebc 004e a1bc
00000170: 4ef3 e5bc 5002 a23c f3a7 813d 603f 9c3c
00000180: 3043 c4bb 1877 3bbd a8ed c43c 5bd1 1cbd
00000190: a96c 2dbd fc89 f2bc 6db1 83bd 38ec a8bd
000001a0: 38f8 873c 31e3 ab3d c8ce 333c b023 e43c
000001b0: f82f d43c 3bfd 9fbd 6486 ce3c 4dd0 b03d
000001c0: 1a75 7b3d 143e c1bc 5b11 9dbd f74b 64bd
000001d0: d7d1 943d 6cce 873c edb8 a3bd 0080 ebba
000001e0: d019 cd3c ec07 ffbc 9dfa 9bbd 676e a6bd
000001f0: 50fe 373c 525c 8dbd 4a2b 3bbd d085 f33b
00000200: 766c 033d e32d 1dbd 5bbd 93bd 9801 69bc
00000210: 4786 58bd f694 41bd 20fe b4bb bec5 a6bd
00000220: 16c5 a7bd 3f56 2ebd aeaf 91bd f0f6 3fbc
00000230: 3f36 8a3d 5795 af3d 5e00 583d 88eb 7bbc
00000240: 4c90 93bd c252 0cbd d471 db3c a09a 1e3b
00000250: 6806 b4bc 3a45 97bd 7199 893d 5058 8dbb
00000260: b4dd a83c bdcd 1dbd d06c 093d 70cf a1bd
00000270: 4879 b73c c66f a4bd 844b b63c c5e7 69bd
00000280: f413 f43c 4505 20bd 74fc babc 0783 ae3d
00000290: 94cb 53bd 78f2 983c 40c6 51bb a06c 89bb
000002a0: 880f 89bd 049d 85bd 2d5b 17bd 833e 883d
000002b0: 644b 9ebc 96d1 743d 9cc2 93bc 6028 24bb
000002c0: 78d6 d8bc 422f 5ebd abee 9f3d ee39 713d
000002d0: 9ed9 94bd 4863 44bd 4a39 b1bd eecc 3f3d
000002e0: 7c9b 9abd 30db c23b d00b bfbc 40ca c43b
000002f0: 38f9 4f3c 57c2 acbd d064 92bc ec4a c2bc
00000300: 70c6 cd3c cac9 4abd 7287 6c3d a096 953c
00000310: 867b 413d 805e ca3a 2a81 4c3d 30d7 92bb
00000320: 3196 97bd d199 af3d dc2f c63c 6c9d bc3c
00000330: 1d03 3cbd 4e21 92bd 8f6d a4bd e741 a13d
00000340: e497 b9bc 5d08 89bd ff7a 17bd ae98 5f3d
00000350: f748 8c3d 8062 1fbb 3194 873d b067 09bc
00000360: f12b af3d a009 67bc 524b 89bd 8e4d 593d
00000370: 5aae 3cbd fd42 873d d8dc 1cbc 6e65 133d
00000380: 4aaf 81bd 70e0 fe3c 309d d8bb 53aa 9ebd
00000390: 6812 59bd f8e2 d53c 0029 423b ee04 02bd
000003a0: 0764 b3bd 489f 4bbd 1482 87bd c4da 82bd
000003b0: f078 c23c 6b8e b1bd e1d9 a3bd 00a0 7a38
000003c0: 4611 743d 2086 943c 226f 623d 7053 8abc
000003d0: 74cc 8dbc b8d0 febc 4e0a 14bd 9d91 43bd
000003e0: cc1d da3c 18b5 00bc 7c51 adbd 0c84 27bd
000003f0: ca09 293d 60f4 94bc f6e7 9bbd 0046 383c
-0.008466408 -0.04777206 0.0076756477 0.02603899 0.07968212 -0.087754324 -0.03447352 0.07371507
0.03885431 -0.008870102 0.04874236 0.03444265 0.0019525588 0.03132043 -0.068738654 -0.020061634
-0.0018930882 -0.00424584 -0.03756946 0.022082254 0.07356215 0.022962421 0.031198502 0.055871822
0.05421924 -0.06038616 -0.08249687 0.08308027 -0.0089373365 -0.03940235 -0.017152853 -0.021794833
-0.026662592 0.02962131 0.07985606 -0.03119855 -0.056847688 -0.044788875 -0.06478863 -0.08128008
0.071650736 0.014607742 0.03512907 0.012149237 -0.017626695 0.038673528 0.036202326 -0.06364592
-0.0200935 0.068147205 -0.048536584 0.06435237 0.06131264 0.0719826 -0.027844924 -0.065931424
0.06885531 -0.010205604 0.058549203 -0.079003446 0.02620691 0.009677537 0.07129716 0.08007046
-0.038549658 -0.076812275 -0.07089452 -0.040144727 0.07296199 0.054617338 0.03312909 -0.020717666
0.012198143 0.031315647 -0.043071087 -0.005425215 0.0040383115 -0.08398895 0.037272744 -0.058673903
0.06432047 0.023964278 -0.042455163 0.03864836 0.048667796 0.0022335202 -0.08561808 -0.07346682
0.08520342 0.054569922 -0.01555755 -0.019690514 -0.028070118 0.019776493 0.06330862 0.019073188
-0.0059894547 -0.045767874 0.024039105 -0.038285594 -0.042339955 -0.029606812 -0.06430326 -0.0824818
0.016597852 0.08392943 0.010974593 0.027849048 0.02590178 -0.07811972 0.025210567 0.0863348
0.061390974 -0.023589171 -0.07669326 -0.05573651 0.07266586 0.016577922 -0.07994256 -0.0017967224
0.025036722 -0.031131707 -0.0761616 -0.08126526 0.011230066 -0.06902374 -0.04569558 0.007431723
0.03208586 -0.03837384 -0.07213851 -0.014221571 -0.05286243 -0.0472612 -0.005523458 -0.08143185
-0.08191888 -0.04256272 -0.07113586 -0.011716589 0.06748628 0.08573406 0.052734725 -0.015375979
-0.07205257 -0.03425861 0.026787676 0.002420105 -0.021975711 -0.07386251 0.0671872 -0.004313506
0.020613529 -0.038526285 0.033551037 -0.07900894 0.022396699 -0.080291316 0.022252806 -0.0571058
0.02979467 -0.039067525 -0.022825457 0.08521085 -0.05170782 0.018670306 -0.0032009035 -0.0041938573
-0.066924155 -0.06524089 -0.036952186 0.06652548 -0.019323058 0.05977019 -0.018037133 -0.002504848
-0.026469454 -0.054244287 0.07809194 0.058893137 -0.0726807 -0.047946244 -0.08653505 0.046826296
-0.075491875 0.0059465393 -0.023321062 0.0060055554 0.012693696 -0.08435505 -0.017870337 -0.023717366
0.025119036 -0.049508847 0.05774636 0.0182603 0.04723694 0.001543954 0.049927868 -0.0044812188
-0.074016936 0.0857426 0.024192743 0.023024283 -0.045901407 -0.071352586 -0.08028709 0.07873898
-0.022655435 -0.06691048 -0.036982533 0.054588966 0.068498544 -0.0024320185 0.06620062 -0.008386537
0.08553303 -0.014101416 -0.06703819 0.053052478 -0.046064712 0.06604574 -0.009574138 0.035985403
-0.06332262 0.03111288 -0.006610535 -0.077473305 -0.05299607 0.026109204 0.0029626489 -0.031742983
-0.08759313 -0.04971245 -0.06616607 -0.063893825 0.023739308 -0.08669742 -0.080005415 5.9753656e-05
0.059586786 0.018130362 0.055281766 -0.01688549 -0.017309405 -0.031105384 -0.03614264 -0.04774629
0.026625536 -0.007855676 -0.084628075 -0.040897414 0.0412691 -0.018182933 -0.076126024 0.011247158

model.model.model.6.bias f4 [128]
00000000: 588f 0f3d 0f22 55bd c0f4 b1bc bc33 a23c
00000010: 4e16 713d fc0a c03c 7c8b e1bc 9a3a 4d3d
00000020: cef9 443d 2ed1 96bd 100c c2bc 9449 88bc
00000030: 1697 173d 623e 9bbd dfe4 4cbd 2cfe e93c
00000040: 37ff 30bd 4ba7 9c3d f2d8 433d 8085 203a
00000050: 780b ecbc 54b4 8cbc af22 13bd a665 253d
00000060: 90a5 e13c c71e 27bd f5de 81bd b0f9 4dbc
00000070: 4ceb 9cbd da52 99bd c012 a7bd 29f4 57bd
00000080: f667 633d e4e3 143d d2ad 4f3d 006f e839
00000090: 3d1f 8f3d b307 afbd 98a8 9d3c e65b 03bd
000000a0: c8b5 b3bd d083 5abd f68e 6dbd 575d 983d
000000b0: d66f 96bd 50c5 d03c 68aa 0abc c047 853b
000000c0: 28ef 9bbc 7478 a03c 990d 903d 9ab3 3e3d
000000d0: 8078 3ebb 949d 1bbd 1900 33bd 581d 6cbc
000000e0: 5048 dcbb c640 6a3d e04e b0bc 00f4 da3a
000000f0: 38cb b33c 39f5 8f3d 7baf a03d 508b 6abc
00000100: 5077 3f3c 7191 99bd f077 473c ed1e 97bd
00000110: 803c 92bb a826 0e3d 7dba 903d e0c5 75bb
00000120: 9580 35bd f151 a73d 3ad3 72bd 6cc0 d63c
00000130: 331c 8b3d 6f01 a23d fe8e 69bd 7e28 663d
00000140: 36eb 0f3d c412 acbc a007 5dbb db2b ad3d
00000150: 66f1 83bd 3055 273c 9b3b 0fbd 8730 aa3d
00000160: c596 b4bd 48ad a63c 7623 f5bc 308f 38bc
00000170: eef9 5e3d 9af6 37bd 5b76 8c3d 65c8 12bd
00000180: 8052 b43a 70bb a2bb 9f8e acbd 602b 26bb
00000190: 61f1 9c3d 2189 803d 8d33 843d 671f 933d
000001a0: 10db eb3b ba95 6d3d fd47 8f3d 88ec b3bd
000001b0: c083 163c 6c71 cbbc b6d7 6e3d 1564 32bd
000001c0: 3a01 76bd 3352 18bd 9b66 29bd 2665 9abd
000001d0: 967b 553d ee2e 783d c4f6 18bd c053 a73b
000001e0: c00a 50bd 35eb b13d b8fe b2bd 7967 afbd
000001f0: a7c6 1cbd 580a b33c 6005 76bc da09 703d
0.035048813 -0.052034434 -0.021723151 0.01980006 0.058859162 0.023442738 -0.027532332 0.050104715
0.048089795 -0.073641166 -0.023687392 -0.016636647 0.03700932 -0.07580258 -0.050022956 0.028563581
-0.04321214 0.07649096 0.047814317 0.00061234087 -0.028814062 -0.01717583 -0.03592175 0.040380143
0.027544767 -0.040800836 -0.06341354 -0.012571737 -0.07662067 -0.07486506 -0.08157873 -0.052723084
0.055519067 0.036350146 0.050702877 0.0004433319 0.0698838 -0.085463904 0.01924543 -0.032070063
-0.087749064 -0.053348362 -0.057997666 0.07439678 -0.0734555 0.025484711 -0.00846348 0.004067391
-0.019034937 0.019588687 0.070338435 0.046558 -0.0029063523 -0.037992075 -0.043701265 -0.014411293
-0.0067224875 0.05719068 -0.021521986 0.0016704798 0.021947488 0.070291944 0.0784597 -0.014315441
0.011686161 -0.07498444 0.012174591 -0.073789455 -0.0044627786 0.034704834 0.0706682 -0.0037501976
-0.04431208 0.08169926 -0.059283473 0.0262148 0.06792488 0.0791043 -0.057021134 0.05619096
0.035136424 -0.021005042 -0.0033726469 0.084556304 -0.064425275 0.010213181 -0.034968954 0.08310037
-0.088178195 0.020346299 -0.029924136 -0.011264607 0.05443757 -0.044912912 0.06858512 -0.035835642
0.0013757497 -0.004966192 -0.0842564 -0.0025355443 0.07663227 0.06276155 0.06455145 0.07183724
0.007197745 0.05800412 0.069961525 -0.08785349 0.009186685 -0.024834357 0.058311187 -0.043552477
-0.060059763 -0.037187766 -0.041357618 -0.07538824 0.052119814 0.06059163 -0.03734471 0.0051064193
-0.050791502 0.0868744 -0.0873999 -0.08564658 -0.038275387 0.021855518 -0.01501593 0.058603145

model.model.model.8.weight f4 [2, 128]
00000000: 6e7e 7d3d c248 f2bc e167 873d 884f 1d3c
00000010: 9cab 04bd 8285 223d 273f 983d 251e 8dbd
00000020: 4887 acbd 776d af3d ad70 b33d 980e 793c
00000030: 72ae 623d d43a 29bd 1099 aebc 0f66 a13d
00000040: aa85 7f3d b027 fcbb 5512 7cbd 7035 c9bb
00000050: 8206 6c3d 880a 153d 32c1 8dbd ec82 4dbd
00000060: abc5 b43d 02dd 5d3d 246f e53c 7cfe 8d3c
00000070: 788b 493c 9c09 40bd a82d 2d3c dc9f 5dbd
00000080: 449e 21bd 3219 613d 60d3 9e3b bcc4 abbd
00000090: c2ff d6bc d223 5b3d 877d 58bd 2846 f4bc
000000a0: 8f42 883d 689c 96bc 70d4 973b 3067 843b
000000b0: ec8e c9bc 5a7b 6e3d f4df 11bd 1b8b b4bd
000000c0: e831 60bc f6a0 a8bd a637 393d 0a4b 1ebd
000000d0: 2b71 a53d b0af 98bd d0a3 de3b ae10 38bd
000000e0: eac9 693d b061 a23c 9ea7 303d de59 0d3d
000000f0: 89c2 58bd e05c 3b3b f963 ae3d 0cef a3bd
00000100: 308d b4bb 3b24 7abd 69d9 b43d 6055 a9bd
00000110: e3cc 883d 7ffc 923d 763a 563d 2228 463d
00000120: 92ac 8cbd b072 09bc ce25 4d3d 3044 e83c
00000130: d0a3 cc3c 6cc7 ba3c a0e2 08bc 3625 37bd
00000140: a489 8abd c3b0 99bd 001d f6b9 b1e9 9fbd
00000150: b586 13bd 8047 a53c e59e 89bd 545a f13c
00000160: ad03 83bd 7502 ab3d 018f 9e3d 3abe 2abd
00000170: b8f9 333c 88cb 833c ebcd ae3d c831 143c
00000180: 450c ac3d b363 8d3d 0cf7 a1bd 84da 9b3c
00000190: 6187 9c3d 3c65 70bd 2831 023c 74aa 94bd
000001a0: 7c61 e53c afb9 9c3d b14e aebd 302c e0bb
000001b0: d6bc 363d b716 ac3d cb1c 843d 4ec6 733d
000001c0: 3d7c b03d d8a2 eebc 8e20 723d 8c59 81bd
000001d0: 3e94 353d 729f 333d 924d 9fbd d0eb c8bc
000001e0: 97e1 833d 30c2 adbc 73d8 843d 588c 953c
000001f0: dc55 ae3c dfe2 a63d dde2 923d 42d3 673d
00000200: 6219 45bd 87e6 a53d 089a 17bc de42 81bd
00000210: 698c a23d 9b04 55bd c47d 48bd 860e 7c3d
00000220: 00e3 dabb 0018 9bb9 3186 973d 0838 063c
00000230: 4d5e 8c3d 1267 88bd e823 0d3d dc52 8bbc
00000240: 32d1 74bd 22b0 3f3d 091e b03d bff0 b43d
00000250: 404c 99bd 2bcb a03d 6254 27bd e8fa 673c
00000260: 50fc 783c 2018 e73c e68e 4dbd 4c66 cdbc
00000270: 6778 a3bd 70f8 313c 30a6 dd3c 5b11 943d
00000280: 473d 99bd 5218 513d e6d1 213d e84a 883c
00000290: 0822 69bc 78d5 0dbd 8325 2ebd a7c1 803d
000002a0: 343a a2bd 9db9 2dbd e919 a4bd 2711 8cbd
000002b0: 80b0 c8bb f2b5 2c3d 5352 953d baee a6bd
000002c0: ccc6 c53c 3818 98bc e6e3 593d 304d 7bbc
000002d0: e81d 83bd ba5b 253d b130 b2bd 508e bf3c
000002e0: 8721 973d 40f7 b03a 7a20 333d 5570 983d
000002f0: 580e 8abc 80ec 7fbc 0aa3 2c3d fa0a 9fbd
00000300: 04fa 88bd 13f1 a03d f4e2 88bd 20ca 1ebb
00000310: cea7 283d a618 303d f316 22bd c9f4 21bd
00000320: 102b 9abb 00a5 c6ba 000f 2c3c 3c7a 69bd
00000330: f074 b2bc 887f 53bd 0cd6 8dbc 642b 813c
00000340: 6976 3dbd 1a52 793d 6a3f 7b3d 20d0 0abd
00000350: 9ecc 733d a6b4 77bd 49ef 8b3d 4872 283c
00000360: 2050 16bc 5710 833d 5aa6 9bbd 6a36 13bd
00000370: dc9c c4bc 2465 de3c d053 a7bb 6063 733b
00000380: ab48 a8bd 0064 ae3a a4dd 923c a693 27bd
00000390: d34a 8a3d f17c a93d fe2c 553d a263 1b3d
000003a0: b774 5fbd 7d3a 9c3d 816f 8c3d 6d57 9f3d
000003b0: b6e1 8abd 787a 71bc 0078 57b9 769b b0bd
000003c0: 37ae 803d 94c2 a9bd 0471 a4bd e741 59bd
000003d0: 149e d03c e66e 5a3d be55 193d 2c74 55bd
000003e0: ca01 7fbd 0abc 4f3d 24cb ebbc 7a64 083d
000003f0: 8245 753d d007 cd3c 5178 16bd e3f8 85bd
0.06188815 -0.02957571 0.0661161 0.009601481 -0.032390222 0.039678104 0.0743392 -0.06890515
-0.0842424 0.08565801 0.087617256 0.015201233 0.055342145 -0.04131587 -0.02131322 0.07880794
0.06238333 -0.007695161 -0.06154092 -0.0061404034 0.057623394 0.036386997 -0.06921615 -0.050173685
0.08826765 0.054165848 0.028007098 0.017333262 0.012301318 -0.046884164 0.010569967 -0.054107532
-0.039457574 0.05495567 0.004846975 -0.083871335 -0.026245002 0.053500958 -0.052854087 -0.02981861
0.0665332 -0.018385127 0.004633479 0.004040621 -0.024604283 0.058223106 -0.03561397 -0.08815595
-0.013683774 -0.08233826 0.045219086 -0.03864578 0.08078226 -0.07455385 0.0067944303 -0.044937782
0.057077326 0.019821972 0.043128602 0.034509532 -0.0529199 0.0028589293 0.08515162 -0.08004579
-0.005509995 -0.06106971 0.0883053 -0.08268237 0.06679704 0.07177066 0.052301846 0.048378117
-0.06868853 -0.00838916 0.05008488 0.028352827 0.024980456 0.02280017 -0.008354813 -0.04471322
-0.06764534 -0.07504418 -0.00046942383 -0.07808245 -0.03601714 0.020175695 -0.0671976 0.029462017
-0.063971855 0.08350078 0.077421196 -0.04168532 0.010984831 0.016088262 0.085353695 0.009045072
0.08400778 0.06903782 -0.079084486 0.019025095 0.07643009 -0.058690295 0.00794629 -0.07259074
0.028000586 0.07652604 -0.08511103 -0.006841205 0.04461368 0.0840277 0.06450804 0.05951529
0.086174466 -0.029130384 0.059113078 -0.06315908 0.044330828 0.04385323 -0.07778467 -0.024526507
0.06439512 -0.02121076 0.06486597 0.018255398 0.021281175 0.08148741 0.07172177 0.056597956
-0.04811991 0.0810061 -0.0092530325 -0.06311582 0.07936937 -0.052006345 -0.048948064 0.061537288
-0.0066798925 -0.00029581785 0.07398642 0.00819207 0.06853924 -0.06660284 0.03445807 -0.017007284
-0.059769817 0.046798833 0.08599479 0.08834981 -0.07485247 0.07851251 -0.040851958 0.014158942
0.015196875 0.028209746 -0.050185107 -0.025073193 -0.07981949 0.010862455 0.027056783 0.07229873
-0.07482391 0.051048584 0.039506815 0.01663728 -0.014229305 -0.034627408 -0.042516243 0.06286936
-0.079212576 -0.042413343 -0.080127545 -0.06839209 -0.006124556 0.042165704 0.07291093 -0.08151002
0.024142645 -0.018566236 0.053195857 -0.015338227 -0.064021885 0.04037068 -0.087006934 0.02338329
0.07379442 0.0013501421 0.043732144 0.07443301 -0.016852543 -0.015620351 0.042147674 -0.077657655
-0.06688312 0.07858481 -0.06683913 -0.0024229363 0.041175656 0.042992257 -0.039572667 -0.039540086
-0.0047048405 -0.0015155375 0.010501623 -0.057001337 -0.021784276 -0.051635295 -0.01731398 0.01576776
-0.046255503 0.060869314 0.061339773 -0.03388989 0.05952131 -0.060475014 0.068327494 0.010281153
-0.009174377 0.06399601 -0.076000884 -0.035940565 -0.024000578 0.027147837 -0.005106427 0.003713809
-0.08216985 0.0013304949 0.017927952 -0.040912293 0.06752553 0.08275784 0.05204486 0.037936814
-0.054554667 0.07628343 0.06857205 0.07780347 -0.06781332 -0.0147386715 -0.00020548701 -0.08623402
0.06283229 -0.08289066 -0.080293685 -0.053041365 0.025466003 0.053328417 0.037435286 -0.052112743
-0.062257566 0.050716437 -0.028783388 0.033298947 0.05988074 0.02502814 -0.036735836 -0.06541612

model.model.model.8.bias f4 [2]
00000000: c005 a2ba 8e0e 5b3d
-0.0012361333 0.053480677
