test/offline/log/Pendulum-v1/bcq/seed_0_0617_132420-Pendulum_v1_bcq/policy.pth (torch, 33715 bytes, 31 tensors)

actor.preprocess_net.model.0.weight f4 [64, 4]
00000000: 0054 75bb 5e54 893e 16b3 d2be 8066 bcbe
00000010: f432 45be ec4b 093e 404f 22bc cefa ca3e
00000020: 70bf 35bd 4c7b 073e acbb 1abe 7048 c9bd
00000030: b891 f4be 528b a9be e80e 53be 00bb 973c
00000040: 6069 4a3e 189b 993e 8c8d adbe fcf4 5ebe
00000050: 98f7 393e 4e94 d43e 48bd d2bd 5c91 bf3e
00000060: 400d a5bd 10b5 583d 4acd e73e ce7b edbe
00000070: 6629 a1be e09e 01be dc93 47be 282f dd3e
00000080: 1aef a5be c0b0 6bbe 1ada b2be 76c2 efbe
00000090: 0470 95be 9e0e dc3e bc76 643e 0027 783e
000000a0: 406a d73c 3a3f 83be c03e ad3d 9e06 efbe
000000b0: 1afa b8be c6f9 83be 2685 a13e 2619 963e
000000c0: c811 63be 20cb 93bc 40ba a33e 827f fe3e
000000d0: 2434 4b3e c855 8a3d fea4 ab3e c0bb 96be
000000e0: f8d0 be3d 6c7a c6be 186e b1be d23e 84be
000000f0: 8caa 673e f8e7 4d3e 6aa4 97be c8ad 1a3e
00000100: 6e89 8c3e 203f 81bd 4064 9c3c 0044 ed3d
00000110: 00d1 9e3e 48cf f53e 9647 c5be eca1 3bbe
00000120: 9838 493e d01b d43e e8c5 de3e 22e2 e13e
00000130: 78ca cb3d f89c debe 9066 3c3d ac27 a0be
00000140: 8c94 eebe 3e74 e33e f0a6 c23e fe5d ffbe
00000150: 08aa bf3d c880 acbd b882 a8bd 1c5f 6abe
00000160: 8ce4 443e 34a1 97be dcb1 3b3e 1676 813e
00000170: 5c43 b73e 4871 3f3e 4a5f fdbe 0011 a6be
00000180: 38a6 7f3e 1853 d63d 96b3 c7be e868 93be
00000190: f2d4 f03e 547f ac3e b03e 5fbe d4dc 00be
000001a0: 78dd f3be 803e 13bc 78c8 c0be a277 c5be
000001b0: 20b0 e1bc a0bf 993d f4ad 51be 98e7 973e
000001c0: 38c9 9bbe 6849 e83e d06f af3e 64e1 d7be
000001d0: 88db febd 80d2 b83c 1867 953d d0dd f23d
000001e0: 5cec 483e e059 f53c ccd1 79be d445 723e
000001f0: 5691 f5be a0bb 97be 3c2b 00be ec66 79be
00000200: 5c1d 33be bad2 d1be 00d2 d9bd f8e2 da3d
00000210: 76c6 a6be 4034 d2bc 0042 b73e f088 52bd
00000220: 80ac 633c c0ad 30bd 103d cf3d 60c6 a23e
00000230: ba7e f23e 0693 a23e c40c f33e 601d 14bd
00000240: 66f8 e5be 40ba 72be ce4f ae3e 006b 54bb
00000250: dc7c 7ebe 022d c4be 0094 efbe ec10 d8be
00000260: 70b4 cfbd 5664 8c3e 7467 8a3e 02e5 f6be
00000270: 2eb0 9f3e 8a52 c8be f07b d8bd 1c9a 4fbe
00000280: f03c c5bd 100e c9bd bab8 e5be 440a ddbe
00000290: 283c a0bd 80e1 d33b b896 68be b8de 403e
000002a0: 3a6a e6be c036 0abd a221 e13e 38d7 50be
000002b0: 362b e73e 386c 393e ae07 e7be 74f8 a13e
000002c0: f053 6cbd 708f 64be 14b6 cc3e 54df cebe
000002d0: b0c2 5b3d c064 d6bd 16d0 b63e 08ec 0e3e
000002e0: cc04 763e 40d1 343e 003f f6bd 505a d7bd
000002f0: 00f7 d2be 4cb6 8a3e 2642 cb3e 5c29 af3e
00000300: ac93 b4be 60ae b63c 9076 b4be 88ec 8cbe
00000310: 302c 95be 34f9 2e3e c48d 98be 00ba 32bc
00000320: a04f ac3c 0406 a53e fa83 c1be 44bf afbe
00000330: 3ca6 94be d62e b33e cc0b 38be e0ee d73e
00000340: a024 393e 40aa 813d 00ed 73bb 086d cabd
00000350: 407a 803d 30d3 e9bd 003e 66bb c0a7 823d
00000360: 983e c8be 7a2d 86be d8b7 ce3e 86c1 cfbe
00000370: 200f 13bd c03e fd3e 10f4 383e c0f0 673c
00000380: 26da ddbe 2ca2 7d3e 0858 b6be a856 11be
00000390: ccc8 2bbe 38a4 97bd 8036 b33b 9626 d33e
000003a0: 80ab 7f3d 204c e53e 3099 9c3e c6d8 a1be
000003b0: 54a2 653e 24f7 b4be 9cff 58be 4097 163e
000003c0: f00e 293e f20e c03e 28d2 24be 00d4 513a
000003d0: 7acb 833e 5a93 f7be 4215 b93e 30b1 d3be
000003e0: 00d0 e13b e018 aebd 0ad4 86be d857 873d
000003f0: f2b0 d33e e8aa 15be 56fc 97be 845b 3dbe
-0.00374341 0.2682218 -0.41152257 -0.3679695 -0.19257718 0.13407868 -0.00990659 0.39644474
-0.044372022 0.13230628 -0.15110654 -0.098282695 -0.47767425 -0.33114105 -0.20611155 0.018521786
0.1976676 0.3000114 -0.33897054 -0.21773142 0.18160856 0.41519397 -0.10290009 0.37415588
-0.08059168 0.05290705 0.4527381 -0.46383518 -0.31476897 -0.12658262 -0.19489998 0.4320004
-0.32408983 -0.23016644 -0.34932023 -0.4682805 -0.29187024 0.42979902 0.22310919 0.24233627
0.026295781 -0.25634176 0.08459234 -0.46684736 -0.36128312 -0.257765 0.31546897 0.29316062
-0.22174752 -0.018041193 0.31978035 0.49706656 0.19844109 0.06754643 0.33524317 -0.29440117
0.093172014 -0.38765275 -0.34654307 -0.25829178 0.22623652 0.2010802 -0.29617625 0.15105355
0.274486 -0.06310868 0.019090772 0.115852356 0.3101883 0.48009706 -0.38531178 -0.18323487
0.19650495 0.4142747 0.43510365 0.44117838 0.09950727 -0.43479133 0.04599625 -0.31280267
-0.46597707 0.44424623 0.38017988 -0.49876398 0.09358603 -0.084230006 -0.082280576 -0.22887844
0.19227809 -0.29615176 0.18329567 0.25285405 0.3579358 0.18695557 -0.49486762 -0.32434845
0.24965751 0.104650676 -0.390042 -0.28790975 0.47037464 0.33690894 -0.21801257 -0.12584239
-0.47629905 -0.008987069 -0.37652946 -0.38567835 -0.027549803 0.07507253 -0.20476514 0.2966888
-0.30426955 0.45368505 0.34264994 -0.42164147 -0.12444216 0.022561312 0.07295054 0.118587136
0.19621414 0.029950082 -0.24396437 0.2365945 -0.47962445 -0.29635334 -0.12516493 -0.24355668
-0.17491668 -0.40981084 -0.106357574 0.10687822 -0.3257329 -0.02565968 0.35792542 -0.051400125
0.013896108 -0.04313445 0.101190686 0.31791973 0.4736231 0.31752795 0.47470677 -0.036160827
-0.44916075 -0.23703861 0.3404526 -0.003241241 -0.24852318 -0.38315588 -0.46792603 -0.4220041
-0.101418376 0.274203 0.27032053 -0.48221594 0.31189102 -0.39125472 -0.10570514 -0.20273632
-0.096307635 -0.09817135 -0.44867498 -0.43171895 -0.07823974 0.0064660907 -0.22713745 0.1883496
-0.4500292 -0.03374362 0.43970972 -0.203946 0.45150155 0.18107688 -0.45123047 0.31634867
-0.057697237 -0.22320342 0.39982665 -0.4040476 0.053652465 -0.10468435 0.35705632 0.13957226
0.24025267 0.17657948 -0.12023735 -0.105152726 -0.4120407 0.27092206 0.39698905 0.34211242
-0.35268915 0.022299945 -0.35246706 -0.2752421 -0.29135275 0.17087251 -0.2979566 -0.010908604
0.021034062 0.32231152 -0.37796003 -0.34325612 -0.29033077 0.3499667 -0.1797325 0.42174435
0.18080378 0.06331301 -0.003722012 -0.09884077 0.06273317 -0.11417234 -0.003513217 0.06379652
-0.39110255 -0.2620657 0.40374637 -0.40577334 -0.035903096 0.49461937 0.18061852 0.01415652
-0.43330497 0.24768895 -0.35614038 -0.14193213 -0.16775817 -0.07404369 0.0054691434 0.41240376
0.062419415 0.4478464 0.30585623 -0.31610698 0.22425205 -0.35344803 -0.21191257 0.14706135
0.16509604 0.37511402 -0.16095793 0.0008004308 0.25741178 -0.48354608 0.3614903 -0.4134612
0.0068912506 -0.08500838 -0.26333648 0.06608552 0.41345936 -0.14615977 -0.29684705 -0.18491942

actor.preprocess_net.model.0.bias f4 [64]
00000000: e6bb fdbe 1c1d 673e 20e5 75be d0d6 aabe
00000010: 627b 93be 5230 933e 2492 873e 507c c43e
00000020: d8b6 393e c4fc 2abe d413 0fbe 9842 173e
00000030: de70 d23e 7435 0b3e 1c40 72be fcad 70be
00000040: 420a f2be b03b dd3d a8a9 8fbe 503e e4be
00000050: fa7a e03e d03f a6be d0fb 68bd 48af 123e
00000060: e07d 823c fa41 acbe 2cee cebe 980d cc3e
00000070: 30bf a63d 4662 d43e a8a4 2bbe f8cf 163e
00000080: 182a eabd 6027 b6bc 52ea 9bbe ac28 2d3e
00000090: 80e0 213e 40fd 28bc c04c e6bd 58ce 9dbe
000000a0: 1409 b13e 9492 bebe acbf 513e 6c29 2cbe
000000b0: 0c06 77be e0f4 b73d 22fb 84be 40ef eb3d
000000c0: 1018 c93d ca13 bebe 987e aa3d 6413 5a3e
000000d0: 5caa 4a3e 58e6 80bd 9add d1be 90da 9dbd
000000e0: 50d2 313e 2cd1 3abe 7458 423e 867c aa3e
000000f0: baab 85be 8093 a13b 24b6 533e 9084 203d
-0.49557418 0.22569698 -0.24013186 -0.33367014 -0.2880507 0.28747803 0.26478684 0.38376093
0.18136156 -0.16697985 -0.13972408 0.14771497 0.41101736 0.1359461 -0.23657268 -0.2350387
-0.4727345 0.108024 -0.28059125 -0.4457879 0.43843824 -0.3247056 -0.056880772 0.14324677
0.015929163 -0.33644086 -0.40416086 0.3985412 0.08141935 0.41481227 -0.1676203 0.14727771
-0.1143381 -0.022235572 -0.3045221 0.16910046 0.15808296 -0.010314286 -0.11245108 -0.3082149
0.3457724 -0.37221205 0.20483273 -0.16812676 -0.241234 0.08982253 -0.2597285 0.11520243
0.09819043 -0.37124473 0.08324927 0.2129646 0.1979155 -0.062939346 -0.4098938 -0.07707703
0.17365384 -0.18243855 0.18979055 0.3329813 -0.2610758 0.0049309134 0.2067495 0.03918892

actor.preprocess_net.model.2.weight f4 [1, 64]
00000000: 9012 2b3c 70b9 7f3c fa40 c9bd e0f2 203c
00000010: b445 b13d 64af e63d d876 963d 1838 893c
00000020: 7c1c 6f3d dc13 79bd ec24 d4bd ca23 dcbd
00000030: 5a63 ff3d 8e81 a23d b2f4 b0bd f450 483d
00000040: aa52 c13d c2e6 ff3d 58d8 df3d 4456 c63d
00000050: f0c2 eabc a0ae 33bd 4230 d23d 0a75 8f3d
00000060: 300e 9abd fe25 e63d 9060 773d 008e 8b3d
00000070: 6a74 a0bd 88e4 123d ec7c 33bd fc06 c83d
00000080: 5842 b8bc f853 473d 80e2 b53c f8d6 593d
00000090: e0fd 2dbd f4a2 793d fece b2bd 8846 e73c
000000a0: 2035 adbd ba8d fcbd 1095 cdbd b61a ca3d
000000b0: 5081 8a3d e82e f03d 4816 cd3d a09e e4bd
000000c0: ceb3 aebd e875 a5bc 3241 a6bd f8c3 b13d
000000d0: ba89 c1bd 38ce 79bd c451 f7bd c657 91bd
000000e0: e28d d23d 429a d13d 2441 b73d 22aa c53d
000000f0: baa1 e33d b01a 03bd f447 613d 0414 e43d
0.010441437 0.015608177 -0.098268464 0.009823531 0.08655873 0.11263922 0.073468864 0.01675038
0.058376774 -0.060809955 -0.10358605 -0.10749014 0.12470122 0.07934867 -0.08640422 0.048905328
0.09439595 0.124951854 0.10929936 0.096844226 -0.028657407 -0.043867707 0.10263111 0.07004745
-0.07522237 0.11237715 0.060394824 0.06814194 -0.07834704 0.035862476 -0.043820307 0.09766957
-0.022492573 0.048664063 0.02220273 0.053183526 -0.042478442 0.06094642 -0.08730887 0.028231874
-0.084573984 -0.1233172 -0.10038197 0.09868376 0.06762946 0.11727697 0.100140154 -0.11163068
-0.08530389 -0.020197824 -0.08117904 0.08679956 -0.094500974 -0.06098768 -0.120761424 -0.070968196
0.10280968 0.102345005 0.089479715 0.09651591 0.11114831 -0.032007873 0.05500026 0.1113663

actor_target.preprocess_net.model.0.weight f4 [64, 4]
00000000: 0054 75bb 5e54 893e 16b3 d2be 8066 bcbe
00000010: f432 45be ec4b 093e 404f 22bc cefa ca3e
00000020: 70bf 35bd 4c7b 073e acbb 1abe 7048 c9bd
00000030: b891 f4be 528b a9be e80e 53be 00bb 973c
00000040: 6069 4a3e 189b 993e 8c8d adbe fcf4 5ebe
00000050: 98f7 393e 4e94 d43e 48bd d2bd 5c91 bf3e
00000060: 400d a5bd 10b5 583d 4acd e73e ce7b edbe
00000070: 6629 a1be e09e 01be dc93 47be 282f dd3e
00000080: 1aef a5be c0b0 6bbe 1ada b2be 76c2 efbe
00000090: 0470 95be 9e0e dc3e bc76 643e 0027 783e
000000a0: 406a d73c 3a3f 83be c03e ad3d 9e06 efbe
000000b0: 1afa b8be c6f9 83be 2685 a13e 2619 963e
000000c0: c811 63be 20cb 93bc 40ba a33e 827f fe3e
000000d0: 2434 4b3e c855 8a3d fea4 ab3e c0bb 96be
000000e0: f8d0 be3d 6c7a c6be 186e b1be d23e 84be
000000f0: 8caa 673e f8e7 4d3e 6aa4 97be c8ad 1a3e
00000100: 6e89 8c3e 203f 81bd 4064 9c3c 0044 ed3d
00000110: 00d1 9e3e 48cf f53e 9647 c5be eca1 3bbe
00000120: 9838 493e d01b d43e e8c5 de3e 22e2 e13e
00000130: 78ca cb3d f89c debe 9066 3c3d ac27 a0be
00000140: 8c94 eebe 3e74 e33e f0a6 c23e fe5d ffbe
00000150: 08aa bf3d c880 acbd b882 a8bd 1c5f 6abe
00000160: 8ce4 443e 34a1 97be dcb1 3b3e 1676 813e
00000170: 5c43 b73e 4871 3f3e 4a5f fdbe 0011 a6be
00000180: 38a6 7f3e 1853 d63d 96b3 c7be e868 93be
00000190: f2d4 f03e 547f ac3e b03e 5fbe d4dc 00be
000001a0: 78dd f3be 803e 13bc 78c8 c0be a277 c5be
000001b0: 20b0 e1bc a0bf 993d f4ad 51be 98e7 973e
000001c0: 38c9 9bbe 6849 e83e d06f af3e 64e1 d7be
000001d0: 88db febd 80d2 b83c 1867 953d d0dd f23d
000001e0: 5cec 483e e059 f53c ccd1 79be d445 723e
000001f0: 5691 f5be a0bb 97be 3c2b 00be ec66 79be
00000200: 5c1d 33be bad2 d1be 00d2 d9bd f8e2 da3d
00000210: 76c6 a6be 4034 d2bc 0042 b73e f088 52bd
00000220: 80ac 633c c0ad 30bd 103d cf3d 60c6 a23e
00000230: ba7e f23e 0693 a23e c40c f33e 601d 14bd
00000240: 66f8 e5be 40ba 72be ce4f ae3e 006b 54bb
00000250: dc7c 7ebe 022d c4be 0094 efbe ec10 d8be
00000260: 70b4 cfbd 5664 8c3e 7467 8a3e 02e5 f6be
00000270: 2eb0 9f3e 8a52 c8be f07b d8bd 1c9a 4fbe
00000280: f03c c5bd 100e c9bd bab8 e5be 440a ddbe
00000290: 283c a0bd 80e1 d33b b896 68be b8de 403e
000002a0: 3a6a e6be c036 0abd a221 e13e 38d7 50be
000002b0: 362b e73e 386c 393e ae07 e7be 74f8 a13e
000002c0: f053 6cbd 708f 64be 14b6 cc3e 54df cebe
000002d0: b0c2 5b3d c064 d6bd 16d0 b63e 08ec 0e3e
000002e0: cc04 763e 40d1 343e 003f f6bd 505a d7bd
000002f0: 00f7 d2be 4cb6 8a3e 2642 cb3e 5c29 af3e
00000300: ac93 b4be 60ae b63c 9076 b4be 88ec 8cbe
00000310: 302c 95be 34f9 2e3e c48d 98be 00ba 32bc
00000320: a04f ac3c 0406 a53e fa83 c1be 44bf afbe
00000330: 3ca6 94be d62e b33e cc0b 38be e0ee d73e
00000340: a024 393e 40aa 813d 00ed 73bb 086d cabd
00000350: 407a 803d 30d3 e9bd 003e 66bb c0a7 823d
00000360: 983e c8be 7a2d 86be d8b7 ce3e 86c1 cfbe
00000370: 200f 13bd c03e fd3e 10f4 383e c0f0 673c
00000380: 26da ddbe 2ca2 7d3e 0858 b6be a856 11be
00000390: ccc8 2bbe 38a4 97bd 8036 b33b 9626 d33e
000003a0: 80ab 7f3d 204c e53e 3099 9c3e c6d8 a1be
000003b0: 54a2 653e 24f7 b4be 9cff 58be 4097 163e
000003c0: f00e 293e f20e c03e 28d2 24be 00d4 513a
000003d0: 7acb 833e 5a93 f7be 4215 b93e 30b1 d3be
000003e0: 00d0 e13b e018 aebd 0ad4 86be d857 873d
000003f0: f2b0 d33e e8aa 15be 56fc 97be 845b 3dbe
-0.00374341 0.2682218 -0.41152257 -0.3679695 -0.19257718 0.13407868 -0.00990659 0.39644474
-0.044372022 0.13230628 -0.15110654 -0.098282695 -0.47767425 -0.33114105 -0.20611155 0.018521786
0.1976676 0.3000114 -0.33897054 -0.21773142 0.18160856 0.41519397 -0.10290009 0.37415588
-0.08059168 0.05290705 0.4527381 -0.46383518 -0.31476897 -0.12658262 -0.19489998 0.4320004
-0.32408983 -0.23016644 -0.34932023 -0.4682805 -0.29187024 0.42979902 0.22310919 0.24233627
0.026295781 -0.25634176 0.08459234 -0.46684736 -0.36128312 -0.257765 0.31546897 0.29316062
-0.22174752 -0.018041193 0.31978035 0.49706656 0.19844109 0.06754643 0.33524317 -0.29440117
0.093172014 -0.38765275 -0.34654307 -0.25829178 0.22623652 0.2010802 -0.29617625 0.15105355
0.274486 -0.06310868 0.019090772 0.115852356 0.3101883 0.48009706 -0.38531178 -0.18323487
0.19650495 0.4142747 0.43510365 0.44117838 0.09950727 -0.43479133 0.04599625 -0.31280267
-0.46597707 0.44424623 0.38017988 -0.49876398 0.09358603 -0.084230006 -0.082280576 -0.22887844
0.19227809 -0.29615176 0.18329567 0.25285405 0.3579358 0.18695557 -0.49486762 -0.32434845
0.24965751 0.104650676 -0.390042 -0.28790975 0.47037464 0.33690894 -0.21801257 -0.12584239
-0.47629905 -0.008987069 -0.37652946 -0.38567835 -0.027549803 0.07507253 -0.20476514 0.2966888
-0.30426955 0.45368505 0.34264994 -0.42164147 -0.12444216 0.022561312 0.07295054 0.118587136
0.19621414 0.029950082 -0.24396437 0.2365945 -0.47962445 -0.29635334 -0.12516493 -0.24355668
-0.17491668 -0.40981084 -0.106357574 0.10687822 -0.3257329 -0.02565968 0.35792542 -0.051400125
0.013896108 -0.04313445 0.101190686 0.31791973 0.4736231 0.31752795 0.47470677 -0.036160827
-0.44916075 -0.23703861 0.3404526 -0.003241241 -0.24852318 -0.38315588 -0.46792603 -0.4220041
-0.101418376 0.274203 0.27032053 -0.48221594 0.31189102 -0.39125472 -0.10570514 -0.20273632
-0.096307635 -0.09817135 -0.44867498 -0.43171895 -0.07823974 0.0064660907 -0.22713745 0.1883496
-0.4500292 -0.03374362 0.43970972 -0.203946 0.45150155 0.18107688 -0.45123047 0.31634867
-0.057697237 -0.22320342 0.39982665 -0.4040476 0.053652465 -0.10468435 0.35705632 0.13957226
0.24025267 0.17657948 -0.12023735 -0.105152726 -0.4120407 0.27092206 0.39698905 0.34211242
-0.35268915 0.022299945 -0.35246706 -0.2752421 -0.29135275 0.17087251 -0.2979566 -0.010908604
0.021034062 0.32231152 -0.37796003 -0.34325612 -0.29033077 0.3499667 -0.1797325 0.42174435
0.18080378 0.06331301 -0.003722012 -0.09884077 0.06273317 -0.11417234 -0.003513217 0.06379652
-0.39110255 -0.2620657 0.40374637 -0.40577334 -0.035903096 0.49461937 0.18061852 0.01415652
-0.43330497 0.24768895 -0.35614038 -0.14193213 -0.16775817 -0.07404369 0.0054691434 0.41240376
0.062419415 0.4478464 0.30585623 -0.31610698 0.22425205 -0.35344803 -0.21191257 0.14706135
0.16509604 0.37511402 -0.16095793 0.0008004308 0.25741178 -0.48354608 0.3614903 -0.4134612
0.0068912506 -0.08500838 -0.26333648 0.06608552 0.41345936 -0.14615977 -0.29684705 -0.18491942

actor_target.preprocess_net.model.0.bias f4 [64]
00000000: e6bb fdbe 1c1d 673e 20e5 75be d0d6 aabe
00000010: 627b 93be 5230 933e 2492 873e 507c c43e
00000020: d8b6 393e c4fc 2abe d413 0fbe 9842 173e
00000030: de70 d23e 7435 0b3e 1c40 72be fcad 70be
00000040: 420a f2be b03b dd3d a8a9 8fbe 503e e4be
00000050: fa7a e03e d03f a6be d0fb 68bd 48af 123e
00000060: e07d 823c fa41 acbe 2cee cebe 980d cc3e
00000070: 30bf a63d 4662 d43e a8a4 2bbe f8cf 163e
00000080: 182a eabd 6027 b6bc 52ea 9bbe ac28 2d3e
00000090: 80e0 213e 40fd 28bc c04c e6bd 58ce 9dbe
000000a0: 1409 b13e 9492 bebe acbf 513e 6c29 2cbe
000000b0: 0c06 77be e0f4 b73d 22fb 84be 40ef eb3d
000000c0: 1018 c93d ca13 bebe 987e aa3d 6413 5a3e
000000d0: 5caa 4a3e 58e6 80bd 9add d1be 90da 9dbd
000000e0: 50d2 313e 2cd1 3abe 7458 423e 867c aa3e
000000f0: baab 85be 8093 a13b 24b6 533e 9084 203d
-0.49557418 0.22569698 -0.24013186 -0.33367014 -0.2880507 0.28747803 0.26478684 0.38376093
0.18136156 -0.16697985 -0.13972408 0.14771497 0.41101736 0.1359461 -0.23657268 -0.2350387
-0.4727345 0.108024 -0.28059125 -0.4457879 0.43843824 -0.3247056 -0.056880772 0.14324677
0.015929163 -0.33644086 -0.40416086 0.3985412 0.08141935 0.41481227 -0.1676203 0.14727771
-0.1143381 -0.022235572 -0.3045221 0.16910046 0.15808296 -0.010314286 -0.11245108 -0.3082149
0.3457724 -0.37221205 0.20483273 -0.16812676 -0.241234 0.08982253 -0.2597285 0.11520243
0.09819043 -0.37124473 0.08324927 0.2129646 0.1979155 -0.062939346 -0.4098938 -0.07707703
0.17365384 -0.18243855 0.18979055 0.3329813 -0.2610758 0.0049309134 0.2067495 0.03918892

actor_target.preprocess_net.model.2.weight f4 [1, 64]
00000000: 9012 2b3c 70b9 7f3c fa40 c9bd e0f2 203c
00000010: b445 b13d 64af e63d d876 963d 1838 893c
00000020: 7c1c 6f3d dc13 79bd ec24 d4bd ca23 dcbd
00000030: 5a63 ff3d 8e81 a23d b2f4 b0bd f450 483d
00000040: aa52 c13d c2e6 ff3d 58d8 df3d 4456 c63d
00000050: f0c2 eabc a0ae 33bd 4230 d23d 0a75 8f3d
00000060: 300e 9abd fe25 e63d 9060 773d 008e 8b3d
00000070: 6a74 a0bd 88e4 123d ec7c 33bd fc06 c83d
00000080: 5842 b8bc f853 473d 80e2 b53c f8d6 593d
00000090: e0fd 2dbd f4a2 793d fece b2bd 8846 e73c
000000a0: 2035 adbd ba8d fcbd 1095 cdbd b61a ca3d
000000b0: 5081 8a3d e82e f03d 4816 cd3d a09e e4bd
000000c0: ceb3 aebd e875 a5bc 3241 a6bd f8c3 b13d
000000d0: ba89 c1bd 38ce 79bd c451 f7bd c657 91bd
000000e0: e28d d23d 429a d13d 2441 b73d 22aa c53d
000000f0: baa1 e33d b01a 03bd f447 613d 0414 e43d
0.010441437 0.015608177 -0.098268464 0.009823531 0.08655873 0.11263922 0.073468864 0.01675038
0.058376774 -0.060809955 -0.10358605 -0.10749014 0.12470122 0.07934867 -0.08640422 0.048905328
0.09439595 0.124951854 0.10929936 0.096844226 -0.028657407 -0.043867707 0.10263111 0.07004745
-0.07522237 0.11237715 0.060394824 0.06814194 -0.07834704 0.035862476 -0.043820307 0.09766957
-0.022492573 0.048664063 0.02220273 0.053183526 -0.042478442 0.06094642 -0.08730887 0.028231874
-0.084573984 -0.1233172 -0.10038197 0.09868376 0.06762946 0.11727697 0.100140154 -0.11163068
-0.08530389 -0.020197824 -0.08117904 0.08679956 -0.094500974 -0.06098768 -0.120761424 -0.070968196
0.10280968 0.102345005 0.089479715 0.09651591 0.11114831 -0.032007873 0.05500026 0.1113663

critic1.preprocess.model.model.0.weight f4 [64, 4]
00000000: caea ff3e 18c7 843e 5824 9f3e 2c32 33be
00000010: f4ab 753e 2054 6b3d 888c f4bd 4a4f 90be
00000020: 56a5 8fbe b2fc c4be 4edc ab3e 96ff b53e
00000030: a016 69bd c424 94be 22dd c53e 8cb5 a33e
00000040: 703c 183d b8bb 71be b846 eb3e ac60 513e
00000050: 5a57 c2be 6203 f53e 5266 c23e 8c9e 3abe
00000060: 5ce9 8f3e d674 91be b879 a0bd b25e d93e
00000070: 403e a93c 400c b5be 9420 2bbe dcfa 0abe
00000080: 208f c5bd b0fe 433d a2c1 ec3e 204d db3c
00000090: 8c10 9ebe 00f0 d13c 587f 753e fcf8 7d3e
000000a0: e0f7 e9be b03c b7bd b83e bebe 8876 5abe
000000b0: 6078 383e 18cb b5be fc52 3e3e 8649 d93e
000000c0: 3053 063d f09e aabe 2071 37be d89a df3d
000000d0: 4627 c3be ec5d 7e3e 246a e8be 5217 f6be
000000e0: c0be f8be 68bb cfbd 9024 ac3e 724c f2be
000000f0: aec8 d43e cccf 4cbe e8f4 153e 20ca ba3c
00000100: 10d7 e6be e84e d43e 6ed7 893e 8076 fe3e
00000110: 9655 813e 48fa a8be 48a7 d53e 2023 dc3c
00000120: 80cc 723e ac44 cdbe c843 13be 545c fbbe
00000130: 906b 47be a0e8 dc3d 5c00 c9be 1035 233e
00000140: 2c6c 893e 18a7 8e3d 0c49 abbe 5a7b c6be
00000150: e4f5 1dbe 20bf 603e 7a84 fc3e 1a35 933e
00000160: b09f 66bd 0084 333e f026 fbbe 62a6 dabe
00000170: 3ce7 6e3e 9600 91be 2c52 763e f8b7 b4be
00000180: 6499 7dbe 48dd d2be 5a97 853e 60ae 50bd
00000190: 9404 c53e 686e 9e3e dca7 8d3e 20b6 833c
000001a0: 944c 1ebe 68a6 debd 1817 883d a4cd 7d3e
000001b0: dc59 b3be eada d63e e0ad 5ebd 9a83 d6be
000001c0: c482 8abe 6a83 e23e 741e ea3e aa20 edbe
000001d0: 6e8e b43e f84b 803e f887 973e 24b6 d83e
000001e0: a6f8 89be 5cad 213e 0487 513e e84a 17be
000001f0: a857 2b3e 2c4f 13be 6046 9e3e 880e 0ebe
00000200: 14df 3ebe 40e5 003e 689a 353e 1026 7abe
00000210: 300a 353d 745c 943e f0c4 4bbd a8d1 1b3e
00000220: b8f9 f6bd b074 333e e671 b9be 0e89 96be
00000230: 74f1 81be 4c44 eb3e 64c5 09be 00f0 b2ba
00000240: cc0f 78be f08f ff3e 0e07 fa3e 6012 c1be
00000250: 1088 cfbe d40b c2be 0008 1ebb c482 02be
00000260: 4e90 a7be e0a3 37be 1877 c13d f4c1 85be
00000270: 88e6 e23d c8d1 eabd b018 78be c8ae 8c3d
00000280: 847f d23e 8813 adbe 0032 be3c 20cf 3cbe
00000290: e436 fb3e 26e2 f2be d26a f5be 3042 fc3e
000002a0: f8f7 a1be 2053 c43d 40c1 30bd 78b6 d7bd
000002b0: 48b5 e4bd 3cac a23e c0c6 c33c ce3e f9be
000002c0: d821 97be 7c8a 2ebe cad2 803e 8eaa a5be
000002d0: 2e63 f13e 2813 e4bd 18df b7bd 4297 c83e
000002e0: e6aa 803e 6a1e d93e ee14 943e 3451 1bbe
000002f0: 54d9 a9be a060 18bd 0ee0 d33e 5cd6 2bbe
00000300: 1e68 edbe 24e2 513e 6c35 f93e 00c2 11be
00000310: 5af9 d3be 1035 e8be 904e 003e f012 1bbd
00000320: d846 81be a8fb ce3d c06f 423e 069a cb3e
00000330: fcc0 c63e b046 99bd 7ebb e1be d853 e7be
00000340: 4806 ef3e 1055 623e 402f 5f3e 207f ddbe
00000350: 5e0f ed3e 1485 f23e da21 e73e 30f5 d7be
00000360: 8830 41be 4a11 b0be 566c f23e 04ff 5bbe
00000370: 84c1 69be 281f 863e e8d8 6cbe dc2b 7cbe
00000380: 4024 33bd 50da 44bd 226b c7be 466b d53e
00000390: b4da 61be 309d 353e 24aa de3e e21a 813e
000003a0: 50fa 903d c4d1 d93e 08a7 893d 54e1 6cbe
000003b0: 062d f23e 605c f23d 38c6 f9be 18c3 11be
000003c0: fe60 aebe e272 e03e 001c a9bd b259 e9be
000003d0: 80be 00bd 74c5 a03e 9004 053e 8ce5 213e
000003e0: 5034 3e3d 18e2 3e3e e87f f9bd 78ac 4bbe
000003f0: 0e49 efbe b0da c0be f0e6 5d3e be94 97be
0.49983817 0.25933146 0.31082416 -0.17499608 0.23991376 0.057453275 -0.11940867 -0.28185493
-0.2805583 -0.3847404 0.33566517 0.3554656 -0.056906343 -0.289343 0.38645273 0.31974447
0.037167013 -0.23606765 0.45952392 0.20447034 -0.3795727 0.47854143 0.3796869 -0.18224543
0.28107727 -0.2840945 -0.07835716 0.4245506 0.020659566 -0.35360909 -0.16711646 -0.13572258
-0.096464396 0.04785031 0.4624148 0.026770175 -0.30872 0.025627136 0.23974359 0.24802011
-0.45696926 -0.08947122 -0.37157226 -0.21334279 0.1801467 -0.3550651 0.18586344 0.42438906
0.032794178 -0.33324385 -0.17914248 0.10918206 -0.381159 0.24840516 -0.4539348 -0.48064667
-0.4858303 -0.10143167 0.33621645 -0.47323948 0.41559356 -0.20001143 0.14644206 0.022801459
-0.45085955 0.4146645 0.26922172 0.49699783 0.2526061 -0.3300345 0.41729188 0.026872218
0.23710823 -0.40091455 -0.14381325 -0.49093878 -0.19474626 0.10786557 -0.39258087 0.1593821
0.2684034 0.06965464 -0.33454168 -0.38765985 -0.15425831 0.21947908 0.49319822 0.2875145
-0.056304634 0.17530823 -0.49053144 -0.42705065 0.23330396 -0.2832076 0.24054784 -0.35296607
-0.24765545 -0.4118445 0.26092035 -0.050947547 0.38480055 0.30943608 0.2766713 0.016078055
-0.154589 -0.10871583 0.0664503 0.24785477 -0.35029495 0.41963893 -0.05436504 -0.4189728
-0.2705289 0.44240886 0.4572636 -0.46313983 0.35264915 0.2505796 0.29595923 0.42326462
-0.26947516 0.15788788 0.2046166 -0.14774668 0.16732657 -0.1438567 0.30913067 -0.1387273
-0.18639785 0.12587452 0.17734683 -0.24428582 0.04419917 0.28976786 -0.04974836 0.15216696
-0.12059349 0.17524981 -0.3621971 -0.2940144 -0.25379527 0.45950544 -0.13454205 -0.0013651848
-0.24224776 0.49914503 0.48833507 -0.37709332 -0.40533495 -0.3789965 -0.0024113655 -0.12745196
-0.32727283 -0.17933607 0.094465435 -0.26124537 0.110791266 -0.11465794 -0.24228168 0.068692744
0.41112912 -0.33803964 0.023217201 -0.18438387 0.49065316 -0.47438163 -0.4793306 0.49269247
-0.31634498 0.09586167 -0.043153048 -0.1053285 -0.11167389 0.3177203 0.023898482 -0.4868073
-0.29518008 -0.17045015 0.2516082 -0.32356685 0.4714598 -0.11136466 -0.08978099 0.391779
0.25130385 0.42406017 0.28922218 -0.15167695 -0.3317362 -0.037201524 0.41381878 -0.1678099
-0.46368498 0.20496422 0.4867357 -0.14234161 -0.41401178 -0.45352983 0.12529969 -0.037859857
-0.25249362 0.10106593 0.18987942 0.39765948 0.3881911 -0.07484186 -0.44088358 -0.45181155
0.4668448 0.22102761 0.21795368 -0.4326105 0.46300787 0.47367156 0.45143014 -0.4217925
-0.1886617 -0.3438819 0.4734828 -0.21484 -0.22827727 0.26195645 -0.23129618 -0.24626106
-0.043735743 -0.04805976 -0.38948923 0.41683406 -0.22056085 0.17735744 0.43489182 0.25215822
0.07078993 0.4254285 0.06721312 -0.23132831 0.47299975 0.118340254 -0.4878404 -0.14234579
-0.34058374 0.4383765 -0.08257294 -0.45576245 -0.031431675 0.31400645 0.12990022 0.15810221
0.046436608 0.18640935 -0.12182599 -0.1989001 -0.46735424 -0.37666845 0.21670127 -0.2960567

critic1.preprocess.model.model.0.bias f4 [64]
00000000: e0e8 923d 106d 233e a001 113d 40fa a5be
00000010: f0d1 f43e 26dd 94be 668f d23e 6ea6 cbbe
00000020: 5852 f6bd 8a41 8b3e 7c31 51be 0e0d d73e
00000030: 062b b0be 44fb d6be e0de 66be b087 a53d
00000040: a8b6 eb3e e46d 74be 0c1b 373e ac5c 00be
00000050: 2811 debd d83c bc3e 7a65 c6be 6086 593d
00000060: a8be f03e c8b5 8cbd a6c4 c63e 84ac 1dbe
00000070: 0012 ce3e f6a2 f7be 2895 93bd a8dc b3bd
00000080: 78ee 253e 24df 483e a68f c43e c88f 98bd
00000090: 606d a2bc ca4f af3e 9088 0abe 106b e03e
000000a0: aa72 aabe 209d 5dbd 0000 dcbc a075 643e
000000b0: 6605 af3e d04e a2bd 4e17 d4be 28b1 7d3e
000000c0: cc27 193e 88ab 4d3e 0aeb 9dbe aec2 a43e
000000d0: c078 f23e 30b5 313d cc1d efbe 9cb5 b33e
000000e0: c0cf bdbe 9863 eb3d 30ce 943d 7ca2 6fbe
000000f0: b046 323e 8af9 e4be c839 e93d 9c4a a2be
0.07173324 0.15959573 0.03540194 -0.32417488 0.4781642 -0.29074973 0.4112503 -0.39775413
-0.120274246 0.2719844 -0.20429033 0.42002147 -0.34407824 -0.41988575 -0.22545958 0.08082521
0.46037793 -0.23870045 0.17881411 -0.12535352 -0.10843116 0.3676517 -0.38749295 0.053106666
0.4702046 -0.068706095 0.38821906 -0.1539784 0.40248108 -0.48366517 -0.07206184 -0.08782321
0.1620425 0.19616371 0.38390845 -0.07449299 -0.019827545 0.34240562 -0.13528657 0.43831682
-0.33290607 -0.054104924 -0.026855469 0.22310495 0.34183806 -0.079251885 -0.4142403 0.24774611
0.14956588 0.20084965 -0.30843383 0.3217978 0.4735775 0.043385684 -0.4670242 0.35099494
-0.37072563 0.114936054 0.0726589 -0.23401827 0.17409778 -0.44721633 0.11387974 -0.31697547

critic1.last.model.0.weight f4 [1, 64]
00000000: aaca f1bd 149b 93bd 00a2 4f3d 70a8 2dbd
00000010: dab2 b03d d260 ca3d 10f6 943c f0f1 21bc
00000020: d085 22bd 201e cfbb b063 ba3c be8b c3bd
00000030: 48bb f4bc e8f0 d4bd 0a1f 9d3d b407 a3bd
00000040: 02de e93d d8fb 03bd f4a7 92bd f4fd 753d
00000050: 30a8 983c cc44 b13d 98be 553d 6a9d f6bd
00000060: e4ea a13d 58d5 c0bc 084a 62bd e492 a23d
00000070: 64b5 ba3d 9a01 e1bd e02f 39bc 983a d23d
00000080: 744a 463d 12ac d73d 3476 2fbd 7038 8dbd
00000090: 0a23 dc3d d069 553d 6ac1 f53d 54dc 55bd
000000a0: 7e5e a4bd 500d 70bc 620b f1bd f8b0 483d
000000b0: 98d2 bc3d 78d1 f53c 405b 4abc 54da 7d3d
000000c0: 107f a2bd 246e fa3d 4e8d febd e63b f5bd
000000d0: 10f9 f1bc b81c d13d c00e 4d3c a4a1 443d
000000e0: 56a6 bbbd 18b8 3a3d c0d9 64bc c038 4d3d
000000f0: 50cc b43d 688e 5e3d 2036 2ebc 604f fcbb
-0.11806233 -0.07207313 0.050691605 -0.042396963 0.08627863 0.09881748 0.018183738 -0.009884343
-0.039678395 -0.00632073 0.022752613 -0.09548138 -0.029874459 -0.10397512 0.07671936 -0.07960454
0.11419298 -0.0322226 -0.07160941 0.06005664 0.018634886 0.086557 0.052183717 -0.12041743
0.0790613 -0.02353923 -0.055246383 0.079381734 0.09116629 -0.109866336 -0.011302918 0.10265082
0.048410848 0.10530867 -0.042837337 -0.0689553 0.10748871 0.052102864 0.119997814 -0.052212074
-0.080258355 -0.014651611 -0.11769749 0.048996896 0.09219855 0.030007109 -0.012350857 0.061975792
-0.079343915 0.12228039 -0.124292955 -0.11974315 -0.029537708 0.10210556 0.012515724 0.048005715
-0.091625854 0.04558572 -0.013967931 0.05010295 0.08828032 0.054335028 -0.010633022 -0.007699892

critic1_target.preprocess.model.model.0.weight f4 [64, 4]
00000000: caea ff3e 18c7 843e 5824 9f3e 2c32 33be
00000010: f4ab 753e 2054 6b3d 888c f4bd 4a4f 90be
00000020: 56a5 8fbe b2fc c4be 4edc ab3e 96ff b53e
00000030: a016 69bd c424 94be 22dd c53e 8cb5 a33e
00000040: 703c 183d b8bb 71be b846 eb3e ac60 513e
00000050: 5a57 c2be 6203 f53e 5266 c23e 8c9e 3abe
00000060: 5ce9 8f3e d674 91be b879 a0bd b25e d93e
00000070: 403e a93c 400c b5be 9420 2bbe dcfa 0abe
00000080: 208f c5bd b0fe 433d a2c1 ec3e 204d db3c
00000090: 8c10 9ebe 00f0 d13c 587f 753e fcf8 7d3e
000000a0: e0f7 e9be b03c b7bd b83e bebe 8876 5abe
000000b0: 6078 383e 18cb b5be fc52 3e3e 8649 d93e
000000c0: 3053 063d f09e aabe 2071 37be d89a df3d
000000d0: 4627 c3be ec5d 7e3e 246a e8be 5217 f6be
000000e0: c0be f8be 68bb cfbd 9024 ac3e 724c f2be
000000f0: aec8 d43e cccf 4cbe e8f4 153e 20ca ba3c
00000100: 10d7 e6be e84e d43e 6ed7 893e 8076 fe3e
00000110: 9655 813e 48fa a8be 48a7 d53e 2023 dc3c
00000120: 80cc 723e ac44 cdbe c843 13be 545c fbbe
00000130: 906b 47be a0e8 dc3d 5c00 c9be 1035 233e
00000140: 2c6c 893e 18a7 8e3d 0c49 abbe 5a7b c6be
00000150: e4f5 1dbe 20bf 603e 7a84 fc3e 1a35 933e
00000160: b09f 66bd 0084 333e f026 fbbe 62a6 dabe
00000170: 3ce7 6e3e 9600 91be 2c52 763e f8b7 b4be
00000180: 6499 7dbe 48dd d2be 5a97 853e 60ae 50bd
00000190: 9404 c53e 686e 9e3e dca7 8d3e 20b6 833c
000001a0: 944c 1ebe 68a6 debd 1817 883d a4cd 7d3e
000001b0: dc59 b3be eada d63e e0ad 5ebd 9a83 d6be
000001c0: c482 8abe 6a83 e23e 741e ea3e aa20 edbe
000001d0: 6e8e b43e f84b 803e f887 973e 24b6 d83e
000001e0: a6f8 89be 5cad 213e 0487 513e e84a 17be
000001f0: a857 2b3e 2c4f 13be 6046 9e3e 880e 0ebe
00000200: 14df 3ebe 40e5 003e 689a 353e 1026 7abe
00000210: 300a 353d 745c 943e f0c4 4bbd a8d1 1b3e
00000220: b8f9 f6bd b074 333e e671 b9be 0e89 96be
00000230: 74f1 81be 4c44 eb3e 64c5 09be 00f0 b2ba
00000240: cc0f 78be f08f ff3e 0e07 fa3e 6012 c1be
00000250: 1088 cfbe d40b c2be 0008 1ebb c482 02be
00000260: 4e90 a7be e0a3 37be 1877 c13d f4c1 85be
00000270: 88e6 e23d c8d1 eabd b018 78be c8ae 8c3d
00000280: 847f d23e 8813 adbe 0032 be3c 20cf 3cbe
00000290: e436 fb3e 26e2 f2be d26a f5be 3042 fc3e
000002a0: f8f7 a1be 2053 c43d 40c1 30bd 78b6 d7bd
000002b0: 48b5 e4bd 3cac a23e c0c6 c33c ce3e f9be
000002c0: d821 97be 7c8a 2ebe cad2 803e 8eaa a5be
000002d0: 2e63 f13e 2813 e4bd 18df b7bd 4297 c83e
000002e0: e6aa 803e 6a1e d93e ee14 943e 3451 1bbe
000002f0: 54d9 a9be a060 18bd 0ee0 d33e 5cd6 2bbe
00000300: 1e68 edbe 24e2 513e 6c35 f93e 00c2 11be
00000310: 5af9 d3be 1035 e8be 904e 003e f012 1bbd
00000320: d846 81be a8fb ce3d c06f 423e 069a cb3e
00000330: fcc0 c63e b046 99bd 7ebb e1be d853 e7be
00000340: 4806 ef3e 1055 623e 402f 5f3e 207f ddbe
00000350: 5e0f ed3e 1485 f23e da21 e73e 30f5 d7be
00000360: 8830 41be 4a11 b0be 566c f23e 04ff 5bbe
00000370: 84c1 69be 281f 863e e8d8 6cbe dc2b 7cbe
00000380: 4024 33bd 50da 44bd 226b c7be 466b d53e
00000390: b4da 61be 309d 353e 24aa de3e e21a 813e
000003a0: 50fa 903d c4d1 d93e 08a7 893d 54e1 6cbe
000003b0: 062d f23e 605c f23d 38c6 f9be 18c3 11be
000003c0: fe60 aebe e272 e03e 001c a9bd b259 e9be
000003d0: 80be 00bd 74c5 a03e 9004 053e 8ce5 213e
000003e0: 5034 3e3d 18e2 3e3e e87f f9bd 78ac 4bbe
000003f0: 0e49 efbe b0da c0be f0e6 5d3e be94 97be
0.49983817 0.25933146 0.31082416 -0.17499608 0.23991376 0.057453275 -0.11940867 -0.28185493
-0.2805583 -0.3847404 0.33566517 0.3554656 -0.056906343 -0.289343 0.38645273 0.31974447
0.037167013 -0.23606765 0.45952392 0.20447034 -0.3795727 0.47854143 0.3796869 -0.18224543
0.28107727 -0.2840945 -0.07835716 0.4245506 0.020659566 -0.35360909 -0.16711646 -0.13572258
-0.096464396 0.04785031 0.4624148 0.026770175 -0.30872 0.025627136 0.23974359 0.24802011
-0.45696926 -0.08947122 -0.37157226 -0.21334279 0.1801467 -0.3550651 0.18586344 0.42438906
0.032794178 -0.33324385 -0.17914248 0.10918206 -0.381159 0.24840516 -0.4539348 -0.48064667
-0.4858303 -0.10143167 0.33621645 -0.47323948 0.41559356 -0.20001143 0.14644206 0.022801459
-0.45085955 0.4146645 0.26922172 0.49699783 0.2526061 -0.3300345 0.41729188 0.026872218
0.23710823 -0.40091455 -0.14381325 -0.49093878 -0.19474626 0.10786557 -0.39258087 0.1593821
0.2684034 0.06965464 -0.33454168 -0.38765985 -0.15425831 0.21947908 0.49319822 0.2875145
-0.056304634 0.17530823 -0.49053144 -0.42705065 0.23330396 -0.2832076 0.24054784 -0.35296607
-0.24765545 -0.4118445 0.26092035 -0.050947547 0.38480055 0.30943608 0.2766713 0.016078055
-0.154589 -0.10871583 0.0664503 0.24785477 -0.35029495 0.41963893 -0.05436504 -0.4189728
-0.2705289 0.44240886 0.4572636 -0.46313983 0.35264915 0.2505796 0.29595923 0.42326462
-0.26947516 0.15788788 0.2046166 -0.14774668 0.16732657 -0.1438567 0.30913067 -0.1387273
-0.18639785 0.12587452 0.17734683 -0.24428582 0.04419917 0.28976786 -0.04974836 0.15216696
-0.12059349 0.17524981 -0.3621971 -0.2940144 -0.25379527 0.45950544 -0.13454205 -0.0013651848
-0.24224776 0.49914503 0.48833507 -0.37709332 -0.40533495 -0.3789965 -0.0024113655 -0.12745196
-0.32727283 -0.17933607 0.094465435 -0.26124537 0.110791266 -0.11465794 -0.24228168 0.068692744
0.41112912 -0.33803964 0.023217201 -0.18438387 0.49065316 -0.47438163 -0.4793306 0.49269247
-0.31634498 0.09586167 -0.043153048 -0.1053285 -0.11167389 0.3177203 0.023898482 -0.4868073
-0.29518008 -0.17045015 0.2516082 -0.32356685 0.4714598 -0.11136466 -0.08978099 0.391779
0.25130385 0.42406017 0.28922218 -0.15167695 -0.3317362 -0.037201524 0.41381878 -0.1678099
-0.46368498 0.20496422 0.4867357 -0.14234161 -0.41401178 -0.45352983 0.12529969 -0.037859857
-0.25249362 0.10106593 0.18987942 0.39765948 0.3881911 -0.07484186 -0.44088358 -0.45181155
0.4668448 0.22102761 0.21795368 -0.4326105 0.46300787 0.47367156 0.45143014 -0.4217925
-0.1886617 -0.3438819 0.4734828 -0.21484 -0.22827727 0.26195645 -0.23129618 -0.24626106
-0.043735743 -0.04805976 -0.38948923 0.41683406 -0.22056085 0.17735744 0.43489182 0.25215822
0.07078993 0.4254285 0.06721312 -0.23132831 0.47299975 0.118340254 -0.4878404 -0.14234579
-0.34058374 0.4383765 -0.08257294 -0.45576245 -0.031431675 0.31400645 0.12990022 0.15810221
0.046436608 0.18640935 -0.12182599 -0.1989001 -0.46735424 -0.37666845 0.21670127 -0.2960567

critic1_target.preprocess.model.model.0.bias f4 [64]
00000000: e0e8 923d 106d 233e a001 113d 40fa a5be
00000010: f0d1 f43e 26dd 94be 668f d23e 6ea6 cbbe
00000020: 5852 f6bd 8a41 8b3e 7c31 51be 0e0d d73e
00000030: 062b b0be 44fb d6be e0de 66be b087 a53d
00000040: a8b6 eb3e e46d 74be 0c1b 373e ac5c 00be
00000050: 2811 debd d83c bc3e 7a65 c6be 6086 593d
00000060: a8be f03e c8b5 8cbd a6c4 c63e 84ac 1dbe
00000070: 0012 ce3e f6a2 f7be 2895 93bd a8dc b3bd
00000080: 78ee 253e 24df 483e a68f c43e c88f 98bd
00000090: 606d a2bc ca4f af3e 9088 0abe 106b e03e
000000a0: aa72 aabe 209d 5dbd 0000 dcbc a075 643e
000000b0: 6605 af3e d04e a2bd 4e17 d4be 28b1 7d3e
000000c0: cc27 193e 88ab 4d3e 0aeb 9dbe aec2 a43e
000000d0: c078 f23e 30b5 313d cc1d efbe 9cb5 b33e
000000e0: c0cf bdbe 9863 eb3d 30ce 943d 7ca2 6fbe
000000f0: b046 323e 8af9 e4be c839 e93d 9c4a a2be
0.07173324 0.15959573 0.03540194 -0.32417488 0.4781642 -0.29074973 0.4112503 -0.39775413
-0.120274246 0.2719844 -0.20429033 0.42002147 -0.34407824 -0.41988575 -0.22545958 0.08082521
0.46037793 -0.23870045 0.17881411 -0.12535352 -0.10843116 0.3676517 -0.38749295 0.053106666
0.4702046 -0.068706095 0.38821906 -0.1539784 0.40248108 -0.48366517 -0.07206184 -0.08782321
0.1620425 0.19616371 0.38390845 -0.07449299 -0.019827545 0.34240562 -0.13528657 0.43831682
-0.33290607 -0.054104924 -0.026855469 0.22310495 0.34183806 -0.079251885 -0.4142403 0.24774611
0.14956588 0.20084965 -0.30843383 0.3217978 0.4735775 0.043385684 -0.4670242 0.35099494
-0.37072563 0.114936054 0.0726589 -0.23401827 0.17409778 -0.44721633 0.11387974 -0.31697547

critic1_target.last.model.0.weight f4 [1, 64]
00000000: aaca f1bd 149b 93bd 00a2 4f3d 70a8 2dbd
00000010: dab2 b03d d260 ca3d 10f6 943c f0f1 21bc
00000020: d085 22bd 201e cfbb b063 ba3c be8b c3bd
00000030: 48bb f4bc e8f0 d4bd 0a1f 9d3d b407 a3bd
00000040: 02de e93d d8fb 03bd f4a7 92bd f4fd 753d
00000050: 30a8 983c cc44 b13d 98be 553d 6a9d f6bd
00000060: e4ea a13d 58d5 c0bc 084a 62bd e492 a23d
00000070: 64b5 ba3d 9a01 e1bd e02f 39bc 983a d23d
00000080: 744a 463d 12ac d73d 3476 2fbd 7038 8dbd
00000090: 0a23 dc3d d069 553d 6ac1 f53d 54dc 55bd
000000a0: 7e5e a4bd 500d 70bc 620b f1bd f8b0 483d
000000b0: 98d2 bc3d 78d1 f53c 405b 4abc 54da 7d3d
000000c0: 107f a2bd 246e fa3d 4e8d febd e63b f5bd
000000d0: 10f9 f1bc b81c d13d c00e 4d3c a4a1 443d
000000e0: 56a6 bbbd 18b8 3a3d c0d9 64bc c038 4d3d
000000f0: 50cc b43d 688e 5e3d 2036 2ebc 604f fcbb
-0.11806233 -0.07207313 0.050691605 -0.042396963 0.08627863 0.09881748 0.018183738 -0.009884343
-0.039678395 -0.00632073 0.022752613 -0.09548138 -0.029874459 -0.10397512 0.07671936 -0.07960454
0.11419298 -0.0322226 -0.07160941 0.06005664 0.018634886 0.086557 0.052183717 -0.12041743
0.0790613 -0.02353923 -0.055246383 0.079381734 0.09116629 -0.109866336 -0.011302918 0.10265082
0.048410848 0.10530867 -0.042837337 -0.0689553 0.10748871 0.052102864 0.119997814 -0.052212074
-0.080258355 -0.014651611 -0.11769749 0.048996896 0.09219855 0.030007109 -0.012350857 0.061975792
-0.079343915 0.12228039 -0.124292955 -0.11974315 -0.029537708 0.10210556 0.012515724 0.048005715
-0.091625854 0.04558572 -0.013967931 0.05010295 0.08828032 0.054335028 -0.010633022 -0.007699892

critic2.preprocess.model.model.0.weight f4 [64, 4]
00000000: 3075 5dbd 48b7 833d 0819 da3e 1c49 74be
00000010: ba00 a43e 2815 82bd bc29 73be baec debe
00000020: 7ce2 eabe 2803 fa3e 9862 ffbd 2097 cc3c
00000030: 3ccf 0a3e ee02 ae3e 487d da3e d29e cf3e
00000040: 84aa bdbe e00f a4bd 1e7c 97be 1c44 92be
00000050: 68e6 f23d 3c4b f03e 2615 cdbe aeee 9a3e
00000060: 3cba 84be e872 c7bd 9234 cb3e 3099 e7bd
00000070: 707b 3a3d ccf3 b2be ecea d93e 505f 84bd
00000080: 683c bbbe 3ceb 153e 3c05 b6be 4c23 cbbe
00000090: 6086 f93c ccf7 ca3e 48e3 10be 40fb 703e
000000a0: 7afc db3e 78cb a93e a249 86be 6080 60bd
000000b0: 601e 21be 00db cdbe 00a0 5839 969f c03e
000000c0: 1aaf d73e 7014 3f3d f092 e83d e8a7 5dbe
000000d0: 5a3d c13e 2c0c 55be c4d4 b1be 78b0 9d3d
000000e0: 5271 993e b4ce e6be 6a6a e73e ac2e 383e
000000f0: 5c5b b3be c893 dcbd b819 de3e 7e69 c4be
00000100: 5ca5 15be 08ed 273e 1c47 e0be b856 8c3e
00000110: 9c42 853e cac5 9e3e 4a36 a3be ecf9 fe3e
00000120: 38bf 97be 3e93 ff3e 46ae f5be 9c16 e4be
00000130: f83b 9d3e e00a 563d a04b ec3c 1cc3 8dbe
00000140: 7cc5 56be d0b3 15be 4062 f9be 20dd d43c
00000150: 801a b53d 00f0 ddb9 2057 253e e6e7 f23e
00000160: f421 083e d86d 3bbe 40b6 52be 4cca a3be
00000170: ca76 b1be 40ea a4bd 401c b5bd 04c5 633e
00000180: 00d9 5abe 8a15 cc3e 50a1 b3be 0044 ba3a
00000190: 9e1f e63e 0690 fe3e 884a 94be 7067 b63d
000001a0: 50ea 713d 540d 70be b4e4 30be 60ad 0a3e
000001b0: 7403 b2be a0f4 a83d 188e 5d3e 90c3 49be
000001c0: e6a4 d43e a0c7 06bd 084d 683e b884 fd3e
000001d0: 9080 1cbe cc1c 8b3e 6c72 12be 2894 95bd
000001e0: d889 adbd 0093 4bbb dc6a 41be 2003 f03d
000001f0: c056 9a3c 9a46 a23e 5843 cfbd b05f 4d3d
00000200: 8475 3ebe 5e63 d6be 8c30 4f3e 6807 833d
00000210: 340c 4dbe 181c 2dbe 20e6 053e 1028 b9bd
00000220: 324a a73e a002 e83c b466 413e 9413 5f3e
00000230: 5041 fbbd 4086 5d3e 32e9 bc3e c07d bc3c
00000240: b863 c83d a0d4 943c fe3e b13e fc29 58be
00000250: f614 88be 181b 5f3e e8cc debe 8056 033c
00000260: d876 6bbe f6f7 a83e 9458 eebe 9c38 9b3e
00000270: 7c46 fd3e 4032 cf3d 9073 08bd 5afe fb3e
00000280: eccd 5abe 101d 24bd 1435 60be b05a 8dbd
00000290: 188e de3d 50c4 883d 7068 c1bd 8ef5 ffbe
000002a0: 60bb d13c c0a9 72bc 180c 9a3d fa28 c43e
000002b0: 9cd5 f83e 5ce1 97be 6067 ffbc 1825 4dbe
000002c0: f8f0 ebbe de47 babe 8a45 f03e 7e43 953e
000002d0: bc82 893e 3045 8e3e fa62 cbbe 5014 573d
000002e0: 5043 ee3e b8de 8ebe 74bc e33e c492 063e
000002f0: 6e1b b43e a055 5bbe 840a 6c3e dcf0 e2be
00000300: f009 02bd 38c7 2a3e c48b 193e 0e39 d63e
00000310: 6a8f fb3e d6e5 e83e 5ce0 ab3e e0fb b33e
00000320: 6020 84bd 02ab c6be 7c11 3ebe f0ea 65bd
00000330: c656 8abe 18dc 823e d8b9 333e 7039 a53d
00000340: b05b f73d 40e2 e03e 887c 3a3e 1a7f e0be
00000350: 52d3 b9be f0a9 613e c88c 8b3d b8b2 793e
00000360: 1cac ffbe 2a41 ecbe 68fc 9c3e d2bf a33e
00000370: 249b e7be 0059 423e 68e5 c7be ecde c13e
00000380: 24a9 203e 2421 fd3e f869 fcbe f271 f6be
00000390: 0615 ad3e 6048 e33e 98d8 9c3e 4a32 aa3e
000003a0: 189f d7be da4b b93e a0b3 f1be 68c3 e43d
000003b0: 5cb0 a7be 345d 4bbe 8851 b53d e44e 49be
000003c0: 3005 a2bd 9ea4 f2be 2460 f1be 7454 463e
000003d0: f4b7 58be 6cbf 9bbe b006 4abe 2c4c d1be
000003e0: 7ea5 ccbe ee2e 993e 281c 823e 8066 883d
000003f0: acd7 8bbe c857 2a3e 8003 b83c ccf4 b6be
-0.054066837 0.064314425 0.42597222 -0.23856014 0.32031804 -0.063516915 -0.23746389 -0.43539983
-0.4587592 0.48830533 -0.12469977 0.024974406 0.13555616 0.3398661 0.42673707 0.40550858
-0.37044156 -0.080108404 -0.2958688 -0.28567588 0.11860353 0.469324 -0.40055197 0.30260223
-0.25923336 -0.097387135 0.39688545 -0.11308515 0.045527875 -0.34951627 0.42562044 -0.06463492
-0.36569524 0.14640516 -0.3555087 -0.39675367 0.030459583 0.3964218 -0.14149201 0.23533344
0.42966062 0.33163047 -0.26228052 -0.054809928 -0.15734243 -0.40206146 0.0002065897 0.37621754
0.4212578 0.04665035 0.11356151 -0.21646082 0.3774212 -0.20805424 -0.3473264 0.07699674
0.2996927 -0.45079577 0.45198375 0.17986554 -0.3503064 -0.107703745 0.43378997 -0.38361734
-0.14613861 0.16399014 -0.43804252 0.2740991 0.2602738 0.31010276 -0.31877357 0.4980005
-0.29638076 0.49917024 -0.47984523 -0.445485 0.30709815 0.052256465 0.028844655 -0.2768792
-0.20973772 -0.14619374 -0.4870777 0.025984347 0.08842945 -0.0004233122 0.16146517 0.4744255
0.13294202 -0.18303621 -0.20577335 -0.31990278 -0.3466094 -0.08052492 -0.08843279 0.22243124
-0.21371841 0.39860183 -0.3508401 0.0014210939 0.44945997 0.49719256 -0.28963113 0.08906448
0.05906135 -0.23442584 -0.17274743 0.135427 -0.3476826 0.082497835 0.21636236 -0.19703507
0.41532058 -0.03290522 0.22685635 0.4951532 -0.15283418 0.27170408 -0.14301461 -0.07303649
-0.08473557 -0.003106296 -0.1888842 0.11719346 0.018840194 0.3169449 -0.10120267 0.050140083
-0.18599516 -0.41872686 0.20233363 0.06397897 -0.20024186 -0.16905248 0.13076067 -0.090408444
0.32673794 0.028321564 0.18886834 0.21784812 -0.12268317 0.21633244 0.36896664 0.023009181
0.09784645 0.018167794 0.34618372 -0.21109766 -0.26578492 0.21787679 -0.43515706 0.008016229
-0.22994554 0.3300168 -0.46551955 0.30316627 0.49467838 0.10117006 -0.033313334 0.49217492
-0.21367615 -0.04006678 -0.21895248 -0.06902063 0.10866946 0.06678069 -0.09443748 -0.4999203
0.025602043 -0.014810979 0.07521838 0.38312513 0.4860047 -0.29664123 -0.031177223 -0.20033681
-0.46082282 -0.36382955 0.46928054 0.29153055 0.26857555 0.2778716 -0.3972395 0.052509606
0.4653573 -0.27904296 0.44479716 0.13141924 0.35177177 -0.21419382 0.23050886 -0.44324386
-0.03174776 0.16677558 0.14994723 0.41840404 0.49132854 0.4548785 0.3356961 0.35153103
-0.064514875 -0.38802344 -0.18561357 -0.056132257 -0.27019328 0.25558543 0.17551363 0.08067596
0.12078035 0.43922615 0.18211567 -0.4384697 -0.36294037 0.22037482 0.06813961 0.24384582
-0.49935997 -0.46143466 0.3066132 0.31982285 -0.4523555 0.18979263 -0.3904221 0.37865388
0.15689522 0.49439347 -0.49299598 -0.48133808 0.33805102 0.44391155 0.30633998 0.33241493
-0.42113566 0.36190683 -0.47207355 0.11170083 -0.3275174 -0.19859773 0.088534415 -0.19659
-0.07911146 -0.47391218 -0.47143662 0.19368154 -0.21163923 -0.3041948 -0.19729114 -0.40878427
-0.3997001 0.29918617 0.25412107 0.06660175 -0.27312982 0.16635048 0.022462606 -0.3573364

critic2.preprocess.model.model.0.bias f4 [64]
00000000: b85a dc3d 6819 e93e a0cd fbbe 7c90 febe
00000010: 3033 833d 12c6 c03e fcc5 9bbe a06b e13d
00000020: d8f6 b33e a4db 1d3e c89a dd3d f86a ff3e
00000030: eac6 a63e 38fb 8fbe a005 313d 88c8 823e
00000040: d2c4 e13e ecb3 febe 18a0 8a3e 60a6 14be
00000050: 3eae fabe 284d e33d b25e 8bbe 001d 913d
00000060: 0c35 a6be bea5 c0be 60c6 2dbd 74fe 2bbe
00000070: b2b9 953e 2093 303d b0d2 c73e 90e6 bf3d
00000080: b0a3 24be bc65 ad3e 80d3 df3c 4032 c03d
00000090: b8ab 24be 0032 eb3a 40e3 c4bd 901d 2ebd
000000a0: 2ca6 c7be 0085 49bb c87d d4be 404b dcbd
000000b0: 245d 943e 7a02 b2be a88e acbe 6809 fabd
000000c0: 4c5b 0cbe b059 ad3d 0000 aa3d 14d1 813e
000000d0: 7a5a b0be a087 10bd b62d 8f3e c66e dd3e
000000e0: 7064 15bd 7420 94be 4c2e 133e 44c9 913e
000000f0: 9cef 9fbe 1c8e 94be 984d 623e c07e 0fbd
0.10759491 0.45527196 -0.49180317 -0.49719608 0.064062476 0.37651116 -0.30424488 0.11006856
0.35149264 0.15415817 0.10820538 0.49886298 0.32573634 -0.28121352 0.043218255 0.25543618
0.44095474 -0.49746644 0.27075267 -0.14516592 -0.4896106 0.11098701 -0.27220684 0.070856094
-0.32462347 -0.3762645 -0.042425513 -0.16796285 0.29243237 0.04310906 0.3902793 0.09370148
-0.16078067 0.3386668 0.02732253 0.093845844 -0.1608113 0.0017943978 -0.09613657 -0.04250866
-0.38993967 -0.003074944 -0.41502213 -0.1075654 0.2897731 -0.34767514 -0.33702588 -0.12208825
-0.13706702 0.08464372 0.08300781 0.25354826 -0.34444028 -0.035285592 0.27964562 0.43248576
-0.036472738 -0.2893101 0.1437313 0.28473866 -0.31237495 -0.2901467 0.22099912 -0.035032988

critic2.last.model.0.weight f4 [1, 64]
00000000: 0431 39bd ca5b a63d 6c4f 4dbd 76fc 9e3d
00000010: 3c06 4bbd 087d eebc 0058 2e3b 20ec eabd
00000020: 0098 a3ba 006e 4ebc 20fc 37bc b0b3 ccbc
00000030: 18d3 c93d baec bc3d 8081 adbd 74d6 6d3d
00000040: 4ccd c8bd 32f0 d9bd 5882 1c3d 80c9 f03a
00000050: ecd9 6ebd b8e9 f6bd b436 46bd fc01 2b3d
00000060: 38f4 ecbd f6b1 f8bd e0ea 813c 686c b8bd
00000070: cc46 e0bd 3c44 45bd 68dd a4bc e8a0 e8bd
00000080: 34f0 aabd 7048 063c 9866 f1bd 80ed 8fbc
00000090: c64c a5bd 0078 b1bd 5c3b 493d 620a c5bd
000000a0: 6c01 c2bd f8fd 913d 1874 bf3c 7a24 e93d
000000b0: f4da 08bd c04d 77bd 0089 3dbc 00c9 253a
000000c0: a83c c33d 18ff febd b0d1 11bc fc7b 623d
000000d0: 90f9 8cbd 8415 82bd e06e 773d a04b f5bd
000000e0: 88a4 f23c 1631 c6bd e47e 7e3d eee3 dabd
000000f0: d863 9d3d 8456 f2bd 622f d7bd 0073 f13a
-0.04521276 0.08122976 -0.05012457 0.07762997 -0.049566492 -0.029112354 0.0026602745 -0.114708185
-0.0012481213 -0.012599468 -0.011229545 -0.024988025 0.09854716 0.092248395 -0.08471966 0.058065847
-0.09804782 -0.10641517 0.038210243 0.0018370599 -0.058313295 -0.12056297 -0.048392013 0.04174994
-0.115700185 -0.12143318 0.015859067 -0.09005052 -0.109510034 -0.048160776 -0.020125106 -0.113588154
-0.08346596 0.008195981 -0.11787146 -0.017569304 -0.08071284 -0.08665466 0.049128875 -0.09621121
-0.094729275 0.07128519 0.023370788 0.113839105 -0.033411935 -0.060376883 -0.011568308 0.0006324202
0.09533054 -0.12450999 -0.008900091 0.055294022 -0.06883538 -0.0635176 0.060408473 -0.11977315
0.02961947 -0.09677331 0.06213273 -0.106880054 0.07685059 -0.11832908 -0.105070844 0.0018421113
