test/offline/log/CartPole-v0/discrete_bcq/policy.pth (torch, 111651 bytes, 24 tensors)

model.preprocess.model.model.0.weight f4 [64, 4]
0.24152917 0.25995106 -0.2587173 -0.06665772 0.07828152 -0.39447725 0.23941249 -0.2057206
-0.19304782 -0.42002988 0.48953342 -0.08702755 -0.048744917 0.03241378 -0.3166107 -0.2809223
-0.45877802 0.1182006 -0.21838498 -0.33348936 -0.22348338 -0.02803731 -0.44717377 0.20673043
-0.37687427 -0.3283323 0.37678045 -0.3292231 0.33392483 0.35236597 0.46901977 -0.076208115
0.12527394 0.22698778 -0.2219553 0.22320682 0.4377005 -0.46938127 0.4849072 -0.02267313
0.10164946 -0.29082733 -0.4306981 0.22756237 0.4721483 -0.1787861 -0.13644773 -0.46953863
-0.4654042 -0.32129562 -0.21742302 0.31552827 -0.47489327 -0.1500771 -0.3872 -0.38650197
0.060345054 -0.49109995 -0.2787757 -0.2824179 0.3802775 -0.013807654 -0.22780108 0.036508143
-0.35786164 0.09040028 -0.31918913 0.040964663 0.10556728 0.32640672 0.283049 0.09861934
0.35595202 0.16917223 0.41435272 0.17543328 -0.36315757 -0.40590817 0.14422566 -0.21640486
-0.31405085 0.45136625 0.16004914 0.47043163 0.008236289 -0.36117333 -0.44441462 -0.18932945
-0.06941193 -0.2313726 0.17237443 0.32394564 -0.43459272 -0.14243275 0.28887832 -0.08766401
-0.32154173 -0.16962743 -0.2666278 0.08087188 -0.16676438 -0.19910407 -0.1822328 0.4091677
0.10931051 -0.4951138 0.039863408 -0.10673857 -0.44654518 -0.2004621 -0.05616796 -0.11481595
0.32751292 0.3811205 0.375607 -0.017539501 -0.088173985 0.10931367 0.3884043 0.18822438
-0.41854906 -0.21777141 0.110895395 0.104427755 0.46999365 0.036436856 -0.21619529 -0.015067637
0.031187594 -0.03818506 -0.14852393 0.485829 0.48274285 -0.45299995 0.47178525 -0.03126341
0.2214489 0.23503739 0.020936787 -0.27010238 0.07154626 0.2328189 0.34041327 0.044429004
0.41646743 -0.33659685 -0.13402665 -0.32232612 -0.2887991 -0.4997003 0.11467922 -0.41487533
-0.35802078 0.42926687 0.27820772 0.3791288 -0.31763244 -0.38546365 0.050097227 0.06139648
-0.09987992 0.1195699 0.2192092 -0.49225295 0.21257037 0.42039526 0.33076543 -0.32526708
-0.13899451 -0.16464555 0.17486686 -0.11260229 -0.20339882 -0.4123068 -0.14566207 -0.3962434
-0.16527444 0.028938293 -0.16836268 -0.13796908 -0.24112022 -0.27661312 -0.3869112 0.31129277
-0.29130626 -0.28724188 -0.25717622 -0.4173066 0.06430769 0.45198584 0.23807335 -0.094555914
-0.22198236 -0.21029305 0.24158138 0.24943191 0.4384507 0.036268234 0.29005653 -0.052185833
0.39585477 -0.4847415 -0.13013202 -0.09473753 -0.47176313 0.07359749 -0.35609567 0.49065876
0.35348004 -0.3012933 0.45148665 -0.33618367 -0.30542886 -0.15724546 0.03772992 0.10412276
-0.04142213 0.13703865 0.09843868 0.36978346 -0.28195095 0.0252043 -0.09105396 0.2926293
-0.23279703 -0.42047822 -0.021130562 0.08968556 -0.03646487 -0.33314252 -0.19459665 0.029076695
-0.14472604 0.16649562 -0.047697783 0.031763136 0.4209506 -0.079327226 -0.41066694 0.39877892
-0.11164051 -0.40206635 -0.2672608 0.1498875 0.19879442 0.45609254 0.36358058 0.46409905
0.38408613 0.30642605 -0.45305556 0.11156118 0.08235741 -0.31609738 0.3534531 0.30841088
00000000: 6c53 773e 4e18 853e 9876 84be d883 88bd
00000010: 1052 a03d ecf8 c9be 8c28 753e 6ca8 52be
00000020: 54ae 45be 280e d7be 20a4 fa3e 803b b2bd
00000030: c0a8 47bd 50c4 043d cc1a a2be 0cd5 8fbe
00000040: f4e4 eabe 2813 f23d 50a0 5fbe 1ebf aabe
00000050: d4d8 64be 80ae e5bc f6f3 e4be 24b1 533e
00000060: aaf5 c0be 2c1b a8be 5ee9 c03e ee8f a8be
00000070: 32f8 aa3e 5069 b43e 5c23 f03e 0013 9cbd
00000080: d047 003e 7c6f 683e 4048 63be 5490 643e
00000090: 481a e03e be52 f0be c245 f83e 00bd b9bc
000000a0: 982d d03d 52e7 94be 7684 dcbe 1c06 693e
000000b0: 6cbd f13e b413 37be f4b8 0bbe 5e67 f0be
000000c0: 7649 eebe dc80 a4be 24a4 5ebe ec8c a13e
000000d0: 3625 f3be d0ad 19be 143f c6be 96e3 c5be
000000e0: 602c 773d 7471 fbbe b0bb 8ebe 1499 90be
000000f0: bcb3 c23e 8039 62bc b044 69be 9089 153d
00000100: a439 b7be c823 b93d c26c a3be 90ca 273d
00000110: a833 d83d c81e a73e cceb 903e f0f8 c93d
00000120: 583f b63e 7c3b 2d3e 0a26 d43e c8a4 333e
00000130: caef b9be 32d3 cfbe e4af 133e 3c99 5dbe
00000140: 46cb a0be 7a19 e73e ece3 233e 6adc f03e
00000150: 80f1 063c b6eb b8be 508a e3be 94df 41be
00000160: d827 8ebd f0ec 6cbe ec82 303e 34dc a53e
00000170: f082 debe e4d9 11be dce7 933e 3089 b3bd
00000180: 1ea1 a4be d0b2 2dbe 7083 88be 28a0 a53d
00000190: 48c4 2abe f0e1 4bbe 3c9b 3abe 6e7e d13e
000001a0: 30de df3d 8e7f fdbe d047 233d c099 dabd
000001b0: 92a1 e4be f045 4dbe 6010 66bd a024 ebbd
000001c0: c6af a73e 3a22 c33e 904f c03e 00af 8fbc
000001d0: 9094 b4bd d8df df3d eedc c63e e4bd 403e
000001e0: 104c d6be 78ff 5ebe 201d e33d 38de d53d
000001f0: 02a3 f03e d03e 153d 4c62 5dbe 40de 76bc
00000200: 207d ff3c f067 1cbd a816 18be 94be f83e
00000210: 122a f73e 9cef e7be d68d f13e 100e 00bd
00000220: 80c3 623e a4ad 703e a083 ab3c dc4a 8abe
00000230: d886 923d 1468 6e3e a64a ae3e 30fb 353d
00000240: 383b d53e 6c56 acbe 483e 09be ee07 a5be
00000250: 7add 93be b8d8 ffbe f0dc ea3d 8a6a d4be
00000260: 804e b7be dec8 db3e 3e71 8e3e 2c1d c23e
00000270: b8a0 a2be 7e5b c5be c032 4d3d e07a 7b3d
00000280: d88d ccbd 10e1 f43d 6078 603e 9408 fcbe
00000290: 0cac 593e 0c3e d73e 165a a93e 6889 a6be
000002a0: 9454 0ebe d898 28be 4c10 333e 089c e6bd
000002b0: c847 50be e019 d3be 7028 15be 6ae0 cabe
000002c0: b43d 29be 0010 ed3c 4467 2cbe c447 0dbe
000002d0: 38e8 76be 3ca0 8dbe 3a19 c6be c461 9f3e
000002e0: 1826 95be 5e11 93be 9aac 83be 36a9 d5be
000002f0: c0b3 833d b06a e73e 80c9 733e 88a6 c1bd
00000300: 584f 63be 1057 57be 1c61 773e 146b 7f3e
00000310: 9c7c e03e 008e 143d 4a82 943e d0c0 55bd
00000320: 7aad ca3e 0a30 f8be 5441 05be c005 c2bd
00000330: f08a f1be 48ba 963d 2c52 b6be a037 fb3e
00000340: 56fb b43e 1e43 9abe 4229 e73e 4420 acbe
00000350: 2c61 9cbe f404 21be b08a 1a3d 503e d53d
00000360: 40aa 29bd dc53 0c3e 389a c93d 4254 bd3e
00000370: e05b 90be 4079 ce3c 807a babd 82d3 953e
00000380: 5862 6ebe ec48 d7be 001a adbc 10ad b73d
00000390: 305c 15bd a891 aabe 5844 47be 4032 ee3c
000003a0: 1033 14be d47d 2a3e c05e 43bd 101a 023d
000003b0: d686 d73e 5076 a2bd f042 d2be c02c cc3e
000003c0: c8a3 e4bd a4db cdbe 68d6 88be 1c7c 193e
000003d0: c490 4b3e f684 e93e 3c27 ba3e 649e ed3e
000003e0: f0a6 c43e e0e3 9c3e e6f6 e7be 307a e43d
000003f0: 00ab a83d 84d7 a1be cef7 b43e 08e8 9d3e

model.preprocess.model.model.0.bias f4 [64]
-0.15590525 0.48896825 0.2645381 0.07039392 -0.28084534 0.0326792 -0.37408775 -0.49958998
-0.17848635 0.20159775 0.20375758 -0.29249483 -0.2003864 0.2278871 -0.041213036 -0.22011203
-0.3470183 -0.4491065 0.1849817 -0.0029021502 0.21285522 0.48346943 -0.3966288 0.057418287
0.42500943 0.45582628 -0.33314478 0.4453079 0.3949015 -0.038143218 -0.16544122 0.23578227
0.040559232 -0.23608863 -0.45650542 0.10810411 0.43778604 0.32971185 0.45381284 0.48076355
-0.33807588 -0.4961081 -0.36440235 -0.29223168 0.20550591 -0.42908442 0.24284834 -0.30948436
0.049915373 -0.2908489 -0.022156537 0.13702947 -0.45190555 0.004378557 0.06150955 -0.09298301
-0.24033195 0.1871475 -0.277521 0.31361616 0.18447614 -0.2229262 0.4374951 -0.40378147
00000000: a0a5 1fbe 0c5a fa3e 8a71 873e b02a 903d
00000010: f6ca 8fbe a0da 053d 6e88 bfbe 42ca ffbe
00000020: 20c5 36be a46f 4e3e d4a5 503e e2c1 95be
00000030: 1832 4dbe 3c5b 693e 00cf 28bd 0c65 61be
00000040: 62ac b1be 4af1 e5be d86b 3d3e 0032 3ebb
00000050: b8f6 593e 4e89 f73e ee12 cbbe 702f 6b3d
00000060: d69a d93e 1062 e93e f491 aabe 66ff e33e
00000070: 8830 ca3e 103c 1cbd 6c69 29be e870 713e
00000080: 7021 263d 38c1 71be 14bb e9be b065 dd3d
00000090: 7e25 e03e fecf a83e 285a e83e a426 f63e
000000a0: 4818 adbe e201 febe f292 babe 649f 95be
000000b0: 2470 523e f4b0 dbbe 3cad 783e bc74 9ebe
000000c0: 1074 4c3d 26ea 94be a081 b5bc 7451 0c3e
000000d0: 2a60 e7be 007a 8f3b 70f1 7b3d e06d bebd
000000e0: 9419 76be 98a3 3f3e 3c17 8ebe 4c92 a03e
000000f0: 50e7 3c3e c446 64be 5cff df3e 72bc cebe

model.last.model.0.weight f4 [64, 64]
0.042007327 -0.05778064 0.031416282 0.06961988 -0.030502617 0.1027201 0.0037847608 0.1208138
0.082332075 0.10060085 0.018189728 0.10736425 -0.061869293 -0.1169492 0.10756174 0.11630899
0.1229728 0.11255719 -0.088627025 0.07583837 -0.052540213 -0.0810719 -0.06548506 -0.02248779
0.09691022 -0.08382259 -0.028681979 -0.016693324 0.114296734 0.020482704 0.026078299 -0.03032589
0.069887355 0.025018722 0.10991654 -0.03976798 -0.09157546 0.0479607 0.11485593 -0.08391288
0.0018086135 -0.005644843 0.037773505 -0.0657067 -0.030665696 0.021420017 -0.10110928 -0.015483499
-0.018922135 0.087900534 0.11210768 -0.025230646 0.00811407 0.06895627 0.10260221 0.11791201
-0.0765281 0.085437536 0.05875632 -0.10597251 0.10108207 0.041614294 -0.051487267 -0.09533569
0.09541054 -0.015052453 -0.016172871 -0.08117287 0.0032741725 -0.09314656 0.117696494 0.041094974
-0.021205366 -0.107674375 -0.026414871 0.11700529 -0.021995336 0.0777192 0.09457855 -0.047709793
0.003395021 0.06083648 0.086481586 -0.11047606 0.04002753 0.0846286 -0.06165713 0.04532166
0.07303153 -0.06893428 0.07702005 0.0020386279 -0.1223311 -0.074062854 0.03458458 0.07124075
-0.07797864 0.039904833 0.11733197 -0.04189405 0.05259116 -0.049979284 0.09660922 -0.044583783
0.07891096 -0.051025733 -0.03180462 0.06462285 -0.0869378 0.009434402 -0.058376476 -0.114834696
-0.09722328 -0.06287822 -0.077293694 0.07021737 0.11272709 0.015893742 0.014412209 -0.10894978
0.10048884 0.058192626 0.002257362 0.076178476 -0.05010146 -0.015281513 -0.11962259 -0.062351152
0.03886214 -0.07072811 0.052752003 0.022249714 -0.06284419 0.02931939 -0.096926406 0.11823532
0.06248966 0.10660164 0.11903997 0.12036009 0.04187958 -0.07888423 -0.113541186 -0.012477949
-0.07924086 -0.044208035 0.100037634 0.027587727 -0.059708342 -0.10826616 0.05381787 -0.10657665
0.038774 0.10614167 -0.10214786 0.07465489 -0.09347646 0.10380305 0.062116027 0.049666315
-0.10246098 0.09494814 -0.02374138 -0.029361948 -0.024777815 0.030152395 -0.036322445 0.08056952
0.09979588 -0.11143051 -0.0641682 0.03644298 0.118060455 -0.07343987 -0.12399596 0.0033450574
0.0346303 0.1201074 -0.053998664 0.03051126 -0.09247582 0.022209361 0.07237655 0.088476166
-0.034359917 0.05923873 -0.11742501 -0.07209304 -0.05393949 0.04308182 0.06277977 0.042485863
-0.121846855 0.11194754 -0.11542915 0.05209723 -0.05986151 -0.114278436 -0.019637123 -0.12010823
0.105673954 -0.03784366 -0.05895017 -0.08111644 -0.11711784 -0.06838058 0.11426894 -0.03404975
-0.07736693 -0.012853816 -0.049148858 0.09871496 0.11631057 0.01572764 -0.06334373 -0.10741404
0.03694229 -0.05945976 0.09699401 0.10671523 0.017530486 -0.019486949 -0.016041324 -0.1225629
0.05417742 0.07152346 0.07695195 0.0799925 0.07406619 0.08697541 -0.09008226 -0.06736499
-0.04577814 0.025209635 -0.11353898 -0.10671194 -0.11468813 -0.059795946 -0.10997072 0.029510215
0.04410021 -0.095320806 -0.058270603 0.030500248 0.012822315 0.041466087 0.12414403 0.015567869
0.021920413 -0.07148597 0.11831181 0.110741526 0.08008103 0.124154374 -0.06021464 0.016258642
00000000: e00f 2c3d 64ab 6cbd 5cae 003d de94 8e3d
00000010: a0e0 f9bc ea5e d23d c009 783b 3a6d f73d
00000020: b89d a83d d207 ce3d a002 953c cae1 db3d
00000030: a86a 7dbd 1083 efbd 5449 dc3d 6833 ee3d
00000040: 2ad9 fb3d 6284 e63d 1682 b5bd 2651 9b3d
00000050: 6834 57bd 0609 a6bd 081d 86bd 5038 b8bc
00000060: de78 c63d 2eab abbd 78f6 eabc 70c0 88bc
00000070: 6814 ea3d 58cb a73c 28a2 d53c 006e f8bc
00000080: 1a21 8f3d 10f4 cc3c ec1b e13d c0e3 22bd
00000090: ea8b bbbd 7072 443d 9639 eb3d 84da abbd
000000a0: 000f ed3a 60f8 b8bb 64b8 1a3d 3c91 86bd
000000b0: a036 fbbc 0879 af3c 6212 cfbd 80ae 7dbc
000000c0: 9802 9bbc 3205 b43d b698 e53d 80b0 cebc
000000d0: e0f0 043c f238 8d3d 1c21 d23d da7b f13d
000000e0: c4ba 9cbd e0f9 ae3d 78aa 703d 1e08 d9bd
000000f0: 1e04 cf3d c073 2a3d 50e4 52bd 5c3f c3bd
00000100: 9a66 c33d 909e 76bc f87c 84bc f63d a6bd
00000110: 8093 563b a0c3 bebd dc0a f13d 3453 283d
00000120: e0b6 adbc 6284 dcbd 0064 d8bc 78a0 ef3d
00000130: 902f b4bc 3e2b 9f3d 66b2 c13d 586b 43bd
00000140: 007f 5e3b ac2f 793d 421d b13d 4641 e2bd
00000150: e8f3 233d c251 ad3d 308c 7cbd 34a3 393d
00000160: 8e91 953d 6a2d 8dbd b0bc 9d3d 809a 053b
00000170: ba88 fabd 44ae 97bd 90a8 0d3d ace6 913d
00000180: 44b3 9fbd 4073 233d be4b f03d 1899 2bbd
00000190: d469 573d 14b7 4cbd 0edb c53d 7c9d 36bd
000001a0: 129c a13d 5c00 51bd 9045 02bd fc58 843d
000001b0: 720c b2bd c092 1a3c 2c1c 6fbd 742e ebbd
000001c0: 001d c7bd 4cc6 80bd 284c 9ebd 20ce 8f3d
000001d0: 76dd e63d 9833 823c 3021 6c3c 1021 dfbd
000001e0: 18cd cd3d 645b 6e3d 40f0 133b 7603 9c3d
000001f0: 3037 4dbd 505f 7abc b0fc f4bd ec63 7fbd
00000200: e82d 1f3d e6d9 90bd 7c12 583d 0845 b63c
00000210: 74b4 80bd 382f f03c 5a81 c6bd 5c25 f23d
00000220: 28f5 7f3d f651 da3d 3acb f33d 5a7f f63d
00000230: ec89 2b3d 0e8e a1bd 4888 e8bd 5070 4cbc
00000240: 0849 a2bd 7c13 35bd 88e0 cc3d a8ff e13c
00000250: bc90 74bd a6ba ddbd 2070 5c3d dc44 dabd
00000260: 7cd1 1e3d ce60 d93d e632 d1bd aae4 983d
00000270: 9670 bfbd b296 d43d 606d 7e3d e86e 4b3d
00000280: 10d7 d1bd 2c74 c23d 487d c2bc 7888 f0bc
00000290: d8fa cabc 2802 f73c d8c6 14bd a201 a53d
000002a0: c861 cc3d ae35 e4bd 9e6a 83bd 3c45 153d
000002b0: aec9 f13d a467 96bd 98f1 fdbd c038 5b3b
000002c0: 80d8 0d3d defa f53d b42d 5dbd c0f2 f93c
000002d0: f663 bdbd 68f0 b53c 283a 943d fe32 b53d
000002e0: fcbc 0cbd 50a4 723d 867c f0bd 84a5 93bd
000002f0: a8ef 5cbd 9076 303d ae92 803d a805 2e3d
00000300: d88a f9bd c044 e53d 1e66 ecbd e863 553d
00000310: 5831 75bd d00a eabd 08de a0bc 4efb f5bd
00000320: 966b d83d f401 1bbd bc75 71bd 6020 a6bd
00000330: 7adb efbd 1e0b 8cbd d605 ea3d c077 0bbd
00000340: 8e72 9ebd d098 52bc 5050 49bd 122b ca3d
00000350: 3c34 ee3d 40d7 803c 5cba 81bd e4fb dbbd
00000360: cc50 173d 148c 73bd cca4 c63d 848d da3d
00000370: 189c 8f3c 18a3 9fbc 1869 83bc 4202 fbbd
00000380: 24e9 5d3d e47a 923d fc98 9d3d 1cd3 a33d
00000390: 04b0 973d 2a20 b23d 0c7d b8bd a8f6 89bd
000003a0: dc81 3bbd 7084 ce3c 2087 e8bd ca8b dabd
000003b0: 9ce1 eabd 98ec 74bd 5438 e1bd 68bf f13c
000003c0: 6ca2 343d 8e37 c3bd 28ad 6ebd a8db f93c
000003d0: b014 523c 58d8 293d 3a3f fe3d 6010 7f3c
000003e0: 7092 b33c 3c67 92bd 764d f23d 74cc e23d
000003f0: 8601 a43d a644 fe3d a0a3 76bd d830 853c

model.last.model.0.bias f4 [64]
0.036303923 -0.01622057 0.10388163 -0.09327212 -0.079794064 -0.041591585 0.08078128 0.07781789
0.12439528 0.0471638 0.069836885 -0.00057433546 0.0074902624 0.007364854 -0.015938818 -0.04563935
-0.022370055 0.022110015 -0.05166246 -0.020878866 0.0481617 -0.09880817 -0.11796732 0.050210983
0.033991158 0.0011859238 0.02538371 0.0877358 -0.09832172 0.06016095 -0.035828173 0.10475458
-0.030910745 -0.06505141 -0.0819456 -0.002891183 0.026138693 -0.044263184 -0.0049435794 -0.12271899
0.04883954 -0.047220185 0.097399145 0.0915478 0.038581297 -0.09420991 0.054724813 -0.062076777
0.03463939 0.08596906 0.10777892 -0.017939255 -0.073642895 0.10387297 -0.05227855 0.052191302
-0.06789254 0.056243792 0.06034273 0.101065606 0.015590817 0.043931007 0.106225 0.0076883435
00000000: 6cb3 143d 00e1 84bc e4bf d43d 7405 bfbd
00000010: 126b a3bd f05b 2abd a870 a53d fc5e 9f3d
00000020: f4c2 fe3d d42e 413d a406 8f3d 008f 16ba
00000030: e070 f53b e054 f13b 2092 82bc 54f0 3abd
00000040: 6841 b7bc 1020 b53c 049c 53bd 280a abbc
00000050: 3445 453d f05b cabd da98 f1bd 08aa 4d3d
00000060: 503a 0b3d 0071 9b3a 80f1 cf3c d4ae b33d
00000070: e65c c9bd 546b 763d 90c0 12bd 9289 d63d
00000080: 8838 fdbc ac39 85bd 18d3 a7bd 007a 3dbb
00000090: d020 d63c 504d 35bd c0fd a1bb 1854 fbbd
000000a0: f80b 483d f469 41bd 3479 c73d 6a7d bb3d
000000b0: 6c07 1e3d 20f1 c0bd 2027 603d 3844 7ebd
000000c0: 08e2 0d3d 8c10 b03d 32bb dc3d 58f5 92bc
000000d0: 16d2 96bd 5abb d43d 0822 56bd 8cc6 553d
000000e0: 3e0b 8bbd e45f 663d f029 773d 7cfb ce3d
000000f0: a070 7f3c 00f1 333d 7e8c d93d 80ee fb3b

model.last.model.2.weight f4 [64, 64]
-0.039747104 0.01506874 -0.07473381 0.035767794 -0.07503663 -0.11828412 -0.07862115 -0.09348719
-0.09720196 -0.08321084 -0.028182417 -0.060454354 -0.06787905 -0.106010646 -0.07315117 -0.04186727
0.10818981 0.066630945 0.07285336 0.043327004 0.07160251 -0.11230859 -0.113831714 -0.0063321292
0.0006119311 0.060038537 0.028912798 -0.06679064 0.004153475 -0.05121176 0.12312327 -0.121212095
0.08910836 0.02500327 -0.07232344 -0.026484624 0.071845636 0.015564397 0.06263955 0.0109543055
-0.05331108 0.00085526705 0.087169036 0.060752496 0.12263268 0.06631011 -0.06479581 -0.10946792
-0.109809905 0.108603284 0.11565134 -0.0999137 -0.07506667 0.02138929 0.0024911761 -0.12113628
-0.051202565 0.028298065 -0.055416718 -0.1216235 0.10967027 -0.09642044 -0.11783084 -0.024405956
0.037808433 -0.084265396 -0.012973711 -0.02701576 -0.014610425 0.12319745 -0.12343317 -0.005860701
-0.11266644 0.0010661483 0.027006388 0.089177385 0.0168491 -0.006916657 -0.034404412 0.0117146075
0.024572149 -0.06605208 -0.004546866 0.036339313 -0.11306335 -0.035175502 -0.068418354 -0.108814254
-0.010497764 0.003928408 0.11369702 0.034418926 -0.04888843 0.0038186312 -0.03325142 0.004135594
-0.09722017 0.04203394 0.057673678 0.057177976 0.03681895 0.020275742 -0.06394456 -0.102767706
-0.11461532 -0.036531433 0.06859635 0.099993005 0.03736162 0.08742908 -0.10492134 0.12035523
-0.09911147 0.061098486 0.034003034 -0.11026096 0.017922178 0.1130117 -0.10421716 0.081759945
0.012424946 -0.022869661 0.016220614 -0.12054147 0.026121333 0.032093883 -0.08868058 0.098922
-0.09818062 -0.0038587302 0.09700729 0.03132172 -0.06655142 0.07894033 -0.004628554 -0.009448722
0.033527866 -0.115851104 0.092518196 0.12434173 -0.092274874 -0.102724925 -0.0054413825 -0.07311906
-0.019184902 -0.09433515 -0.00993295 -0.0343512 0.054482326 0.017438099 -0.027072415 -0.028831348
0.0393423 -0.01656884 -0.04340194 0.09390569 -0.05374895 -0.058348373 0.017892256 -0.04350178
-0.053181008 -0.050212577 0.051488906 -0.0047970116 0.109862745 -0.094164535 0.070892304 -0.018170401
-0.036824673 -0.015326053 -0.086136445 0.116993934 0.058670208 0.012025535 -0.049943134 0.03832656
0.020053044 -0.0034344196 0.06352396 -0.019115388 -0.09391335 0.0753739 -0.09125471 0.009509474
-0.10783124 -0.10587168 0.030762598 -0.042315066 -0.027756765 -0.010431275 -0.0056956112 -0.10681048
-0.09401652 -0.0127813965 0.06919584 -0.09534149 -0.12014529 -0.11293617 0.03460127 0.0025277436
-0.03870231 -0.0046599805 0.09821887 -0.027596518 -0.09778619 -0.023183897 -0.087541655 0.016661182
-0.121642455 -0.029026479 0.0033454746 0.08067015 0.06927274 0.09337288 0.020310774 0.013979048
-0.037275463 0.12079795 -0.081439 0.02117905 -0.007982865 -0.013264656 0.10737181 -0.090954974
0.05012779 0.114185944 0.09774031 0.079857066 -0.06327003 -0.050152957 -0.10159597 0.00045138597
-0.03111729 0.055012047 -0.0591076 0.014671668 -0.11172296 -0.09520313 0.04151033 0.097504675
0.0024730116 -0.01989612 -0.047164857 -0.095286116 -0.057398185 0.104028195 0.00031532347 -0.09748697
-0.028023303 0.07922685 0.08716898 -0.024232626 -0.08574058 0.0023540705 -0.000688985 0.06626667
00000000: dccd 22bd e0e2 763c 0a0e 99bd 4081 123d
00000010: ceac 99bd f23e f2bd 2004 a1bd 3676 bfbd
00000020: d211 c7bd 726a aabd d0de e6bc fc9e 77bd
00000030: 2c04 8bbd 1c1c d9bd 48d0 95bd 047d 2bbd
00000040: 9e92 dd3d ce75 883d 2434 953d a877 313d
00000050: 56a4 923d 0c02 e6bd 9a20 e9bd c07d cfbb
00000060: 006a 203a f8ea 753d 88da ec3c 88c9 88bd
00000070: e019 883b 6cc3 51bd 0e28 fc3d 0c3e f8bd
00000080: 727e b63d a8d3 cc3c 501e 94bd 48f6 d8bc
00000090: ce23 933d d001 7f3c 2a49 803d b079 333c
000000a0: b85c 5abd 0034 603a ae85 b23d 9cd7 783d
000000b0: d826 fb3d 98cd 873d aab3 84bd b830 e0bd
000000c0: 04e4 e0bd 666b de3d 9cda ec3d 8e9f ccbd
000000d0: 8ebc 99bd 9838 af3c 0043 233b 4c16 f8bd
000000e0: c8b9 51bd 58d1 e73c a4fc 62bd be15 f9bd
000000f0: ce9a e03d 1478 c5bd 4c51 f1bd 00ef c7bc
00000100: 04dd 1a3d 5693 acbd b08f 54bc 2850 ddbc
00000110: 9060 6fbc f24e fc3d 88ca fcbd 200b c0bb
00000120: aabd e6bd 00be 8b3a 803c dd3c a2a2 b63d
00000130: 2007 8a3c 20a5 e2bb a4eb 0cbd a0ee 3f3c
00000140: 884b c93c 5046 87bd e0fd 94bb 88d8 143d
00000150: c28d e7bd 3014 10bd ec1e 8cbd 02da debd
00000160: d0fe 2bbc e0b9 803b fcd9 e83d dcfa 0c3d
00000170: 3c3f 48bd 0042 7a3b a432 08bd e083 873b
00000180: 5e1b c7bd c82b 2c3d 3c3b 6c3d 7433 6a3d
00000190: 78cf 163d 5019 a63c 5ef5 82bd e077 d2bd
000001a0: 70bb eabd fca1 15bd 3e7c 8c3d 22c9 cc3d
000001b0: 8008 193d 040e b33d 00e1 d6bd ce7c f63d
000001c0: f4fa cabd 6842 7a3d c446 0b3d 80d0 e1bd
000001d0: 88d1 923c ae72 e73d ce6f d5bd c271 a73d
000001e0: 0092 4b3c 2859 bbbc 18e1 843c 72de f6bd
000001f0: 68fc d53c e074 033d 2a9e b5bd 9e97 ca3d
00000200: ec12 c9bd c0e2 7cbb c2ab c63d 344b 003d
00000210: 1c4c 88bd 78ab a13d 20ab 97bb d0ce 1abc
00000220: 8454 093d 5843 edbd 2e7a bd3d e0a6 fe3d
00000230: 9cfa bcbd 7261 d2bd a04d b2bb 72bf 95bd
00000240: a829 9dbc ca32 c1bd d0bd 22bc d8b3 0cbd
00000250: dc28 5f3d 58da 8e3c f8c6 ddbc b82f ecbc
00000260: 6425 213d 60bb 87bc 3cc6 31bd a051 c03d
00000270: dc27 5cbd b4fe 6ebd c892 923c ec2e 32bd
00000280: 54d4 59bd b4ab 4dbd 08e6 523d 4030 9dbb
00000290: b8ff e03d 56d9 c0bd fc2f 913d 18da 94bc
000002a0: 78d5 16bd 201a 7bbc 4e68 b0bd 849a ef3d
000002b0: 2c50 703d c006 453c 2c91 4cbd 50fc 1c3d
000002c0: 4846 a43c 0014 61bb da18 823d e097 9cbc
000002d0: a455 c0bd a25d 9a3d c0e3 babd a0cd 1b3c
000002e0: a0d6 dcbd 40d3 d8bd d801 fc3c 9052 2dbd
000002f0: 2862 e3bc f0e7 2abc 40a2 babb 74bf dabd
00000300: bc8b c0bd 1069 51bc 8cb6 8d3d 6642 c3bd
00000310: bc0e f6bd 144b e7bd 10ba 0d3d 80a8 253b
00000320: 5086 1ebd c0b2 98bb fa26 c93d 1812 e2bc
00000330: 2044 c8bd 28ec bdbc 0a49 b3bd 087d 883c
00000340: ae1f f9bd f0c8 edbc c03f 5b3b 6436 a53d
00000350: dede 8d3d 483a bf3d c862 a63c 6008 653c
00000360: 28ae 18bd ea64 f73d 7ec9 a6bd b07f ad3c
00000370: 90ca 02bc 0054 59bc c0e5 db3d 9a46 babd
00000380: cc52 4d3d 52da e93d 122c c83d 1a8c a33d
00000390: b893 81bd 306d 4dbd 8c11 d0bd 00a8 ec39
000003a0: b0e9 febc 5054 613d d01a 72bd 7061 703c
000003b0: 02cf e4bd dcf9 c2bd bc06 2a3d 88b0 c73d
000003c0: 4012 223b 30fd a2bc f02f 41bd 5e25 c3bd
000003d0: 5c1a 6bbd bc0c d53d 0052 a539 40a7 c7bd
000003e0: 2091 e5bc b041 a23d a685 b23d 8083 c6bc
000003f0: c298 afbd c046 1a3b 009d 34ba d2b6 873d

model.last.model.2.bias f4 [64]
-0.004532054 0.061614275 -0.1093142 -0.07858534 -0.0040076226 0.06879419 0.097004846 -0.03532836
0.00039049983 -0.0331935 -0.012484789 0.03704509 0.08166762 -0.038762018 0.0035561323 0.10781485
-0.059416503 -0.12057835 -0.045643672 0.060630605 0.08647573 0.044272497 -0.11660661 0.1093595
-0.12141314 0.09558599 -0.11305122 -0.048146814 0.0786452 0.009000331 -0.12057766 -0.086338416
-0.08988027 0.008110568 0.060124144 -0.044425845 -0.0974924 -0.07744253 -0.04712461 -0.055729672
-0.07553917 0.025398329 0.111849695 0.028764188 -0.093067154 0.05326186 -0.007345468 0.0992693
-0.12031253 0.0066892505 -0.060616493 0.05325654 -0.093426555 -0.063767076 -0.00628002 0.0047587305
-0.04745768 0.11062728 0.028151065 0.04929477 0.05505939 -0.055091932 -0.107011795 0.007914841
00000000: a081 94bb 405f 7c3d 20e0 dfbd 5af1 a0bd
00000010: 6052 83bb f8e3 8c3d 7aaa c63d 78b4 10bd
00000020: 00bc cc39 e8f5 07bd 008d 4cbc 98bc 173d
00000030: 5a41 a73d ecc4 1ebd 000e 693b 08ce dc3d
00000040: b85e 73bd c8f1 f6bd dcf4 3abd cc57 783d
00000050: 301a b13d 1457 353d 72cf eebd e0f7 df3d
00000060: 74a7 f8bd 96c2 c33d 6687 e7bd 9835 45bd
00000070: bc10 a13d 2076 133c 6cf1 f6bd 32d2 b0bd
00000080: 2613 b8bd 30e2 043c bc44 763d e0f7 35bd
00000090: 18aa c7bd 309a 9ebd bc05 41bd cc44 64bd
000000a0: 48b4 9abd 2810 d03c 7411 e53d e0a2 eb3c
000000b0: fe99 bebd 1c29 5a3d 40b2 f0bb b44d cb3d
000000c0: 6a66 f6bd 8031 db3b 0049 78bd 8823 5a3d
000000d0: 6c56 bfbd 5098 82bd a0c8 cdbb 20ef 9b3b
000000e0: fc62 42bd 8e90 e23d 109d e63c 50e9 493d
000000f0: f485 613d 14a8 61bd 0029 dbbd 40ad 013c

model.last.model.4.weight f4 [2, 64]
0.0622541 -0.11730768 -0.00261648 -0.06789066 0.11349511 0.12042718 -0.053491786 -0.030813366
0.010214299 -0.0066871047 0.074320644 0.124572635 0.006811917 -0.10606627 0.11083861 0.12040883
-0.12339631 -0.109934166 -0.0060626864 -0.12089315 0.044296935 -0.025745347 -0.0740882 0.10566215
-0.061084703 0.0020463616 0.0648783 -0.009477824 -0.015663594 0.0824482 0.037813082 -0.076822594
0.003496468 -0.035792053 -0.11882259 0.021664739 0.034270525 0.06881276 -0.10339759 0.0438312
0.037215218 0.11413714 0.10840216 -0.119359374 -0.0076758415 0.0053904504 -0.0022827536 -0.03906849
0.10082823 0.033997104 0.08970587 -0.09572838 -0.057300463 0.034351036 0.05254063 0.0911151
0.019071817 0.07018097 -0.059338793 0.07775985 0.028860196 -0.08525133 -0.06499468 0.02859576
-0.083807945 -0.051718175 -0.043415293 -0.058220044 -0.0043216795 0.021029845 0.090970054 0.066745535
0.009494975 -0.024588913 -0.05145535 -0.092894524 -0.0027775615 -0.02113764 0.050322488 -0.05262567
-0.01263012 0.08950862 0.081317574 0.10674979 -0.032046095 -0.0039750487 -0.061203495 -0.0040676743
-0.037159994 -0.08296208 -0.024801686 -0.11767021 -0.010448173 0.015965804 -0.049653634 0.032880127
0.099167064 -0.09092957 -0.093011975 -0.11699578 0.11751878 -0.11553852 -0.026666239 -0.06204042
0.010977209 0.022929326 0.07822642 0.11523031 -0.09338896 -0.12357737 -0.09528345 -0.11544305
0.094373435 0.111432284 0.012009174 -0.05249417 -0.11773063 -0.07319018 0.036199108 -0.075012
0.08612242 -0.10582434 -0.09524034 0.094717756 -0.0441432 0.093924 -0.05873038 0.0330953
00000000: 28fe 7e3d 023f f0bd 4079 2bbb 420a 8bbd
00000010: 2070 e83d 86a2 f63d 341a 5bbd 506c fcbc
00000020: e059 273c 801f dbbb 6c35 983d f01f ff3d
00000030: 8036 df3b 4639 d9bd 5aff e23d e898 f63d
00000040: 34b7 fcbd 2a25 e1bd 80a9 c6bb d496 f7bd
00000050: b470 353d e8e7 d2bc 8ebb 97bd 6665 d83d
00000060: f433 7abd 401c 063b eade 843d e048 1bbc
00000070: f050 80bc 9ada a83d e4e1 1a3d 2a55 9dbd
00000080: 0025 653b b09a 12bd 4259 f3bd 407a b13c
00000090: 405f 0c3d b4ed 8c3d 1ec2 d3bd 5888 333d
000000a0: fc6e 183d bcc0 e93d f401 de3d b072 f4bd
000000b0: a085 fbbb 60a2 b03b 409a 15bb 4806 20bd
000000c0: 087f ce3d 8c40 0b3d b6b7 b73d 3e0d c4bd
000000d0: e4b3 6abd acb3 0c3d d834 573d 8e9a ba3d
000000e0: 803c 9c3c 0abb 8f3d 3c0d 73bd 8e40 9f3d
000000f0: 386c ec3c 4098 aebd ee1b 85bd a841 ea3c
00000100: 80a3 abbd 70d6 53bd 3cd4 31bd 2478 6ebd
00000110: e09c 8dbb c846 ac3c 824e ba3d e2b1 883d
00000120: d090 1b3c b06e c9bc d8c2 52bd 7c3f bebd
00000130: c007 36bb d828 adbc f41e 4e3d 048e 57bd
00000140: 90ee 4ebc 4c50 b73d d489 a63d a29f da3d
00000150: c442 03bd 2041 82bb 84b0 7abd 204a 85bb
00000160: 1435 18bd 06e8 a9bd e82c cbbc 14fd f0bd
00000170: d02e 2bbc b8ca 823c 9c61 4bbd 50ad 063d
00000180: 1a18 cb3d 4839 babd 107d bebd 7c9b efbd
00000190: b0ad f03d 769f ecbd 2873 dabc 181e 7ebd
000001a0: c0d9 333c 48d6 bb3c 2c35 a03d defd eb3d
000001b0: b642 bfbd 2216 fdbd f823 c3bd 686d ecbd
000001c0: dc46 c13d 9c36 e43d 20c2 443c 2004 57bd
000001d0: c21c f1bd bce4 95bd 8445 143d e49f 99bd
000001e0: f460 b03d 6eba d8bd 5e0d c3bd 62fb c13d
000001f0: 80cf 34bd 3a5b c03d 448f 70bd f08e 073d

model.last.model.4.bias f4 [2]
-0.07370554 0.06866944
00000000: eef2 96bd 90a2 8c3d

model_old.preprocess.model.model.0.weight f4 [64, 4]
0.24152917 0.25995106 -0.2587173 -0.06665772 0.07828152 -0.39447725 0.23941249 -0.2057206
-0.19304782 -0.42002988 0.48953342 -0.08702755 -0.048744917 0.03241378 -0.3166107 -0.2809223
-0.45877802 0.1182006 -0.21838498 -0.33348936 -0.22348338 -0.02803731 -0.44717377 0.20673043
-0.37687427 -0.3283323 0.37678045 -0.3292231 0.33392483 0.35236597 0.46901977 -0.076208115
0.12527394 0.22698778 -0.2219553 0.22320682 0.4377005 -0.46938127 0.4849072 -0.02267313
0.10164946 -0.29082733 -0.4306981 0.22756237 0.4721483 -0.1787861 -0.13644773 -0.46953863
-0.4654042 -0.32129562 -0.21742302 0.31552827 -0.47489327 -0.1500771 -0.3872 -0.38650197
0.060345054 -0.49109995 -0.2787757 -0.2824179 0.3802775 -0.013807654 -0.22780108 0.036508143
-0.35786164 0.09040028 -0.31918913 0.040964663 0.10556728 0.32640672 0.283049 0.09861934
0.35595202 0.16917223 0.41435272 0.17543328 -0.36315757 -0.40590817 0.14422566 -0.21640486
-0.31405085 0.45136625 0.16004914 0.47043163 0.008236289 -0.36117333 -0.44441462 -0.18932945
-0.06941193 -0.2313726 0.17237443 0.32394564 -0.43459272 -0.14243275 0.28887832 -0.08766401
-0.32154173 -0.16962743 -0.2666278 0.08087188 -0.16676438 -0.19910407 -0.1822328 0.4091677
0.10931051 -0.4951138 0.039863408 -0.10673857 -0.44654518 -0.2004621 -0.05616796 -0.11481595
0.32751292 0.3811205 0.375607 -0.017539501 -0.088173985 0.10931367 0.3884043 0.18822438
-0.41854906 -0.21777141 0.110895395 0.104427755 0.46999365 0.036436856 -0.21619529 -0.015067637
0.031187594 -0.03818506 -0.14852393 0.485829 0.48274285 -0.45299995 0.47178525 -0.03126341
0.2214489 0.23503739 0.020936787 -0.27010238 0.07154626 0.2328189 0.34041327 0.044429004
0.41646743 -0.33659685 -0.13402665 -0.32232612 -0.2887991 -0.4997003 0.11467922 -0.41487533
-0.35802078 0.42926687 0.27820772 0.3791288 -0.31763244 -0.38546365 0.050097227 0.06139648
-0.09987992 0.1195699 0.2192092 -0.49225295 0.21257037 0.42039526 0.33076543 -0.32526708
-0.13899451 -0.16464555 0.17486686 -0.11260229 -0.20339882 -0.4123068 -0.14566207 -0.3962434
-0.16527444 0.028938293 -0.16836268 -0.13796908 -0.24112022 -0.27661312 -0.3869112 0.31129277
-0.29130626 -0.28724188 -0.25717622 -0.4173066 0.06430769 0.45198584 0.23807335 -0.094555914
-0.22198236 -0.21029305 0.24158138 0.24943191 0.4384507 0.036268234 0.29005653 -0.052185833
0.39585477 -0.4847415 -0.13013202 -0.09473753 -0.47176313 0.07359749 -0.35609567 0.49065876
0.35348004 -0.3012933 0.45148665 -0.33618367 -0.30542886 -0.15724546 0.03772992 0.10412276
-0.04142213 0.13703865 0.09843868 0.36978346 -0.28195095 0.0252043 -0.09105396 0.2926293
-0.23279703 -0.42047822 -0.021130562 0.08968556 -0.03646487 -0.33314252 -0.19459665 0.029076695
-0.14472604 0.16649562 -0.047697783 0.031763136 0.4209506 -0.079327226 -0.41066694 0.39877892
-0.11164051 -0.40206635 -0.2672608 0.1498875 0.19879442 0.45609254 0.36358058 0.46409905
0.38408613 0.30642605 -0.45305556 0.11156118 0.08235741 -0.31609738 0.3534531 0.30841088
00000000: 6c53 773e 4e18 853e 9876 84be d883 88bd
00000010: 1052 a03d ecf8 c9be 8c28 753e 6ca8 52be
00000020: 54ae 45be 280e d7be 20a4 fa3e 803b b2bd
00000030: c0a8 47bd 50c4 043d cc1a a2be 0cd5 8fbe
00000040: f4e4 eabe 2813 f23d 50a0 5fbe 1ebf aabe
00000050: d4d8 64be 80ae e5bc f6f3 e4be 24b1 533e
00000060: aaf5 c0be 2c1b a8be 5ee9 c03e ee8f a8be
00000070: 32f8 aa3e 5069 b43e 5c23 f03e 0013 9cbd
00000080: d047 003e 7c6f 683e 4048 63be 5490 643e
00000090: 481a e03e be52 f0be c245 f83e 00bd b9bc
000000a0: 982d d03d 52e7 94be 7684 dcbe 1c06 693e
000000b0: 6cbd f13e b413 37be f4b8 0bbe 5e67 f0be
000000c0: 7649 eebe dc80 a4be 24a4 5ebe ec8c a13e
000000d0: 3625 f3be d0ad 19be 143f c6be 96e3 c5be
000000e0: 602c 773d 7471 fbbe b0bb 8ebe 1499 90be
000000f0: bcb3 c23e 8039 62bc b044 69be 9089 153d
00000100: a439 b7be c823 b93d c26c a3be 90ca 273d
00000110: a833 d83d c81e a73e cceb 903e f0f8 c93d
00000120: 583f b63e 7c3b 2d3e 0a26 d43e c8a4 333e
00000130: caef b9be 32d3 cfbe e4af 133e 3c99 5dbe
00000140: 46cb a0be 7a19 e73e ece3 233e 6adc f03e
00000150: 80f1 063c b6eb b8be 508a e3be 94df 41be
00000160: d827 8ebd f0ec 6cbe ec82 303e 34dc a53e
00000170: f082 debe e4d9 11be dce7 933e 3089 b3bd
00000180: 1ea1 a4be d0b2 2dbe 7083 88be 28a0 a53d
00000190: 48c4 2abe f0e1 4bbe 3c9b 3abe 6e7e d13e
000001a0: 30de df3d 8e7f fdbe d047 233d c099 dabd
000001b0: 92a1 e4be f045 4dbe 6010 66bd a024 ebbd
000001c0: c6af a73e 3a22 c33e 904f c03e 00af 8fbc
000001d0: 9094 b4bd d8df df3d eedc c63e e4bd 403e
000001e0: 104c d6be 78ff 5ebe 201d e33d 38de d53d
000001f0: 02a3 f03e d03e 153d 4c62 5dbe 40de 76bc
00000200: 207d ff3c f067 1cbd a816 18be 94be f83e
00000210: 122a f73e 9cef e7be d68d f13e 100e 00bd
00000220: 80c3 623e a4ad 703e a083 ab3c dc4a 8abe
00000230: d886 923d 1468 6e3e a64a ae3e 30fb 353d
00000240: 383b d53e 6c56 acbe 483e 09be ee07 a5be
00000250: 7add 93be b8d8 ffbe f0dc ea3d 8a6a d4be
00000260: 804e b7be dec8 db3e 3e71 8e3e 2c1d c23e
00000270: b8a0 a2be 7e5b c5be c032 4d3d e07a 7b3d
00000280: d88d ccbd 10e1 f43d 6078 603e 9408 fcbe
00000290: 0cac 593e 0c3e d73e 165a a93e 6889 a6be
000002a0: 9454 0ebe d898 28be 4c10 333e 089c e6bd
000002b0: c847 50be e019 d3be 7028 15be 6ae0 cabe
000002c0: b43d 29be 0010 ed3c 4467 2cbe c447 0dbe
000002d0: 38e8 76be 3ca0 8dbe 3a19 c6be c461 9f3e
000002e0: 1826 95be 5e11 93be 9aac 83be 36a9 d5be
000002f0: c0b3 833d b06a e73e 80c9 733e 88a6 c1bd
00000300: 584f 63be 1057 57be 1c61 773e 146b 7f3e
00000310: 9c7c e03e 008e 143d 4a82 943e d0c0 55bd
00000320: 7aad ca3e 0a30 f8be 5441 05be c005 c2bd
00000330: f08a f1be 48ba 963d 2c52 b6be a037 fb3e
00000340: 56fb b43e 1e43 9abe 4229 e73e 4420 acbe
00000350: 2c61 9cbe f404 21be b08a 1a3d 503e d53d
00000360: 40aa 29bd dc53 0c3e 389a c93d 4254 bd3e
00000370: e05b 90be 4079 ce3c 807a babd 82d3 953e
00000380: 5862 6ebe ec48 d7be 001a adbc 10ad b73d
00000390: 305c 15bd a891 aabe 5844 47be 4032 ee3c
000003a0: 1033 14be d47d 2a3e c05e 43bd 101a 023d
000003b0: d686 d73e 5076 a2bd f042 d2be c02c cc3e
000003c0: c8a3 e4bd a4db cdbe 68d6 88be 1c7c 193e
000003d0: c490 4b3e f684 e93e 3c27 ba3e 649e ed3e
000003e0: f0a6 c43e e0e3 9c3e e6f6 e7be 307a e43d
000003f0: 00ab a83d 84d7 a1be cef7 b43e 08e8 9d3e

model_old.preprocess.model.model.0.bias f4 [64]
-0.15590525 0.48896825 0.2645381 0.07039392 -0.28084534 0.0326792 -0.37408775 -0.49958998
-0.17848635 0.20159775 0.20375758 -0.29249483 -0.2003864 0.2278871 -0.041213036 -0.22011203
-0.3470183 -0.4491065 0.1849817 -0.0029021502 0.21285522 0.48346943 -0.3966288 0.057418287
0.42500943 0.45582628 -0.33314478 0.4453079 0.3949015 -0.038143218 -0.16544122 0.23578227
0.040559232 -0.23608863 -0.45650542 0.10810411 0.43778604 0.32971185 0.45381284 0.48076355
-0.33807588 -0.4961081 -0.36440235 -0.29223168 0.20550591 -0.42908442 0.24284834 -0.30948436
0.049915373 -0.2908489 -0.022156537 0.13702947 -0.45190555 0.004378557 0.06150955 -0.09298301
-0.24033195 0.1871475 -0.277521 0.31361616 0.18447614 -0.2229262 0.4374951 -0.40378147
00000000: a0a5 1fbe 0c5a fa3e 8a71 873e b02a 903d
00000010: f6ca 8fbe a0da 053d 6e88 bfbe 42ca ffbe
00000020: 20c5 36be a46f 4e3e d4a5 503e e2c1 95be
00000030: 1832 4dbe 3c5b 693e 00cf 28bd 0c65 61be
00000040: 62ac b1be 4af1 e5be d86b 3d3e 0032 3ebb
00000050: b8f6 593e 4e89 f73e ee12 cbbe 702f 6b3d
00000060: d69a d93e 1062 e93e f491 aabe 66ff e33e
00000070: 8830 ca3e 103c 1cbd 6c69 29be e870 713e
00000080: 7021 263d 38c1 71be 14bb e9be b065 dd3d
00000090: 7e25 e03e fecf a83e 285a e83e a426 f63e
000000a0: 4818 adbe e201 febe f292 babe 649f 95be
000000b0: 2470 523e f4b0 dbbe 3cad 783e bc74 9ebe
000000c0: 1074 4c3d 26ea 94be a081 b5bc 7451 0c3e
000000d0: 2a60 e7be 007a 8f3b 70f1 7b3d e06d bebd
000000e0: 9419 76be 98a3 3f3e 3c17 8ebe 4c92 a03e
000000f0: 50e7 3c3e c446 64be 5cff df3e 72bc cebe

model_old.last.model.0.weight f4 [64, 64]
0.042007327 -0.05778064 0.031416282 0.06961988 -0.030502617 0.1027201 0.0037847608 0.1208138
0.082332075 0.10060085 0.018189728 0.10736425 -0.061869293 -0.1169492 0.10756174 0.11630899
0.1229728 0.11255719 -0.088627025 0.07583837 -0.052540213 -0.0810719 -0.06548506 -0.02248779
0.09691022 -0.08382259 -0.028681979 -0.016693324 0.114296734 0.020482704 0.026078299 -0.03032589
0.069887355 0.025018722 0.10991654 -0.03976798 -0.09157546 0.0479607 0.11485593 -0.08391288
0.0018086135 -0.005644843 0.037773505 -0.0657067 -0.030665696 0.021420017 -0.10110928 -0.015483499
-0.018922135 0.087900534 0.11210768 -0.025230646 0.00811407 0.06895627 0.10260221 0.11791201
-0.0765281 0.085437536 0.05875632 -0.10597251 0.10108207 0.041614294 -0.051487267 -0.09533569
0.09541054 -0.015052453 -0.016172871 -0.08117287 0.0032741725 -0.09314656 0.117696494 0.041094974
-0.021205366 -0.107674375 -0.026414871 0.11700529 -0.021995336 0.0777192 0.09457855 -0.047709793
0.003395021 0.06083648 0.086481586 -0.11047606 0.04002753 0.0846286 -0.06165713 0.04532166
0.07303153 -0.06893428 0.07702005 0.0020386279 -0.1223311 -0.074062854 0.03458458 0.07124075
-0.07797864 0.039904833 0.11733197 -0.04189405 0.05259116 -0.049979284 0.09660922 -0.044583783
0.07891096 -0.051025733 -0.03180462 0.06462285 -0.0869378 0.009434402 -0.058376476 -0.114834696
-0.09722328 -0.06287822 -0.077293694 0.07021737 0.11272709 0.015893742 0.014412209 -0.10894978
0.10048884 0.058192626 0.002257362 0.076178476 -0.05010146 -0.015281513 -0.11962259 -0.062351152
0.03886214 -0.07072811 0.052752003 0.022249714 -0.06284419 0.02931939 -0.096926406 0.11823532
0.06248966 0.10660164 0.11903997 0.12036009 0.04187958 -0.07888423 -0.113541186 -0.012477949
-0.07924086 -0.044208035 0.100037634 0.027587727 -0.059708342 -0.10826616 0.05381787 -0.10657665
0.038774 0.10614167 -0.10214786 0.07465489 -0.09347646 0.10380305 0.062116027 0.049666315
-0.10246098 0.09494814 -0.02374138 -0.029361948 -0.024777815 0.030152395 -0.036322445 0.08056952
0.09979588 -0.11143051 -0.0641682 0.03644298 0.118060455 -0.07343987 -0.12399596 0.0033450574
0.0346303 0.1201074 -0.053998664 0.03051126 -0.09247582 0.022209361 0.07237655 0.088476166
-0.034359917 0.05923873 -0.11742501 -0.07209304 -0.05393949 0.04308182 0.06277977 0.042485863
-0.121846855 0.11194754 -0.11542915 0.05209723 -0.05986151 -0.114278436 -0.019637123 -0.12010823
0.105673954 -0.03784366 -0.05895017 -0.08111644 -0.11711784 -0.06838058 0.11426894 -0.03404975
-0.07736693 -0.012853816 -0.049148858 0.09871496 0.11631057 0.01572764 -0.06334373 -0.10741404
0.03694229 -0.05945976 0.09699401 0.10671523 0.017530486 -0.019486949 -0.016041324 -0.1225629
0.05417742 0.07152346 0.07695195 0.0799925 0.07406619 0.08697541 -0.09008226 -0.06736499
-0.04577814 0.025209635 -0.11353898 -0.10671194 -0.11468813 -0.059795946 -0.10997072 0.029510215
0.04410021 -0.095320806 -0.058270603 0.030500248 0.012822315 0.041466087 0.12414403 0.015567869
0.021920413 -0.07148597 0.11831181 0.110741526 0.08008103 0.124154374 -0.06021464 0.016258642
00000000: e00f 2c3d 64ab 6cbd 5cae 003d de94 8e3d
00000010: a0e0 f9bc ea5e d23d c009 783b 3a6d f73d
00000020: b89d a83d d207 ce3d a002 953c cae1 db3d
00000030: a86a 7dbd 1083 efbd 5449 dc3d 6833 ee3d
00000040: 2ad9 fb3d 6284 e63d 1682 b5bd 2651 9b3d
00000050: 6834 57bd 0609 a6bd 081d 86bd 5038 b8bc
00000060: de78 c63d 2eab abbd 78f6 eabc 70c0 88bc
00000070: 6814 ea3d 58cb a73c 28a2 d53c 006e f8bc
00000080: 1a21 8f3d 10f4 cc3c ec1b e13d c0e3 22bd
00000090: ea8b bbbd 7072 443d 9639 eb3d 84da abbd
000000a0: 000f ed3a 60f8 b8bb 64b8 1a3d 3c91 86bd
000000b0: a036 fbbc 0879 af3c 6212 cfbd 80ae 7dbc
000000c0: 9802 9bbc 3205 b43d b698 e53d 80b0 cebc
000000d0: e0f0 043c f238 8d3d 1c21 d23d da7b f13d
000000e0: c4ba 9cbd e0f9 ae3d 78aa 703d 1e08 d9bd
000000f0: 1e04 cf3d c073 2a3d 50e4 52bd 5c3f c3bd
00000100: 9a66 c33d 909e 76bc f87c 84bc f63d a6bd
00000110: 8093 563b a0c3 bebd dc0a f13d 3453 283d
00000120: e0b6 adbc 6284 dcbd 0064 d8bc 78a0 ef3d
00000130: 902f b4bc 3e2b 9f3d 66b2 c13d 586b 43bd
00000140: 007f 5e3b ac2f 793d 421d b13d 4641 e2bd
00000150: e8f3 233d c251 ad3d 308c 7cbd 34a3 393d
00000160: 8e91 953d 6a2d 8dbd b0bc 9d3d 809a 053b
00000170: ba88 fabd 44ae 97bd 90a8 0d3d ace6 913d
00000180: 44b3 9fbd 4073 233d be4b f03d 1899 2bbd
00000190: d469 573d 14b7 4cbd 0edb c53d 7c9d 36bd
000001a0: 129c a13d 5c00 51bd 9045 02bd fc58 843d
000001b0: 720c b2bd c092 1a3c 2c1c 6fbd 742e ebbd
000001c0: 001d c7bd 4cc6 80bd 284c 9ebd 20ce 8f3d
000001d0: 76dd e63d 9833 823c 3021 6c3c 1021 dfbd
000001e0: 18cd cd3d 645b 6e3d 40f0 133b 7603 9c3d
000001f0: 3037 4dbd 505f 7abc b0fc f4bd ec63 7fbd
00000200: e82d 1f3d e6d9 90bd 7c12 583d 0845 b63c
00000210: 74b4 80bd 382f f03c 5a81 c6bd 5c25 f23d
00000220: 28f5 7f3d f651 da3d 3acb f33d 5a7f f63d
00000230: ec89 2b3d 0e8e a1bd 4888 e8bd 5070 4cbc
00000240: 0849 a2bd 7c13 35bd 88e0 cc3d a8ff e13c
00000250: bc90 74bd a6ba ddbd 2070 5c3d dc44 dabd
00000260: 7cd1 1e3d ce60 d93d e632 d1bd aae4 983d
00000270: 9670 bfbd b296 d43d 606d 7e3d e86e 4b3d
00000280: 10d7 d1bd 2c74 c23d 487d c2bc 7888 f0bc
00000290: d8fa cabc 2802 f73c d8c6 14bd a201 a53d
000002a0: c861 cc3d ae35 e4bd 9e6a 83bd 3c45 153d
000002b0: aec9 f13d a467 96bd 98f1 fdbd c038 5b3b
000002c0: 80d8 0d3d defa f53d b42d 5dbd c0f2 f93c
000002d0: f663 bdbd 68f0 b53c 283a 943d fe32 b53d
000002e0: fcbc 0cbd 50a4 723d 867c f0bd 84a5 93bd
000002f0: a8ef 5cbd 9076 303d ae92 803d a805 2e3d
00000300: d88a f9bd c044 e53d 1e66 ecbd e863 553d
00000310: 5831 75bd d00a eabd 08de a0bc 4efb f5bd
00000320: 966b d83d f401 1bbd bc75 71bd 6020 a6bd
00000330: 7adb efbd 1e0b 8cbd d605 ea3d c077 0bbd
00000340: 8e72 9ebd d098 52bc 5050 49bd 122b ca3d
00000350: 3c34 ee3d 40d7 803c 5cba 81bd e4fb dbbd
00000360: cc50 173d 148c 73bd cca4 c63d 848d da3d
00000370: 189c 8f3c 18a3 9fbc 1869 83bc 4202 fbbd
00000380: 24e9 5d3d e47a 923d fc98 9d3d 1cd3 a33d
00000390: 04b0 973d 2a20 b23d 0c7d b8bd a8f6 89bd
000003a0: dc81 3bbd 7084 ce3c 2087 e8bd ca8b dabd
000003b0: 9ce1 eabd 98ec 74bd 5438 e1bd 68bf f13c
000003c0: 6ca2 343d 8e37 c3bd 28ad 6ebd a8db f93c
000003d0: b014 523c 58d8 293d 3a3f fe3d 6010 7f3c
000003e0: 7092 b33c 3c67 92bd 764d f23d 74cc e23d
000003f0: 8601 a43d a644 fe3d a0a3 76bd d830 853c

model_old.last.model.0.bias f4 [64]
0.036303923 -0.01622057 0.10388163 -0.09327212 -0.079794064 -0.041591585 0.08078128 0.07781789
0.12439528 0.0471638 0.069836885 -0.00057433546 0.0074902624 0.007364854 -0.015938818 -0.04563935
-0.022370055 0.022110015 -0.05166246 -0.020878866 0.0481617 -0.09880817 -0.11796732 0.050210983
0.033991158 0.0011859238 0.02538371 0.0877358 -0.09832172 0.06016095 -0.035828173 0.10475458
-0.030910745 -0.06505141 -0.0819456 -0.002891183 0.026138693 -0.044263184 -0.0049435794 -0.12271899
0.04883954 -0.047220185 0.097399145 0.0915478 0.038581297 -0.09420991 0.054724813 -0.062076777
0.03463939 0.08596906 0.10777892 -0.017939255 -0.073642895 0.10387297 -0.05227855 0.052191302
-0.06789254 0.056243792 0.06034273 0.101065606 0.015590817 0.043931007 0.106225 0.0076883435
00000000: 6cb3 143d 00e1 84bc e4bf d43d 7405 bfbd
00000010: 126b a3bd f05b 2abd a870 a53d fc5e 9f3d
00000020: f4c2 fe3d d42e 413d a406 8f3d 008f 16ba
00000030: e070 f53b e054 f13b 2092 82bc 54f0 3abd
00000040: 6841 b7bc 1020 b53c 049c 53bd 280a abbc
00000050: 3445 453d f05b cabd da98 f1bd 08aa 4d3d
00000060: 503a 0b3d 0071 9b3a 80f1 cf3c d4ae b33d
00000070: e65c c9bd 546b 763d 90c0 12bd 9289 d63d
00000080: 8838 fdbc ac39 85bd 18d3 a7bd 007a 3dbb
00000090: d020 d63c 504d 35bd c0fd a1bb 1854 fbbd
000000a0: f80b 483d f469 41bd 3479 c73d 6a7d bb3d
000000b0: 6c07 1e3d 20f1 c0bd 2027 603d 3844 7ebd
000000c0: 08e2 0d3d 8c10 b03d 32bb dc3d 58f5 92bc
000000d0: 16d2 96bd 5abb d43d 0822 56bd 8cc6 553d
000000e0: 3e0b 8bbd e45f 663d f029 773d 7cfb ce3d
000000f0: a070 7f3c 00f1 333d 7e8c d93d 80ee fb3b

model_old.last.model.2.weight f4 [64, 64]
-0.039747104 0.01506874 -0.07473381 0.035767794 -0.07503663 -0.11828412 -0.07862115 -0.09348719
-0.09720196 -0.08321084 -0.028182417 -0.060454354 -0.06787905 -0.106010646 -0.07315117 -0.04186727
0.10818981 0.066630945 0.07285336 0.043327004 0.07160251 -0.11230859 -0.113831714 -0.0063321292
0.0006119311 0.060038537 0.028912798 -0.06679064 0.004153475 -0.05121176 0.12312327 -0.121212095
0.08910836 0.02500327 -0.07232344 -0.026484624 0.071845636 0.015564397 0.06263955 0.0109543055
-0.05331108 0.00085526705 0.087169036 0.060752496 0.12263268 0.06631011 -0.06479581 -0.10946792
-0.109809905 0.108603284 0.11565134 -0.0999137 -0.07506667 0.02138929 0.0024911761 -0.12113628
-0.051202565 0.028298065 -0.055416718 -0.1216235 0.10967027 -0.09642044 -0.11783084 -0.024405956
0.037808433 -0.084265396 -0.012973711 -0.02701576 -0.014610425 0.12319745 -0.12343317 -0.005860701
-0.11266644 0.0010661483 0.027006388 0.089177385 0.0168491 -0.006916657 -0.034404412 0.0117146075
0.024572149 -0.06605208 -0.004546866 0.036339313 -0.11306335 -0.035175502 -0.068418354 -0.108814254
-0.010497764 0.003928408 0.11369702 0.034418926 -0.04888843 0.0038186312 -0.03325142 0.004135594
-0.09722017 0.04203394 0.057673678 0.057177976 0.03681895 0.020275742 -0.06394456 -0.102767706
-0.11461532 -0.036531433 0.06859635 0.099993005 0.03736162 0.08742908 -0.10492134 0.12035523
-0.09911147 0.061098486 0.034003034 -0.11026096 0.017922178 0.1130117 -0.10421716 0.081759945
0.012424946 -0.022869661 0.016220614 -0.12054147 0.026121333 0.032093883 -0.08868058 0.098922
-0.09818062 -0.0038587302 0.09700729 0.03132172 -0.06655142 0.07894033 -0.004628554 -0.009448722
0.033527866 -0.115851104 0.092518196 0.12434173 -0.092274874 -0.102724925 -0.0054413825 -0.07311906
-0.019184902 -0.09433515 -0.00993295 -0.0343512 0.054482326 0.017438099 -0.027072415 -0.028831348
0.0393423 -0.01656884 -0.04340194 0.09390569 -0.05374895 -0.058348373 0.017892256 -0.04350178
-0.053181008 -0.050212577 0.051488906 -0.0047970116 0.109862745 -0.094164535 0.070892304 -0.018170401
-0.036824673 -0.015326053 -0.086136445 0.116993934 0.058670208 0.012025535 -0.049943134 0.03832656
0.020053044 -0.0034344196 0.06352396 -0.019115388 -0.09391335 0.0753739 -0.09125471 0.009509474
-0.10783124 -0.10587168 0.030762598 -0.042315066 -0.027756765 -0.010431275 -0.0056956112 -0.10681048
-0.09401652 -0.0127813965 0.06919584 -0.09534149 -0.12014529 -0.11293617 0.03460127 0.0025277436
-0.03870231 -0.0046599805 0.09821887 -0.027596518 -0.09778619 -0.023183897 -0.087541655 0.016661182
-0.121642455 -0.029026479 0.0033454746 0.08067015 0.06927274 0.09337288 0.020310774 0.013979048
-0.037275463 0.12079795 -0.081439 0.02117905 -0.007982865 -0.013264656 0.10737181 -0.090954974
0.05012779 0.114185944 0.09774031 0.079857066 -0.06327003 -0.050152957 -0.10159597 0.00045138597
-0.03111729 0.055012047 -0.0591076 0.014671668 -0.11172296 -0.09520313 0.04151033 0.097504675
0.0024730116 -0.01989612 -0.047164857 -0.095286116 -0.057398185 0.104028195 0.00031532347 -0.09748697
-0.028023303 0.07922685 0.08716898 -0.024232626 -0.08574058 0.0023540705 -0.000688985 0.06626667
00000000: dccd 22bd e0e2 763c 0a0e 99bd 4081 123d
00000010: ceac 99bd f23e f2bd 2004 a1bd 3676 bfbd
00000020: d211 c7bd 726a aabd d0de e6bc fc9e 77bd
00000030: 2c04 8bbd 1c1c d9bd 48d0 95bd 047d 2bbd
00000040: 9e92 dd3d ce75 883d 2434 953d a877 313d
00000050: 56a4 923d 0c02 e6bd 9a20 e9bd c07d cfbb
00000060: 006a 203a f8ea 753d 88da ec3c 88c9 88bd
00000070: e019 883b 6cc3 51bd 0e28 fc3d 0c3e f8bd
00000080: 727e b63d a8d3 cc3c 501e 94bd 48f6 d8bc
00000090: ce23 933d d001 7f3c 2a49 803d b079 333c
000000a0: b85c 5abd 0034 603a ae85 b23d 9cd7 783d
000000b0: d826 fb3d 98cd 873d aab3 84bd b830 e0bd
000000c0: 04e4 e0bd 666b de3d 9cda ec3d 8e9f ccbd
000000d0: 8ebc 99bd 9838 af3c 0043 233b 4c16 f8bd
000000e0: c8b9 51bd 58d1 e73c a4fc 62bd be15 f9bd
000000f0: ce9a e03d 1478 c5bd 4c51 f1bd 00ef c7bc
00000100: 04dd 1a3d 5693 acbd b08f 54bc 2850 ddbc
00000110: 9060 6fbc f24e fc3d 88ca fcbd 200b c0bb
00000120: aabd e6bd 00be 8b3a 803c dd3c a2a2 b63d
00000130: 2007 8a3c 20a5 e2bb a4eb 0cbd a0ee 3f3c
00000140: 884b c93c 5046 87bd e0fd 94bb 88d8 143d
00000150: c28d e7bd 3014 10bd ec1e 8cbd 02da debd
00000160: d0fe 2bbc e0b9 803b fcd9 e83d dcfa 0c3d
00000170: 3c3f 48bd 0042 7a3b a432 08bd e083 873b
00000180: 5e1b c7bd c82b 2c3d 3c3b 6c3d 7433 6a3d
00000190: 78cf 163d 5019 a63c 5ef5 82bd e077 d2bd
000001a0: 70bb eabd fca1 15bd 3e7c 8c3d 22c9 cc3d
000001b0: 8008 193d 040e b33d 00e1 d6bd ce7c f63d
000001c0: f4fa cabd 6842 7a3d c446 0b3d 80d0 e1bd
000001d0: 88d1 923c ae72 e73d ce6f d5bd c271 a73d
000001e0: 0092 4b3c 2859 bbbc 18e1 843c 72de f6bd
000001f0: 68fc d53c e074 033d 2a9e b5bd 9e97 ca3d
00000200: ec12 c9bd c0e2 7cbb c2ab c63d 344b 003d
00000210: 1c4c 88bd 78ab a13d 20ab 97bb d0ce 1abc
00000220: 8454 093d 5843 edbd 2e7a bd3d e0a6 fe3d
00000230: 9cfa bcbd 7261 d2bd a04d b2bb 72bf 95bd
00000240: a829 9dbc ca32 c1bd d0bd 22bc d8b3 0cbd
00000250: dc28 5f3d 58da 8e3c f8c6 ddbc b82f ecbc
00000260: 6425 213d 60bb 87bc 3cc6 31bd a051 c03d
00000270: dc27 5cbd b4fe 6ebd c892 923c ec2e 32bd
00000280: 54d4 59bd b4ab 4dbd 08e6 523d 4030 9dbb
00000290: b8ff e03d 56d9 c0bd fc2f 913d 18da 94bc
000002a0: 78d5 16bd 201a 7bbc 4e68 b0bd 849a ef3d
000002b0: 2c50 703d c006 453c 2c91 4cbd 50fc 1c3d
000002c0: 4846 a43c 0014 61bb da18 823d e097 9cbc
000002d0: a455 c0bd a25d 9a3d c0e3 babd a0cd 1b3c
000002e0: a0d6 dcbd 40d3 d8bd d801 fc3c 9052 2dbd
000002f0: 2862 e3bc f0e7 2abc 40a2 babb 74bf dabd
00000300: bc8b c0bd 1069 51bc 8cb6 8d3d 6642 c3bd
00000310: bc0e f6bd 144b e7bd 10ba 0d3d 80a8 253b
00000320: 5086 1ebd c0b2 98bb fa26 c93d 1812 e2bc
00000330: 2044 c8bd 28ec bdbc 0a49 b3bd 087d 883c
00000340: ae1f f9bd f0c8 edbc c03f 5b3b 6436 a53d
00000350: dede 8d3d 483a bf3d c862 a63c 6008 653c
00000360: 28ae 18bd ea64 f73d 7ec9 a6bd b07f ad3c
00000370: 90ca 02bc 0054 59bc c0e5 db3d 9a46 babd
00000380: cc52 4d3d 52da e93d 122c c83d 1a8c a33d
00000390: b893 81bd 306d 4dbd 8c11 d0bd 00a8 ec39
000003a0: b0e9 febc 5054 613d d01a 72bd 7061 703c
000003b0: 02cf e4bd dcf9 c2bd bc06 2a3d 88b0 c73d
000003c0: 4012 223b 30fd a2bc f02f 41bd 5e25 c3bd
000003d0: 5c1a 6bbd bc0c d53d 0052 a539 40a7 c7bd
000003e0: 2091 e5bc b041 a23d a685 b23d 8083 c6bc
000003f0: c298 afbd c046 1a3b 009d 34ba d2b6 873d

model_old.last.model.2.bias f4 [64]
-0.004532054 0.061614275 -0.1093142 -0.07858534 -0.0040076226 0.06879419 0.097004846 -0.03532836
0.00039049983 -0.0331935 -0.012484789 0.03704509 0.08166762 -0.038762018 0.0035561323 0.10781485
-0.059416503 -0.12057835 -0.045643672 0.060630605 0.08647573 0.044272497 -0.11660661 0.1093595
-0.12141314 0.09558599 -0.11305122 -0.048146814 0.0786452 0.009000331 -0.12057766 -0.086338416
-0.08988027 0.008110568 0.060124144 -0.044425845 -0.0974924 -0.07744253 -0.04712461 -0.055729672
-0.07553917 0.025398329 0.111849695 0.028764188 -0.093067154 0.05326186 -0.007345468 0.0992693
-0.12031253 0.0066892505 -0.060616493 0.05325654 -0.093426555 -0.063767076 -0.00628002 0.0047587305
-0.04745768 0.11062728 0.028151065 0.04929477 0.05505939 -0.055091932 -0.107011795 0.007914841
00000000: a081 94bb 405f 7c3d 20e0 dfbd 5af1 a0bd
00000010: 6052 83bb f8e3 8c3d 7aaa c63d 78b4 10bd
00000020: 00bc cc39 e8f5 07bd 008d 4cbc 98bc 173d
00000030: 5a41 a73d ecc4 1ebd 000e 693b 08ce dc3d
00000040: b85e 73bd c8f1 f6bd dcf4 3abd cc57 783d
00000050: 301a b13d 1457 353d 72cf eebd e0f7 df3d
00000060: 74a7 f8bd 96c2 c33d 6687 e7bd 9835 45bd
00000070: bc10 a13d 2076 133c 6cf1 f6bd 32d2 b0bd
00000080: 2613 b8bd 30e2 043c bc44 763d e0f7 35bd
00000090: 18aa c7bd 309a 9ebd bc05 41bd cc44 64bd
000000a0: 48b4 9abd 2810 d03c 7411 e53d e0a2 eb3c
000000b0: fe99 bebd 1c29 5a3d 40b2 f0bb b44d cb3d
000000c0: 6a66 f6bd 8031 db3b 0049 78bd 8823 5a3d
000000d0: 6c56 bfbd 5098 82bd a0c8 cdbb 20ef 9b3b
000000e0: fc62 42bd 8e90 e23d 109d e63c 50e9 493d
000000f0: f485 613d 14a8 61bd 0029 dbbd 40ad 013c
