log/CartPole-v0/a2c/policy.pth (torch, 111311 bytes, 22 tensors)

actor.preprocess.model.model.0.weight f4 [64, 40]
0	0xbe5a8b75	-0.21342261
1	0x3d01a00f	0.031646784
2	0xbe698e32	-0.2280815
3	0x3d9c75a5	0.076396264
4	0xbcfdeefc	-0.030997746
5	0xbe6dd7df	-0.2322688
6	0x3d8823cf	0.06647455
7	0x3c9bfc3e	0.019041177
8	0xbc8575dd	-0.016291553
9	0xbe438f46	-0.19097623
10	0x3df69e4d	0.12041912
11	0xbc54c06c	-0.01298533
12	0xbdd00fe1	-0.10159279
13	0xbde45e75	-0.11150829
14	0x3df19020	0.11795068
15	0x3dad463b	0.08460661
16	0x3d24c71f	0.04022896
17	0xbd3a514c	-0.045487687
18	0x3e4274ca	0.18989864
19	0x3de4af0e	0.111662015
20	0xbe61cab6	-0.22049984
21	0xbd756a79	-0.059915993
22	0x3ace7d53	0.0015753902
23	0xbe8fd241	-0.28090099
24	0xbc9da2ab	-0.019242605
25	0x3d502286	0.050814174
26	0xbd2477e9	-0.040153418
27	0x3ddbeffe	0.10739134
28	0xbe8216cd	-0.2540802
29	0x3e41089c	0.1885094
30	0xbd6a14a9	-0.05714861
31	0xbdf2b9db	-0.11851855
32	0xbca4ed10	-0.020132571
33	0x3d3ab612	0.045583792
34	0x3af3b1a6	0.0018592372
35	0x3c907f3c	0.017638795
36	0xbe5c778b	-0.21529977
37	0x3d17d91f	0.037072297
38	0x3e25134b	0.16120641
39	0xbe339bf1	-0.17539956
40	0xbddfcdac	-0.10927901
41	0x3d88a83a	0.06672712
42	0x3df8d43a	0.12149854
43	0xbd8d709d	-0.06906245
44	0xbd47796e	-0.04869979
45	0xbdc3b996	-0.09556882
46	0x3bf5d5a0	0.0075022727
47	0x3ddba2e2	0.10724427
48	0x3dd59a8e	0.104298696
49	0xbdf335e8	-0.11875516
50	0xbe040bc0	-0.12895107
51	0xbd3edb16	-0.046595655
52	0x3cf1dab8	0.029523239
53	0x3c9dff58	0.019286796
54	0xbd00e728	-0.031470448
55	0xbcf3cf68	-0.029761985
56	0xbdd9d854	-0.106369644
57	0xbd457b74	-0.048213437
58	0xbdfa0b84	-0.12209228
59	0xbd6d0638	-0.05786726
60	0xbde7ecb8	-0.113244474
61	0x3c9a4e38	0.018836126
62	0x3da8706c	0.08224568
63	0xbdfacfcc	-0.12246665
64	0x3ddd1dd2	0.107967034
65	0x3d1596a0	0.0365206
66	0xbe18998b	-0.14902322
67	0x3cb57e08	0.022154823
68	0x3d331e4c	0.043730065
69	0xbe123a6d	-0.142801
70	0xbe007ff2	-0.12548807
71	0x3e00b35b	0.12568419
72	0x3e172153	0.14758806
73	0xbdd4dbb2	-0.10393466
74	0xbde60a7a	-0.11232467
75	0x3d1fc84c	0.039009377
76	0xbdda4e87	-0.10659509
77	0xbd039818	-0.03212747
78	0xbd6dc784	-0.0580516
79	0xbdbacd77	-0.091212206
80	0x3e10bdd1	0.14134909
81	0x3e2fae01	0.17156221
82	0x3de68705	0.11256222
83	0x3e14e637	0.14540945
84	0xbe2fa84a	-0.17154041
85	0xbda100d4	-0.07861486
86	0x3cfc7f53	0.030822432
87	0xbe51f545	-0.20503719
88	0x3d7da841	0.061928038
89	0x3e2f4fe2	0.17120317
90	0xbde4ca3f	-0.11171388
91	0xba147e6b	-0.00056645897
92	0xbd255665	-0.040365595
93	0xbd34f2e0	-0.044176936
94	0xbeb5272a	-0.35381442
95	0xbd348c40	-0.044079065
96	0x3dcfdead	0.10149894
97	0x3d432f60	0.047652602
98	0x3de75082	0.112946525
99	0xbddf9019	-0.10916156
100	0xbdd4a92e	-0.10383831
101	0xbe0d7870	-0.13815475
102	0x3be98011	0.0071258624
103	0x3d363925	0.04448809
104	0xbe0d247e	-0.13783452
105	0x3e03bcfd	0.12865062
106	0xbe090018	-0.13378942
107	0x3e080577	0.13283335
108	0xbdc90668	-0.09815675
109	0x3dea8c5d	0.114525534
110	0xbdf56fa4	-0.119841844
111	0x3dbd53b5	0.092444815
112	0x3d3ed5e4	0.0465907
113	0xbe14d4fd	-0.14534374
114	0xbcd0a301	-0.025468351
115	0x3d6c0de5	0.05763044
116	0x3dcc17ba	0.09965463
117	0xbd83182f	-0.06401097
118	0x3e2a5aa9	0.16636147
119	0x3dd6c064	0.10485914
120	0xbd987c8d	-0.07445631
121	0xbdc2b6e2	-0.095075384
122	0x3c157a8c	0.009123456
123	0xbe0e5d81	-0.13902856
124	0xbd178805	-0.036994953
125	0x3d193284	0.03740169
126	0xbd2e1a2a	-0.04250542
127	0xbd291f83	-0.041289818
128	0xbdca32bb	-0.09872957
129	0x3dddb425	0.108253755
130	0xbd812f8e	-0.063078985
131	0x3db1ca3f	0.086811535
132	0xbdeabee6	-0.11462192
133	0xbdbc3c57	-0.091911964
134	0x3de9055c	0.11377975
135	0x3d8f6744	0.07002118
136	0x3d5afc6b	0.05346338
137	0x3e5fb841	0.21847631
138	0x3da100e4	0.07861498
139	0x3e20610c	0.1566202
140	0xbde07ac3	-0.10960915
141	0xbd820435	-0.06348459
142	0x3e18f804	0.1493836
143	0xbe28617f	-0.16443442
144	0xbd2c072a	-0.04199902
145	0xbd5b8c07	-0.053600337
146	0x3e298bb9	0.16557206
147	0x3e31c424	0.17359978
148	0xbd6519a9	-0.055932675
149	0x3e065b76	0.13120827
150	0x3dd41758	0.10356015
151	0xbe5f9fec	-0.21838349
152	0x3b07ab03	0.0020701296
153	0x3e2b8679	0.16750516
154	0xbdcb9fc1	-0.0994258
155	0x3c0ae2d6	0.008476933
156	0xbda60747	-0.08106857
157	0x3cd6fbfd	0.026243204
158	0xbe15e204	-0.14637
159	0xbe121403	-0.14265446
160	0xbe0c5e69	-0.1370789
161	0x3cb69df4	0.022292115
162	0xbc2e4a6d	-0.010637862
163	0xbe49a57d	-0.19692035
164	0x3d485718	0.048911184
165	0x3d26ae2c	0.040693447
166	0xbdfd5f3c	-0.1237168
167	0xbe06fad4	-0.13181621
168	0x3d769a29	0.060205612
169	0xbe122592	-0.14272144
170	0xbc99a9d3	-0.018757736
171	0xbd6f3386	-0.058398746
172	0x3da65f07	0.08123594
173	0x3c1ebea2	0.009689005
174	0x3e4582e9	0.1928822
175	0xbdda2bdf	-0.10652899
176	0x3cb0ce95	0.021582881
177	0x3e131425	0.14363153
178	0x3e3be5bf	0.1834936
179	0xbcfc8329	-0.03082426
180	0xbe44fe86	-0.19237718
181	0x3e3762e5	0.17908819
182	0x3e4ee2f4	0.20203763
183	0xbe159ad3	-0.14609842
184	0x3e577c2c	0.21043462
185	0xbbafc168	-0.005363632
186	0x3d3cd470	0.046101034
187	0xbd01e887	-0.031715896
188	0xbe797964	-0.24362713
189	0x3c7c5071	0.015400038
190	0x3e4554d1	0.19270636
191	0xbe519218	-0.20465887
192	0x379324c0	1.7540879e-05
193	0xbce91f3e	-0.02845728
194	0x3d9d123d	0.07669494
195	0xbe1c986e	-0.15292522
196	0xbe3af4f0	-0.18257499
197	0xbd2c0097	-0.04199275
198	0xbe14bf80	-0.14526176
199	0xbcfab171	-0.030602189
200	0x3b7fd565	0.0039037105
201	0xbca975bf	-0.020686029
202	0xbd0726a9	-0.032995854
203	0xbcc5e2a5	-0.024155924
204	0x3d1aab67	0.03776112
205	0x3e0bbd2a	0.13646379
206	0x3d0bde17	0.03414735
207	0xbda37db2	-0.07982959
208	0x3dd68038	0.104736745
209	0xbdd5324f	-0.10409986
210	0xbe08ecac	-0.13371533
211	0x3ddb679a	0.1071312
212	0xbda683a7	-0.081305794
213	0xbcabde97	-0.020980163
214	0x3d8a9316	0.06766336
215	0xbd461f5b	-0.048369747
216	0xbd15d72f	-0.03658217
217	0x3e06d455	0.13166936
218	0xbdd3c3dc	-0.103400916
219	0xbe0a2aa1	-0.13492824
220	0xbd7ccc1e	-0.0617181
221	0xbe097caf	-0.1342647
222	0xbd1b01db	-0.037843566
223	0x3e26501c	0.16241497
224	0xbdf54638	-0.11976284
225	0xbd4d1f19	-0.050078485
226	0x3e0c9823	0.1372991
227	0xbe0a0078	-0.13476741
228	0x3df802e4	0.12109926
229	0x3c95955e	0.0182597
230	0xbc4d3b86	-0.0125263985
231	0x3cd0d3bc	0.025491588
232	0xbe0a6aae	-0.13517258
233	0x3d873058	0.06601018
234	0xbdc55886	-0.09636025
235	0xbcb4628c	-0.022019647
236	0xbd99b42f	-0.075050704
237	0x3c96b861	0.018398466
238	0x3d65bcb1	0.056088153
239	0x3db660dc	0.08905193
240	0xbe82ad38	-0.2552278
241	0xbe051e3e	-0.12999818
242	0xbe1e392f	-0.15451501
243	0xbe8543a4	-0.26028168
244	0x3ea199fd	0.31562796
245	0xbec58025	-0.3857433
246	0xbecf95d1	-0.40543988
247	0x3ea3b51c	0.31974113
248	0xbd1170cb	-0.03550796
249	0xbe9ddb9e	-0.30831617
250	0xbc64f796	-0.013975045
251	0x3e48ce29	0.19609894
252	0x3e141f9c	0.14465183
253	0xbda3abcf	-0.07991754
254	0x3e7e573a	0.24837962
255	0x3e0c61e3	0.13709216

actor.preprocess.model.model.0.bias f4 [64]
0	0x3ea50465	0.32229915
1	0xbe1b5f83	-0.15173154
2	0xbdec2719	-0.11530895
3	0x3ec85cc7	0.39133283
4	0x3eb99807	0.362488
5	0xbd9a60f4	-0.075380236
6	0x3e019c37	0.12657247
7	0x3eb15fbe	0.34643358
8	0x3e93e7d0	0.28887796
9	0x3eae1e29	0.34007385
10	0x3e7689e6	0.24076042
11	0x3e9518e9	0.29120567
12	0xbe18478b	-0.14871041
13	0x3e18384d	0.14865227
14	0x3ca7d2cb	0.020486256
15	0xbc8b1c18	-0.01698117
16	0x3e7d4918	0.24734914
17	0x3e8caa5d	0.27473727
18	0x3e3fbff7	0.18725573
19	0xbd95d7b3	-0.07316532
20	0x3e782bf8	0.24235523
21	0xbbc5d3c4	-0.0060372073
22	0x3e8cb09e	0.27478498
23	0x3e9b69af	0.30354068
24	0x3e3ead5d	0.1862082
25	0x3e267f4f	0.16259502
26	0x3e92ecf5	0.2869641
27	0x3e331bb8	0.17491043
28	0xbcb4f3ba	-0.022088874
29	0x3e100ffb	0.14068596
30	0x3e4b6f31	0.19866635
31	0x3ea92334	0.3303467
32	0x3e075a4a	0.13218036
33	0x3e8a09bf	0.2696056
34	0x3e7c0ab9	0.24613465
35	0x3e289582	0.16463283
36	0x3e8e9fb4	0.2785622
37	0x3eb6e760	0.357234
38	0x3ea52a9c	0.3225907
39	0x3e795068	0.24347079
40	0x3e85724d	0.26063767
41	0x3e833863	0.25628957
42	0x3ea61d90	0.3244443
43	0xbe1b2e99	-0.15154494
44	0xbc947a42	-0.018124703
45	0x3e4237b3	0.1896656
46	0xbe138b97	-0.14408718
47	0x3df60d1c	0.12014219
48	0x3e261798	0.16219938
49	0x3e8b7a67	0.27241823
50	0x3e70e689	0.23525442
51	0x3ecce933	0.40021667
52	0x3df16fbf	0.11788892
53	0x3ed12434	0.40847933
54	0x3e5f408e	0.2180197
55	0x3e42c369	0.19019856
56	0x3e691222	0.22760823
57	0x3e9af3e3	0.30264196
58	0xbe225075	-0.15851004
59	0xbe0e0111	-0.13867594
60	0x3ea944a8	0.33060193
61	0x3e953797	0.29143974
62	0x3e998117	0.299813
63	0x3dde04f8	0.108407915

actor.preprocess.model.model.2.weight f4 [64, 64]
0	0x3d716ab8	0.058939666
1	0xbdd9796a	-0.10618861
2	0x3e0074db	0.12544577
3	0x3da2c421	0.07947565
4	0x3e8d78d6	0.27631253
5	0xbce3b5f4	-0.027796723
6	0x3c235106	0.009968048
7	0x3e7129a0	0.23551035
8	0xbb87c23c	-0.0041430276
9	0x3c70c4b5	0.014695336
10	0x3d3a821f	0.04553425
11	0x3d9749a1	0.073870905
12	0xbd60d51f	-0.054890748
13	0x3de1dc11	0.110283025
14	0x3d92dcdb	0.07171031
15	0xbe1126f2	-0.14175013
16	0x3e2b221c	0.1671223
17	0x3e209824	0.15683037
18	0x3ce36379	0.027757393
19	0x3db5141a	0.08841725
20	0x3dbe1cc7	0.092828326
21	0x3da045bb	0.078258
22	0x3db06981	0.08613873
23	0x3e17dedd	0.1483111
24	0xbd1865bb	-0.037206393
25	0x3e1e6b73	0.15470676
26	0x3e006276	0.1253756
27	0xbd86d2cb	-0.06583174
28	0xbda6d19b	-0.08145448
29	0xbd19cbdb	-0.037547927
30	0x3aefabd7	0.0018285465
31	0x3d7e8137	0.062134948
32	0x3cd7c84d	0.026340628
33	0x3deb1713	0.114790104
34	0x3dd27edb	0.10278102
35	0x3ddb39ab	0.10704359
36	0x3e23bbf3	0.15989666
37	0x3cf9e5b2	0.030505035
38	0x3dc38c28	0.09548217
39	0x3d639acb	0.055567544
40	0x3d975845	0.07389883
41	0x3e202403	0.15638737
42	0xbc7beca4	-0.015376244
43	0xbdaf1455	-0.085488
44	0x3d14a1f1	0.03628725
45	0x3e153444	0.14570719
46	0x3d6b8321	0.0574981
47	0x3e0eae39	0.13933648
48	0x3df8a33a	0.12140508
49	0x3e1a8f71	0.15093781
50	0x3dbea118	0.0930807
51	0x3e699e96	0.22814402
52	0xbdad4b71	-0.08461655
53	0x3e25d992	0.16196278
54	0x3ddffecb	0.1093727
55	0x3e171bdf	0.14756726
56	0x3e430d8e	0.1904814
57	0x3e8f4575	0.2798268
58	0xbdd20141	-0.102541454
59	0x3d9ea76c	0.07746777
60	0x3c109205	0.008823876
61	0x3e1d42bd	0.1535749
62	0x3d3dc8af	0.046333965
63	0x3d85304f	0.06503355
64	0x3da41b2c	0.08012995
65	0xbdcdc08a	-0.100464895
66	0xbdb7b802	-0.089706436
67	0x3cf5d921	0.030010762
68	0xbe20dd2b	-0.15709369
69	0x3ca83058	0.020530865
70	0xbe0aadee	-0.13542911
71	0x3c41f4e6	0.0118381735
72	0xbe093868	-0.13400424
73	0xbe1ee6f3	-0.15517788
74	0x3b1d4000	0.0023994446
75	0xbcd7f29c	-0.026360802
76	0xbde77cc2	-0.113030925
77	0x3dba621e	0.091007456
78	0xbdf71b11	-0.120657094
79	0xbe0d5e28	-0.13805449
80	0x3c056e26	0.008143937
81	0xbe21ae12	-0.15789059
82	0x3dc5d1c7	0.096591525
83	0xbb197314	-0.002341454
84	0x3c6df6ce	0.014524175
85	0x3af4842d	0.0018655114
86	0x3be9075b	0.0071114725
87	0x3dd59c01	0.10430146
88	0xbdb3a670	-0.0877198
89	0xbd91c093	-0.07116809
90	0xbd4a0d95	-0.04932936
91	0x3c5f3827	0.013624228
92	0xbbee8b68	-0.007279802
93	0x3daa197e	0.083056435
94	0x3d849585	0.06473831
95	0x3d29d676	0.04146429
96	0x3d45829f	0.048220273
97	0x3c985bb9	0.018598424
98	0x3a5ccc45	0.00084227725
99	0xbd0a7f37	-0.033812728
100	0xbcfaa953	-0.030598318
101	0x3d9223f7	0.07135766
102	0x3d59bf6c	0.05316107
103	0xbbbc7988	-0.0057517923
104	0x3d520d1f	0.051282045
105	0x3d077faf	0.033080753
106	0xbc9b4039	-0.018951522
107	0x3d4580dc	0.048218593
108	0xbdb7f59a	-0.08982392
109	0x3da675e5	0.08127955
110	0xbe0ef8f7	-0.1396216
111	0xbdb2b8bc	-0.087266415
112	0x3d7b8965	0.061410327
113	0x3d815227	0.063144974
114	0xbded421b	-0.11584874
115	0x3ceb1fe9	0.02870174
116	0xbc8a18c3	-0.01685751
117	0x3d89862a	0.06715043
118	0x3d58bfe0	0.05291736
119	0xbe03dcf0	-0.1287725
120	0x3dbc601e	0.091980204
121	0xbb108b6f	-0.0022055765
122	0xbd23e1e7	-0.04001036
123	0xbd61e444	-0.05514933
124	0xbd44e1c4	-0.04806687
125	0xbe08990c	-0.13339633
126	0xbe0e836e	-0.13917324
127	0x3c4ca06d	0.01248942
128	0x3e803a36	0.2504441
129	0x3cb954a0	0.02262336
130	0xbd65a131	-0.056061927
131	0x3e2e70a8	0.17035162
132	0x3e9cba4f	0.30610892
133	0x3db975bd	0.0905566
134	0x3f0ca9d1	0.5494662
135	0x3dfc5f56	0.123228714
136	0x3d73c46d	0.059513498
137	0xbdeea340	-0.11652231
138	0x3e0252f4	0.12726957
139	0x3e97966d	0.29606953
140	0x3df55c53	0.119805
141	0x3e41e2da	0.18934193
142	0xbb911a78	-0.004428204
143	0x3eb62068	0.355716
144	0xbdd4e8c9	-0.10395963
145	0x3dc79a7a	0.09746261
146	0x3c476856	0.012170872
147	0x3f0a259d	0.53963643
148	0x3e93a5f5	0.28837553
149	0x3cf62c98	0.03005056
150	0x3ec47553	0.3837076
151	0x3d6bca8b	0.057566207
152	0x3e046daa	0.12932459
153	0xbd690424	-0.056888714
154	0x3d0c483f	0.034248587
155	0xbbfcccc4	-0.0077148397
156	0x3e16c5c0	0.14723873
157	0x3e4a7fb6	0.1977528
158	0xbd674d1e	-0.05647003
159	0x3daf4383	0.08557799
160	0x3e2c9d9d	0.16857
161	0x3c80ca1f	0.015721379
162	0x3e37770b	0.17916505
163	0x3cd2a836	0.025714975
164	0xbdcae237	-0.09906428
165	0x3ddf6ce2	0.109094396
166	0x3dba667a	0.09101577
167	0xbd28c1af	-0.041200336
168	0x3d076c9f	0.033062574
169	0x3e5e11bf	0.21686457
170	0x3e52e1b2	0.20593908
171	0xbd33e17c	-0.04391621
172	0xbcc9c08b	-0.024627944
173	0x3e5a4ae3	0.2131763
174	0x3ce40dc1	0.02783859
175	0xbd768eda	-0.060194828
176	0xbd5ad5a7	-0.05342641
177	0x3e18acdd	0.14909692
178	0x3d5a34cf	0.05327302
179	0x3cfebcd2	0.031095896
180	0x3e314ba4	0.17314011
181	0x3e02b820	0.1276555
182	0x3e0aacad	0.13542433
183	0x3dd97bb1	0.106192954
184	0x3eaf61e1	0.34254363
185	0x3e67f69e	0.2265267
186	0x3d510b65	0.051036257
187	0x3d4cb332	0.04997558
188	0x3e195dc2	0.14977172
189	0x3e2b8518	0.1674999
190	0x3da93a00	0.08263016
191	0x3cdec0c1	0.027191522
192	0x3e627944	0.22116572
193	0xbcc67418	-0.02422528
194	0x3e6cada4	0.23113114
195	0x3e8b5d10	0.2721944
196	0x3ea17359	0.31533316
197	0x3d170560	0.03687036
198	0x3e5f9b04	0.21836478
199	0x3e7c39c5	0.24631412
200	0x3de94224	0.113895684
201	0x3eaabfe4	0.33349526
202	0x3d16f419	0.036853883
203	0x3e110477	0.1416186
204	0xbd790f4f	-0.060805615
205	0x3e132f28	0.14373457
206	0xbdbb3615	-0.09141175
207	0xbde5e468	-0.11225206
208	0x3f10838c	0.56450725
209	0x3dfa7634	0.12229577
210	0xbd8cdb1d	-0.0687773
211	0xbe2506a2	-0.16115811
212	0x3e0011fe	0.12506863
213	0x3db92cbd	0.09041736
214	0x3e028ca0	0.12748957
215	0x3e2ce0d9	0.16882648
216	0xbdb51a56	-0.08842914
217	0x3f00a22f	0.5024747
218	0x3edc4b82	0.43026358
219	0x3e5f8751	0.21828963
220	0xbcfcfd15	-0.030882398
221	0x3c05c2d3	0.0081641255
222	0x3d63e195	0.055635054
223	0x3ef9b813	0.4877325
224	0x3d162479	0.036655877
225	0x3e32ad9e	0.17449042
226	0xbd93b45e	-0.07212137
227	0x3e1d6688	0.15371144
228	0x3ead9642	0.339037
229	0x3ebb7416	0.36612004
230	0xbcdfcb48	-0.027318612
231	0x3e1436db	0.1447405
232	0x3edb026e	0.4277529
233	0x3e484504	0.19557577
234	0xbd33fda9	-0.04394308
235	0xbd56ed11	-0.052472178
236	0x3d997567	0.07493096
237	0xbd880b93	-0.066428326
238	0xbdbf15b7	-0.09330314
239	0x3ccf3c94	0.02529744
240	0x3f074c69	0.5285097
241	0x3d640e58	0.05567774
242	0x3e0fa8ff	0.1402931
243	0x3ebed190	0.37269258
244	0x3def3944	0.116808444
245	0x3e807f60	0.2509718
246	0xbd2c7431	-0.042102996
247	0x3df43e53	0.1192595
248	0x3ebe9db6	0.372297
249	0x3e8e0ad4	0.27742636
250	0xbd8b5729	-0.06803734
251	0xbd20ead9	-0.03928647
252	0x3e369ff0	0.17834449
253	0x3d932fb6	0.071868345
254	0x3d94b0dd	0.072602965
255	0xbcf02c37	-0.029317958

actor.preprocess.model.model.2.bias f4 [64]
0	0x3d9597d9	0.07304353
1	0x3c8bbde3	0.017058318
2	0x3e492636	0.19643483
3	0x3e9c2197	0.30494377
4	0x3e1665c2	0.14687255
5	0x3d8cdc7e	0.06877993
6	0x3da37848	0.07981926
7	0x3d70ae6d	0.058760095
8	0x3e313eb1	0.17309071
9	0x3c21cc47	0.009875364
10	0x3da5e5da	0.08100481
11	0xbcfd848f	-0.030946998
12	0x3e178898	0.147982
13	0x3cc2c286	0.023774397
14	0x3d768649	0.060186658
15	0xbdb2a63a	-0.087231115
16	0x3e7fa337	0.24964605
17	0xbbe9f142	-0.007139356
18	0xbd75d92a	-0.060021557
19	0x3e22f90e	0.1591532
20	0x3c34bc1c	0.011031177
21	0x3c818d4b	0.015814444
22	0x3d9e6e58	0.0773589
23	0xbdb1e32a	-0.08685906
24	0xbb1a8f8b	-0.0023584093
25	0x3db89206	0.09012227
26	0xbd0d36d4	-0.034476116
27	0x3e3a5aa3	0.18198638
28	0x3d0e53a7	0.034747746
29	0x3da0a076	0.078431055
30	0x3dfa2b7b	0.122153245
31	0x3d5a1a5b	0.05324779
32	0xbca58a56	-0.020207565
33	0x3d1eda96	0.03878268
34	0x3df026f7	0.11726182
35	0x3c3bdab1	0.011465714
36	0xbdc09644	-0.09403661
37	0xbd99028b	-0.07471188
38	0xbbe7d86b	-0.0070753596
39	0xbc18e500	-0.009331942
40	0x3e9262c6	0.28590983
41	0x3db05a1f	0.08610939
42	0x3e43cc38	0.19120872
43	0x3d8e4a0e	0.069477186
44	0xbd9cd57e	-0.07657908
45	0xbdd7dff7	-0.10540765
46	0xbc9ca901	-0.019123556
47	0x3e2b7169	0.16742481
48	0x3eadfdfb	0.33982834
49	0x3e631d2f	0.22179101
50	0x3e964714	0.29351103
51	0x3e75eba4	0.24015671
52	0xbd05aee8	-0.032637507
53	0x3e2dcbc8	0.16972268
54	0xbe0873ea	-0.13325468
55	0x3df5cb19	0.120016284
56	0xbdbf4bbc	-0.09340617
57	0xbd376c77	-0.044781175
58	0x3e4661ec	0.19373292
59	0xbd885164	-0.06656149
60	0x3e93a318	0.28835368
61	0x3dd4e084	0.103943855
62	0xbb90c0d0	-0.0044175163
63	0x3e0ab3a6	0.13545093

actor.last.model.0.weight f4 [300, 64]
0	0x3d04115b	0.032243114
1	0x3d803c8c	0.062615484
2	0x3e1ea9e0	0.1549449
3	0xbd74331c	-0.059619054
4	0xbd7b017e	-0.06128072
5	0xbd5e13ce	-0.054218106
6	0xbd41c5c1	-0.047307733
7	0x3dcccbd4	0.09999815
8	0xbd3dadc7	-0.046308305
9	0xbdbf16e7	-0.0933054
10	0x3c806444	0.01567281
11	0xbe230a0f	-0.15921806
12	0x3de9d29d	0.114171244
13	0xbdded443	-0.108803295
14	0xbd342db1	-0.043988887
15	0xbdf92eb4	-0.12167111
16	0x3dc671cd	0.096896745
17	0x3ac27202	0.0014835002
18	0x3d4f4796	0.05060538
19	0x3d738e9e	0.059462182
20	0x3ce1c848	0.027561322
21	0xbd42078e	-0.047370486
22	0xbdde3212	-0.10849394
23	0xbda48188	-0.080325186
24	0xbd5fe2dd	-0.054659713
25	0x3d10cdbe	0.03535246
26	0x3da9a43c	0.08283278
27	0x3cb324d1	0.021868141
28	0x3dcdb301	0.10043908
29	0x3d77b063	0.06047095
30	0xbda5050e	-0.08057605
31	0xbd59cc22	-0.05317319
32	0x3d40a844	0.04703547
33	0x3dc2fa23	0.09520366
34	0xbd22fea6	-0.039793633
35	0x3dfc8aa7	0.12331133
36	0x3cf8d000	0.03037262
37	0xbcaadf55	-0.020858446
38	0xbb19ba41	-0.0023456963
39	0xbdbcd28b	-0.092198454
40	0x3d2ace41	0.041700605
41	0xbc0f063e	-0.008729516
42	0x3db0255a	0.08600874
43	0xbc983624	-0.018580504
44	0x3ccf4575	0.025301674
45	0x3dabb70f	0.08384525
46	0x3d7387b1	0.059455577
47	0xbdbdab79	-0.092612214
48	0x3da4dcef	0.08049952
49	0x3cc62fbe	0.024192687
50	0x3df676d5	0.12034384
51	0xbd89f197	-0.06735533
52	0xbd5089ba	-0.050912596
53	0xbc4b81ad	-0.012421054
54	0xbdfe6d50	-0.124231935
55	0x3ddbd22a	0.10733445
56	0x3d952b8d	0.07283697
57	0x3c9ce7a5	0.019153425
58	0x3ca61da4	0.020277806
59	0xbc89fe40	-0.016844869
60	0x3ddce953	0.107866906
61	0xbc648d4c	-0.013949703
62	0xbdbc7392	-0.09201731
63	0xbd4016ee	-0.046896867
64	0xbdf82b9f	-0.12117695
65	0xbd14d1c1	-0.03633285
66	0xbda4f322	-0.080541864
67	0xbddc7f8b	-0.107665144
68	0xbd3572b4	-0.044298843
69	0x3da8b45b	0.08237525
70	0xbd07b448	-0.033130914
71	0xbe13457c	-0.14381975
72	0xbd5ded3b	-0.05418132
73	0xbd8f7f27	-0.07006674
74	0xbc55eaf8	-0.013056509
75	0x3d6ecae5	0.058298964
76	0x3d199714	0.037497595
77	0x3d378859	0.044807766
78	0xbdba9c2b	-0.09111818
79	0xbdb7c334	-0.08972779
80	0xbe045c55	-0.12925847
81	0xbda1b781	-0.07896329
82	0xbcdfaf00	-0.027305126
83	0x3ce6c664	0.028170772
84	0xbca33ce6	-0.0199265
85	0xbc169d01	-0.009192706
86	0x3dd4e8c3	0.10395958
87	0x3d82e9d8	0.063922584
88	0xbce29dab	-0.027663073
89	0xbdacff22	-0.084471
90	0xbd40ecac	-0.047100708
91	0xbd8c7bb6	-0.068595335
92	0xbd923fff	-0.071411125
93	0xbc9c033b	-0.01904451
94	0x3daa5cf2	0.08318509
95	0xbbb0564c	-0.005381381
96	0xbe0533fc	-0.13008112
97	0xbd4232f6	-0.04741188
98	0x3d852cae	0.065026626
99	0xbdd5ee0d	-0.10445795
100	0x3d6a21cc	0.057161137
101	0xbcf41166	-0.029793452
102	0xbd808119	-0.062746234
103	0xbde3a523	-0.11115482
104	0x3d6ef821	0.058342103
105	0xbce97861	-0.028499784
106	0xbd11ad85	-0.03556587
107	0x3b120740	0.0022282153
108	0x3dcbe498	0.0995571
109	0xbd422f7f	-0.047408577
110	0x3d061a8c	0.03274016
111	0xbe199709	-0.14999022
112	0x3d7b5bc0	0.061366796
113	0xbe24d152	-0.16095474
114	0xbe0ebad2	-0.13938454
115	0x3d13eb5f	0.03611314
116	0xbd135eaa	-0.03597895
117	0xbc482faa	-0.012218395
118	0xbe092d41	-0.13396169
119	0xbe001ba5	-0.12510546
120	0xbd89946a	-0.06717761
121	0x3df592cf	0.11990892
122	0xbdb0aeed	-0.086271144
123	0xbde7f082	-0.1132517
124	0xbdce1692	-0.10062899
125	0xbe24de84	-0.16100508
126	0xbd834881	-0.064103134
127	0xbd132c9e	-0.035931222
128	0xbda49b71	-0.080374606
129	0xbd928cb3	-0.071557425
130	0xbdaf9503	-0.085733436
131	0xbe209a1e	-0.15683791
132	0xbd2f3202	-0.0427723
133	0x3d68eb4b	0.056865018
134	0xbd80f7fd	-0.062973
135	0xbdd0f541	-0.102030285
136	0xbe2e5496	-0.17024454
137	0xbcb22d07	-0.021749986
138	0xbd18ace4	-0.037274256
139	0xbe247019	-0.16058387
140	0xbd04a4f0	-0.03238386
141	0x3cc2f7b5	0.023799757
142	0x3b061fa5	0.002046564
143	0xbd3bec64	-0.045879737
144	0x3c41773a	0.011808211
145	0xb9ec2910	-0.00045044022
146	0x3da046d8	0.078260124
147	0xbb26e5c2	-0.0025466536
148	0x3cbf6d84	0.02336765
149	0xbcd8e7fb	-0.026477804
150	0xbdef0ae9	-0.11672003
151	0xbdc8c424	-0.09803036
152	0xbdf3840c	-0.1189042
153	0x3db6a594	0.089183
154	0x3d65b6dc	0.05608259
155	0xbe2b012c	-0.16699666
156	0x3dd7eb67	0.10542946
157	0x3dd89705	0.1057568
158	0xbda5a868	-0.080887616
159	0x3dc0f3f1	0.09421528
160	0x3dc90b69	0.098166294
161	0x3c8734dc	0.016504698
162	0xbcbe838d	-0.023256088
163	0xbd91f9ed	-0.07127748
164	0xbda8f54a	-0.0824991
165	0xbe021875	-0.12704642
166	0xbded84da	-0.11597605
167	0xbd778863	-0.060432803
168	0xbcc75ae8	-0.02433534
169	0x3d0aa14f	0.033845242
170	0x3d6ba998	0.057534784
171	0xbd6ac133	-0.057313155
172	0xbc494750	-0.012285069
173	0xbdbf922b	-0.09354051
174	0x3d803aa7	0.06261187
175	0xbd94a51b	-0.07258054
176	0xbe4f61d2	-0.20252159
177	0x3d20972c	0.03920667
178	0xbda6a226	-0.08136396
179	0xbdf03753	-0.11729302
180	0x3d43f634	0.04784222
181	0x3d230ddb	0.039808135
182	0xbdc61437	-0.096718244
183	0xbdc57005	-0.09640507
184	0xbd281bc2	-0.041042097
185	0xbe2a0a99	-0.16605605
186	0xbe16cb20	-0.14725924
187	0xbd5e3c20	-0.05425656
188	0xbe54f59b	-0.20796816
189	0xbd8059a7	-0.062671
190	0x3db6d033	0.089264296
191	0x3c9bb772	0.019008372
192	0xbc562175	-0.0130695
193	0xbd95566b	-0.072918735
194	0x3cba7e0c	0.022765182
195	0x3bfd73af	0.007734738
196	0x3d019217	0.031633463
197	0x3d282b48	0.0410569
198	0xbd9393df	-0.072059385
199	0x3d1766d7	0.03696331
200	0xbe0a04e7	-0.13478433
201	0x3d69f86f	0.05712169
202	0xbd9d4046	-0.07678275
203	0xbe1fe2b9	-0.15613832
204	0xbb9da522	-0.004810945
205	0x3cf5b7ac	0.029994808
206	0xbdb0e908	-0.08638197
207	0x3d86b294	0.0657703
208	0xbc6698ba	-0.014074499
209	0xbd729b9e	-0.05923044
210	0x3d312559	0.043248508
211	0xbcff2f26	-0.031150412
212	0x3d58128e	0.05275207
213	0xbc1c720d	-0.009548676
214	0x3dcac65c	0.09901115
215	0xbd2052b4	-0.03914137
216	0xbe21567d	-0.15755649
217	0xbddc2de1	-0.10750938
218	0x3d878419	0.066169925
219	0xbdc88207	-0.09790426
220	0x3d366e5a	0.044538833
221	0xbdbdd746	-0.09269576
222	0xbb9759fe	-0.004618882
223	0x3de50fa7	0.11184626
224	0xbcdd2fc2	-0.027000312
225	0xbde3319b	-0.11093446
226	0xbd4618b7	-0.048363414
227	0x3d4c9159	0.0499433
228	0xbdd644ea	-0.10462363
229	0x3dd4b476	0.10385983
230	0xbd269597	-0.040670004
231	0x3d8bab51	0.068197854
232	0xbc82511f	-0.015907822
233	0xbe19489b	-0.14969103
234	0x3d19cf75	0.037551362
235	0xbd6d74bc	-0.057972655
236	0x3de386e5	0.111097135
237	0x3d880b4f	0.06642782
238	0x3d00a3eb	0.031406324
239	0x3d0da8fd	0.034584988
240	0xbdced58d	-0.10099325
241	0xbdc2cde5	-0.095119275
242	0x3cc2c9f8	0.023777947
243	0x3c350100	0.011047602
244	0x3c4c183a	0.012456948
245	0x3d908cf0	0.07058132
246	0xbd24315a	-0.040086128
247	0x3d0f305e	0.034958236
248	0x3df6129c	0.12015268
249	0xbdbb9d2e	-0.09160839
250	0x3db8d9cf	0.09025919
251	0x3da03652	0.07822861
252	0xbc171af8	-0.009222738
253	0xbcd74f3d	-0.026282901
254	0x3d852d00	0.06502724
255	0xbc2b19aa	-0.0104431305

actor.last.model.0.bias f4 [300]
0	0xbc1749b6	-0.009233883
1	0xbe0cf14b	-0.13763921
2	0x3d8a7a75	0.06761638
3	0x3d43c8cc	0.047798917
4	0x3d39edbb	0.045392733
5	0xbdb67a15	-0.08910004
6	0x3d2797cc	0.04091625
7	0x3daad710	0.08341801
8	0xbd3d360a	-0.046194114
9	0xbdeff1c3	-0.11716034
10	0x3cc49ed3	0.024001515
11	0xbdf6a73f	-0.120436184
12	0x3d4436fa	0.047903992
13	0x3d3d64eb	0.04623882
14	0xbdeb2237	-0.11481135
15	0xbd638a4e	-0.05555182
16	0xbe1a5fd7	-0.15075622
17	0xbe141742	-0.14461997
18	0xbdec2dca	-0.11532171
19	0xbb062310	-0.0020467676
20	0x3da419aa	0.080127075
21	0x3c52c343	0.012863937
22	0x3d782b44	0.060588136
23	0xbe39afce	-0.1813347
24	0x3d7f3726	0.062308453
25	0x3d244c8e	0.04011207
26	0x3d5a69bc	0.053323492
27	0xbd984080	-0.074341774
28	0xbd26dc27	-0.040737297
29	0x3a79e043	0.0009532014
30	0xbdfd3703	-0.12364008
31	0xbdd045a8	-0.10169536
32	0xbcae3b22	-0.021268431
33	0x3c766447	0.015038556
34	0x3d73379a	0.059379198
35	0xbe33ee51	-0.17571379
36	0x3d1b69d1	0.03794271
37	0x3da5cf76	0.08096211
38	0xbdd9b3d0	-0.1063
39	0xbe2ac3f5	-0.16676314
40	0xbb111888	-0.0022139866
41	0xbc4433c3	-0.011975232
42	0xbd66bb47	-0.056330945
43	0xbda5fbfd	-0.081047036
44	0xbd1448dd	-0.0362023
45	0xbcbd75ec	-0.023127519
46	0x3caa013f	0.020752547
47	0xbda069c7	-0.078326754
48	0x3cb7b132	0.02242336
49	0x3d04dde3	0.03243817
50	0xbe00a422	-0.12562612
51	0x3da3bedd	0.07995389
52	0xbccc77e8	-0.02495952
53	0xbddd8041	-0.10815478
54	0xbd548da9	-0.05189291
55	0xbdf5c09f	-0.1199963
56	0xbdf1cd4b	-0.11806735
57	0xbc805cb4	-0.015669204
58	0x3d35da3e	0.044397585
59	0x3bb8bd6b	0.0056378148
60	0xbe2f6474	-0.17128164
61	0x3db09b76	0.08623402
62	0x3dd7d694	0.105389744
63	0x3ce98bd9	0.028509067
64	0x3cd072d1	0.025445374
65	0xbb2cd23c	-0.0026370427
66	0xbd63da46	-0.055628084
67	0xbdc3e9ae	-0.09566055
68	0xbd7c8ab5	-0.06165572
69	0xbde0a116	-0.10968225
70	0xbd910fdc	-0.07083103
71	0xbd56a397	-0.052402105
72	0xbdde9325	-0.10867909
73	0xbe1f3cd0	-0.15550542
74	0x3d47f105	0.04881384
75	0xbc97499a	-0.018467713
76	0xbcafae4e	-0.02144542
77	0x3dcfdeb2	0.10149898
78	0x3d8f13b6	0.069861814
79	0x3db25295	0.087071575
80	0xbe0014aa	-0.12507883
81	0xbd181b53	-0.037135433
82	0x3c6dbe67	0.0145107275
83	0xbdd5010b	-0.104005896
84	0x3cab8562	0.020937625
85	0xbdb225be	-0.08698605
86	0x3d63858c	0.055547282
87	0xbd81e6cb	-0.063428484
88	0x3daaf3e6	0.08347301
89	0xbdaf8299	-0.085698314
90	0x3d1b4b4c	0.037913606
91	0xbd5961ae	-0.05307167
92	0xbd272909	-0.04081062
93	0xbd9847c8	-0.07435566
94	0xbe227797	-0.15865932
95	0xbdc5ef18	-0.09664744
96	0x3da28a05	0.079364814
97	0x3e0ae302	0.13563159
98	0x3df16d69	0.117884465
99	0x3d2a4f0a	0.041579284
100	0xbdcba637	-0.09943812
101	0xbccb10de	-0.024788316
102	0xbd60df99	-0.05490074
103	0x3d43a254	0.04776223
104	0xbd9d1b82	-0.07671262
105	0x3d807d29	0.062738724
106	0xbe03f9bb	-0.12888233
107	0xbd879233	-0.06619682
108	0x3d42d9ce	0.047570996
109	0xbc873be1	-0.016508045
110	0x3b612c6c	0.0034358753
111	0x3db09ae8	0.08623296
112	0xbd4d0a6c	-0.050058767
113	0xbd5a4c95	-0.05329569
114	0xbd1255dc	-0.035726413
115	0xbc326eda	-0.010890687
116	0x3e133da7	0.14378987
117	0x3d21ac00	0.039470673
118	0x3dfeb1ae	0.124362335
119	0xbd7aabfd	-0.061199177
120	0x3dae1548	0.08500153
121	0xbdd55b24	-0.10417774
122	0x3c260b16	0.010134479
123	0x3db49652	0.08817734
124	0xbd022eb3	-0.031782817
125	0xbd9ca249	-0.07648141
126	0xbd62c496	-0.05536326
127	0xbd374b6f	-0.044749673
128	0xbdb5087b	-0.08839508
129	0x3c35b9d0	0.011091664
130	0xbd6e1237	-0.05812284
131	0xbde06bd2	-0.10958065
132	0x3d33d0b9	0.043900225
133	0x3db416f6	0.08793442
134	0x3cb906c9	0.022586243
135	0xbe022a49	-0.12711443
136	0x3df79002	0.12088014
137	0xbd783e95	-0.060606558
138	0xbcb8aec6	-0.022544276
139	0xbd750e47	-0.05982807
140	0xbdfbaecf	-0.122892015
141	0xbdb9e8c6	-0.09077601
142	0xbd9926a1	-0.07478071
143	0x3c381d98	0.011237524
144	0xbb8b4ec4	-0.004251333
145	0xbe0223da	-0.12708989
146	0xbdb50b23	-0.08840015
147	0x3cbeaf07	0.023276819
148	0xbdd1f405	-0.10251621
149	0x3d7e5291	0.06209046
150	0x3d34427e	0.044008724
151	0x3db8adfa	0.090175584
152	0x3d6d3c1b	0.05791865
153	0xbad4dc86	-0.0016240038
154	0x3d3d6dda	0.04624734
155	0x3d29f4e4	0.04149331
156	0x3d759fb2	0.05996675
157	0x3c076fc6	0.008266395
158	0x3d09df00	0.033659935
159	0xbcf03ff9	-0.02932738
160	0xbe2760b0	-0.16345477
161	0x3d2efb74	0.042720273
162	0x3db6c3d3	0.08924069
163	0x3d8ecba4	0.06972435
164	0x3d9cc5dd	0.07654927
165	0x3d1c6d02	0.038189895
166	0x3dbe5ef2	0.09295453
167	0xbd192dfd	-0.037397373
168	0x3daeb9f3	0.08531561
169	0x3d3ae489	0.045628104
170	0x3d4de916	0.050271116
171	0xbd1fa6ad	-0.038977314
172	0x3d9593e2	0.07303597
173	0x3c6c2dee	0.014415247
174	0xbd3078a1	-0.04308379
175	0xbd9ecb80	-0.07753658
176	0x3c9fa99a	0.019490052
177	0x3dd72759	0.10505552
178	0xbb6e8e7c	-0.0036400845
179	0xbde68ac9	-0.1125694
180	0x3d4c5c83	0.049892914
181	0x3cafea5c	0.021474056
182	0xbe22e878	-0.15908992
183	0x3d9233a4	0.07138756
184	0xbe0a0251	-0.13477446
185	0x3c3ecb3f	0.011645137
186	0x3dc8292a	0.097734764
187	0xbde0f39e	-0.10983966
188	0xbd83d85d	-0.064377524
189	0x3d5b3bb8	0.05352375
190	0xbd47b173	-0.048753213
191	0xbdf163ee	-0.11786638
192	0x3d22dac0	0.039759398
193	0x3dae0db8	0.084987104
194	0x3c39c76b	0.011339049
195	0x3d9c8534	0.07642594
196	0xbd35c5c3	-0.044378053
197	0xbcbf58fd	-0.023357863
198	0xbd93ca98	-0.07216376
199	0x3dbbbb88	0.09166628
200	0xbd2e2810	-0.042518675
201	0xbc65a0e5	-0.014015411
202	0xbbd4237c	-0.0064739566
203	0x3db6c539	0.08924336
204	0xbcdbe32e	-0.026841726
205	0xbd5c01b2	-0.053712554
206	0xbdd65064	-0.10464552
207	0x3da57692	0.08079256
208	0xbc817f62	-0.015807811
209	0x3dbf27b0	0.09333742
210	0x3d2e7dfd	0.04260062
211	0x3dbaeb43	0.09126904
212	0x3d1d8a66	0.038462065
213	0x3dc8d127	0.09805518
214	0x3d8c4d3f	0.06850671
215	0xbdcfc5d8	-0.101451576
216	0x3db4f1bf	0.08835172
217	0xba29d1f1	-0.0006478122
218	0x3e0b0527	0.13576184
219	0xbe0e2050	-0.13879514
220	0xbb88a3e5	-0.0041699284
221	0x3d6f891c	0.058480367
222	0x3cb74880	0.022373438
223	0xbcc00843	-0.02344144
224	0x3cba2539	0.022722827
225	0xbcd7e232	-0.026352976
226	0x3c5a128d	0.013310087
227	0x3dac34c8	0.08408505
228	0xbe0197ed	-0.12655611
229	0x3d9211f5	0.07132331
230	0xbd357689	-0.044302497
231	0xbdb6449e	-0.088998064
232	0x3d93409f	0.0719006
233	0xbbade6d9	-0.00530706
234	0xbde64b36	-0.11244814
235	0x3d61e965	0.055154223
236	0xbda2d0d6	-0.079499885
237	0x3d8e6672	0.06953134
238	0x3ce5f877	0.028072579
239	0x3ca20525	0.019777844
240	0x3cd34390	0.025789052
241	0xbd24dc35	-0.04024907
242	0xbdd08e2d	-0.10183368
243	0x3c72021a	0.014771009
244	0x3d53bc99	0.051693533
245	0x3c85e38b	0.016343853
246	0xbdc340d4	-0.09533849
247	0xbd98662f	-0.07441365
248	0xbc3229db	-0.010874237
249	0xbe0a85b3	-0.13527565
250	0xbd60df4d	-0.054900456
251	0x3d1fb32c	0.03898923
252	0xbb34daaf	-0.0027596166
253	0xbd783579	-0.06059787
254	0x3d4ff62d	0.05077188
255	0x3dcf4ebe	0.10122441

critic.preprocess.model.model.0.weight f4 [64, 40]
0	0xbe5a8b75	-0.21342261
1	0x3d01a00f	0.031646784
2	0xbe698e32	-0.2280815
3	0x3d9c75a5	0.076396264
4	0xbcfdeefc	-0.030997746
5	0xbe6dd7df	-0.2322688
6	0x3d8823cf	0.06647455
7	0x3c9bfc3e	0.019041177
8	0xbc8575dd	-0.016291553
9	0xbe438f46	-0.19097623
10	0x3df69e4d	0.12041912
11	0xbc54c06c	-0.01298533
12	0xbdd00fe1	-0.10159279
13	0xbde45e75	-0.11150829
14	0x3df19020	0.11795068
15	0x3dad463b	0.08460661
16	0x3d24c71f	0.04022896
17	0xbd3a514c	-0.045487687
18	0x3e4274ca	0.18989864
19	0x3de4af0e	0.111662015
20	0xbe61cab6	-0.22049984
21	0xbd756a79	-0.059915993
22	0x3ace7d53	0.0015753902
23	0xbe8fd241	-0.28090099
24	0xbc9da2ab	-0.019242605
25	0x3d502286	0.050814174
26	0xbd2477e9	-0.040153418
27	0x3ddbeffe	0.10739134
28	0xbe8216cd	-0.2540802
29	0x3e41089c	0.1885094
30	0xbd6a14a9	-0.05714861
31	0xbdf2b9db	-0.11851855
32	0xbca4ed10	-0.020132571
33	0x3d3ab612	0.045583792
34	0x3af3b1a6	0.0018592372
35	0x3c907f3c	0.017638795
36	0xbe5c778b	-0.21529977
37	0x3d17d91f	0.037072297
38	0x3e25134b	0.16120641
39	0xbe339bf1	-0.17539956
40	0xbddfcdac	-0.10927901
41	0x3d88a83a	0.06672712
42	0x3df8d43a	0.12149854
43	0xbd8d709d	-0.06906245
44	0xbd47796e	-0.04869979
45	0xbdc3b996	-0.09556882
46	0x3bf5d5a0	0.0075022727
47	0x3ddba2e2	0.10724427
48	0x3dd59a8e	0.104298696
49	0xbdf335e8	-0.11875516
50	0xbe040bc0	-0.12895107
51	0xbd3edb16	-0.046595655
52	0x3cf1dab8	0.029523239
53	0x3c9dff58	0.019286796
54	0xbd00e728	-0.031470448
55	0xbcf3cf68	-0.029761985
56	0xbdd9d854	-0.106369644
57	0xbd457b74	-0.048213437
58	0xbdfa0b84	-0.12209228
59	0xbd6d0638	-0.05786726
60	0xbde7ecb8	-0.113244474
61	0x3c9a4e38	0.018836126
62	0x3da8706c	0.08224568
63	0xbdfacfcc	-0.12246665
64	0x3ddd1dd2	0.107967034
65	0x3d1596a0	0.0365206
66	0xbe18998b	-0.14902322
67	0x3cb57e08	0.022154823
68	0x3d331e4c	0.043730065
69	0xbe123a6d	-0.142801
70	0xbe007ff2	-0.12548807
71	0x3e00b35b	0.12568419
72	0x3e172153	0.14758806
73	0xbdd4dbb2	-0.10393466
74	0xbde60a7a	-0.11232467
75	0x3d1fc84c	0.039009377
76	0xbdda4e87	-0.10659509
77	0xbd039818	-0.03212747
78	0xbd6dc784	-0.0580516
79	0xbdbacd77	-0.091212206
80	0x3e10bdd1	0.14134909
81	0x3e2fae01	0.17156221
82	0x3de68705	0.11256222
83	0x3e14e637	0.14540945
84	0xbe2fa84a	-0.17154041
85	0xbda100d4	-0.07861486
86	0x3cfc7f53	0.030822432
87	0xbe51f545	-0.20503719
88	0x3d7da841	0.061928038
89	0x3e2f4fe2	0.17120317
90	0xbde4ca3f	-0.11171388
91	0xba147e6b	-0.00056645897
92	0xbd255665	-0.040365595
93	0xbd34f2e0	-0.044176936
94	0xbeb5272a	-0.35381442
95	0xbd348c40	-0.044079065
96	0x3dcfdead	0.10149894
97	0x3d432f60	0.047652602
98	0x3de75082	0.112946525
99	0xbddf9019	-0.10916156
100	0xbdd4a92e	-0.10383831
101	0xbe0d7870	-0.13815475
102	0x3be98011	0.0071258624
103	0x3d363925	0.04448809
104	0xbe0d247e	-0.13783452
105	0x3e03bcfd	0.12865062
106	0xbe090018	-0.13378942
107	0x3e080577	0.13283335
108	0xbdc90668	-0.09815675
109	0x3dea8c5d	0.114525534
110	0xbdf56fa4	-0.119841844
111	0x3dbd53b5	0.092444815
112	0x3d3ed5e4	0.0465907
113	0xbe14d4fd	-0.14534374
114	0xbcd0a301	-0.025468351
115	0x3d6c0de5	0.05763044
116	0x3dcc17ba	0.09965463
117	0xbd83182f	-0.06401097
118	0x3e2a5aa9	0.16636147
119	0x3dd6c064	0.10485914
120	0xbd987c8d	-0.07445631
121	0xbdc2b6e2	-0.095075384
122	0x3c157a8c	0.009123456
123	0xbe0e5d81	-0.13902856
124	0xbd178805	-0.036994953
125	0x3d193284	0.03740169
126	0xbd2e1a2a	-0.04250542
127	0xbd291f83	-0.041289818
128	0xbdca32bb	-0.09872957
129	0x3dddb425	0.108253755
130	0xbd812f8e	-0.063078985
131	0x3db1ca3f	0.086811535
132	0xbdeabee6	-0.11462192
133	0xbdbc3c57	-0.091911964
134	0x3de9055c	0.11377975
135	0x3d8f6744	0.07002118
136	0x3d5afc6b	0.05346338
137	0x3e5fb841	0.21847631
138	0x3da100e4	0.07861498
139	0x3e20610c	0.1566202
140	0xbde07ac3	-0.10960915
141	0xbd820435	-0.06348459
142	0x3e18f804	0.1493836
143	0xbe28617f	-0.16443442
144	0xbd2c072a	-0.04199902
145	0xbd5b8c07	-0.053600337
146	0x3e298bb9	0.16557206
147	0x3e31c424	0.17359978
148	0xbd6519a9	-0.055932675
149	0x3e065b76	0.13120827
150	0x3dd41758	0.10356015
151	0xbe5f9fec	-0.21838349
152	0x3b07ab03	0.0020701296
153	0x3e2b8679	0.16750516
154	0xbdcb9fc1	-0.0994258
155	0x3c0ae2d6	0.008476933
156	0xbda60747	-0.08106857
157	0x3cd6fbfd	0.026243204
158	0xbe15e204	-0.14637
159	0xbe121403	-0.14265446
160	0xbe0c5e69	-0.1370789
161	0x3cb69df4	0.022292115
162	0xbc2e4a6d	-0.010637862
163	0xbe49a57d	-0.19692035
164	0x3d485718	0.048911184
165	0x3d26ae2c	0.040693447
166	0xbdfd5f3c	-0.1237168
167	0xbe06fad4	-0.13181621
168	0x3d769a29	0.060205612
169	0xbe122592	-0.14272144
170	0xbc99a9d3	-0.018757736
171	0xbd6f3386	-0.058398746
172	0x3da65f07	0.08123594
173	0x3c1ebea2	0.009689005
174	0x3e4582e9	0.1928822
175	0xbdda2bdf	-0.10652899
176	0x3cb0ce95	0.021582881
177	0x3e131425	0.14363153
178	0x3e3be5bf	0.1834936
179	0xbcfc8329	-0.03082426
180	0xbe44fe86	-0.19237718
181	0x3e3762e5	0.17908819
182	0x3e4ee2f4	0.20203763
183	0xbe159ad3	-0.14609842
184	0x3e577c2c	0.21043462
185	0xbbafc168	-0.005363632
186	0x3d3cd470	0.046101034
187	0xbd01e887	-0.031715896
188	0xbe797964	-0.24362713
189	0x3c7c5071	0.015400038
190	0x3e4554d1	0.19270636
191	0xbe519218	-0.20465887
192	0x379324c0	1.7540879e-05
193	0xbce91f3e	-0.02845728
194	0x3d9d123d	0.07669494
195	0xbe1c986e	-0.15292522
196	0xbe3af4f0	-0.18257499
197	0xbd2c0097	-0.04199275
198	0xbe14bf80	-0.14526176
199	0xbcfab171	-0.030602189
200	0x3b7fd565	0.0039037105
201	0xbca975bf	-0.020686029
202	0xbd0726a9	-0.032995854
203	0xbcc5e2a5	-0.024155924
204	0x3d1aab67	0.03776112
205	0x3e0bbd2a	0.13646379
206	0x3d0bde17	0.03414735
207	0xbda37db2	-0.07982959
208	0x3dd68038	0.104736745
209	0xbdd5324f	-0.10409986
210	0xbe08ecac	-0.13371533
211	0x3ddb679a	0.1071312
212	0xbda683a7	-0.081305794
213	0xbcabde97	-0.020980163
214	0x3d8a9316	0.06766336
215	0xbd461f5b	-0.048369747
216	0xbd15d72f	-0.03658217
217	0x3e06d455	0.13166936
218	0xbdd3c3dc	-0.103400916
219	0xbe0a2aa1	-0.13492824
220	0xbd7ccc1e	-0.0617181
221	0xbe097caf	-0.1342647
222	0xbd1b01db	-0.037843566
223	0x3e26501c	0.16241497
224	0xbdf54638	-0.11976284
225	0xbd4d1f19	-0.050078485
226	0x3e0c9823	0.1372991
227	0xbe0a0078	-0.13476741
228	0x3df802e4	0.12109926
229	0x3c95955e	0.0182597
230	0xbc4d3b86	-0.0125263985
231	0x3cd0d3bc	0.025491588
232	0xbe0a6aae	-0.13517258
233	0x3d873058	0.06601018
234	0xbdc55886	-0.09636025
235	0xbcb4628c	-0.022019647
236	0xbd99b42f	-0.075050704
237	0x3c96b861	0.018398466
238	0x3d65bcb1	0.056088153
239	0x3db660dc	0.08905193
240	0xbe82ad38	-0.2552278
241	0xbe051e3e	-0.12999818
242	0xbe1e392f	-0.15451501
243	0xbe8543a4	-0.26028168
244	0x3ea199fd	0.31562796
245	0xbec58025	-0.3857433
246	0xbecf95d1	-0.40543988
247	0x3ea3b51c	0.31974113
248	0xbd1170cb	-0.03550796
249	0xbe9ddb9e	-0.30831617
250	0xbc64f796	-0.013975045
251	0x3e48ce29	0.19609894
252	0x3e141f9c	0.14465183
253	0xbda3abcf	-0.07991754
254	0x3e7e573a	0.24837962
255	0x3e0c61e3	0.13709216

critic.preprocess.model.model.0.bias f4 [64]
0	0x3ea50465	0.32229915
1	0xbe1b5f83	-0.15173154
2	0xbdec2719	-0.11530895
3	0x3ec85cc7	0.39133283
4	0x3eb99807	0.362488
5	0xbd9a60f4	-0.075380236
6	0x3e019c37	0.12657247
7	0x3eb15fbe	0.34643358
8	0x3e93e7d0	0.28887796
9	0x3eae1e29	0.34007385
10	0x3e7689e6	0.24076042
11	0x3e9518e9	0.29120567
12	0xbe18478b	-0.14871041
13	0x3e18384d	0.14865227
14	0x3ca7d2cb	0.020486256
15	0xbc8b1c18	-0.01698117
16	0x3e7d4918	0.24734914
17	0x3e8caa5d	0.27473727
18	0x3e3fbff7	0.18725573
19	0xbd95d7b3	-0.07316532
20	0x3e782bf8	0.24235523
21	0xbbc5d3c4	-0.0060372073
22	0x3e8cb09e	0.27478498
23	0x3e9b69af	0.30354068
24	0x3e3ead5d	0.1862082
25	0x3e267f4f	0.16259502
26	0x3e92ecf5	0.2869641
27	0x3e331bb8	0.17491043
28	0xbcb4f3ba	-0.022088874
29	0x3e100ffb	0.14068596
30	0x3e4b6f31	0.19866635
31	0x3ea92334	0.3303467
32	0x3e075a4a	0.13218036
33	0x3e8a09bf	0.2696056
34	0x3e7c0ab9	0.24613465
35	0x3e289582	0.16463283
36	0x3e8e9fb4	0.2785622
37	0x3eb6e760	0.357234
38	0x3ea52a9c	0.3225907
39	0x3e795068	0.24347079
40	0x3e85724d	0.26063767
41	0x3e833863	0.25628957
42	0x3ea61d90	0.3244443
43	0xbe1b2e99	-0.15154494
44	0xbc947a42	-0.018124703
45	0x3e4237b3	0.1896656
46	0xbe138b97	-0.14408718
47	0x3df60d1c	0.12014219
48	0x3e261798	0.16219938
49	0x3e8b7a67	0.27241823
50	0x3e70e689	0.23525442
51	0x3ecce933	0.40021667
52	0x3df16fbf	0.11788892
53	0x3ed12434	0.40847933
54	0x3e5f408e	0.2180197
55	0x3e42c369	0.19019856
56	0x3e691222	0.22760823
57	0x3e9af3e3	0.30264196
58	0xbe225075	-0.15851004
59	0xbe0e0111	-0.13867594
60	0x3ea944a8	0.33060193
61	0x3e953797	0.29143974
62	0x3e998117	0.299813
63	0x3dde04f8	0.108407915

critic.preprocess.model.model.2.weight f4 [64, 64]
0	0x3d716ab8	0.058939666
1	0xbdd9796a	-0.10618861
2	0x3e0074db	0.12544577
3	0x3da2c421	0.07947565
4	0x3e8d78d6	0.27631253
5	0xbce3b5f4	-0.027796723
6	0x3c235106	0.009968048
7	0x3e7129a0	0.23551035
8	0xbb87c23c	-0.0041430276
9	0x3c70c4b5	0.014695336
10	0x3d3a821f	0.04553425
11	0x3d9749a1	0.073870905
12	0xbd60d51f	-0.054890748
13	0x3de1dc11	0.110283025
14	0x3d92dcdb	0.07171031
15	0xbe1126f2	-0.14175013
16	0x3e2b221c	0.1671223
17	0x3e209824	0.15683037
18	0x3ce36379	0.027757393
19	0x3db5141a	0.08841725
20	0x3dbe1cc7	0.092828326
21	0x3da045bb	0.078258
22	0x3db06981	0.08613873
23	0x3e17dedd	0.1483111
24	0xbd1865bb	-0.037206393
25	0x3e1e6b73	0.15470676
26	0x3e006276	0.1253756
27	0xbd86d2cb	-0.06583174
28	0xbda6d19b	-0.08145448
29	0xbd19cbdb	-0.037547927
30	0x3aefabd7	0.0018285465
31	0x3d7e8137	0.062134948
32	0x3cd7c84d	0.026340628
33	0x3deb1713	0.114790104
34	0x3dd27edb	0.10278102
35	0x3ddb39ab	0.10704359
36	0x3e23bbf3	0.15989666
37	0x3cf9e5b2	0.030505035
38	0x3dc38c28	0.09548217
39	0x3d639acb	0.055567544
40	0x3d975845	0.07389883
41	0x3e202403	0.15638737
42	0xbc7beca4	-0.015376244
43	0xbdaf1455	-0.085488
44	0x3d14a1f1	0.03628725
45	0x3e153444	0.14570719
46	0x3d6b8321	0.0574981
47	0x3e0eae39	0.13933648
48	0x3df8a33a	0.12140508
49	0x3e1a8f71	0.15093781
50	0x3dbea118	0.0930807
51	0x3e699e96	0.22814402
52	0xbdad4b71	-0.08461655
53	0x3e25d992	0.16196278
54	0x3ddffecb	0.1093727
55	0x3e171bdf	0.14756726
56	0x3e430d8e	0.1904814
57	0x3e8f4575	0.2798268
58	0xbdd20141	-0.102541454
59	0x3d9ea76c	0.07746777
60	0x3c109205	0.008823876
61	0x3e1d42bd	0.1535749
62	0x3d3dc8af	0.046333965
63	0x3d85304f	0.06503355
64	0x3da41b2c	0.08012995
65	0xbdcdc08a	-0.100464895
66	0xbdb7b802	-0.089706436
67	0x3cf5d921	0.030010762
68	0xbe20dd2b	-0.15709369
69	0x3ca83058	0.020530865
70	0xbe0aadee	-0.13542911
71	0x3c41f4e6	0.0118381735
72	0xbe093868	-0.13400424
73	0xbe1ee6f3	-0.15517788
74	0x3b1d4000	0.0023994446
75	0xbcd7f29c	-0.026360802
76	0xbde77cc2	-0.113030925
77	0x3dba621e	0.091007456
78	0xbdf71b11	-0.120657094
79	0xbe0d5e28	-0.13805449
80	0x3c056e26	0.008143937
81	0xbe21ae12	-0.15789059
82	0x3dc5d1c7	0.096591525
83	0xbb197314	-0.002341454
84	0x3c6df6ce	0.014524175
85	0x3af4842d	0.0018655114
86	0x3be9075b	0.0071114725
87	0x3dd59c01	0.10430146
88	0xbdb3a670	-0.0877198
89	0xbd91c093	-0.07116809
90	0xbd4a0d95	-0.04932936
91	0x3c5f3827	0.013624228
92	0xbbee8b68	-0.007279802
93	0x3daa197e	0.083056435
94	0x3d849585	0.06473831
95	0x3d29d676	0.04146429
96	0x3d45829f	0.048220273
97	0x3c985bb9	0.018598424
98	0x3a5ccc45	0.00084227725
99	0xbd0a7f37	-0.033812728
100	0xbcfaa953	-0.030598318
101	0x3d9223f7	0.07135766
102	0x3d59bf6c	0.05316107
103	0xbbbc7988	-0.0057517923
104	0x3d520d1f	0.051282045
105	0x3d077faf	0.033080753
106	0xbc9b4039	-0.018951522
107	0x3d4580dc	0.048218593
108	0xbdb7f59a	-0.08982392
109	0x3da675e5	0.08127955
110	0xbe0ef8f7	-0.1396216
111	0xbdb2b8bc	-0.087266415
112	0x3d7b8965	0.061410327
113	0x3d815227	0.063144974
114	0xbded421b	-0.11584874
115	0x3ceb1fe9	0.02870174
116	0xbc8a18c3	-0.01685751
117	0x3d89862a	0.06715043
118	0x3d58bfe0	0.05291736
119	0xbe03dcf0	-0.1287725
120	0x3dbc601e	0.091980204
121	0xbb108b6f	-0.0022055765
122	0xbd23e1e7	-0.04001036
123	0xbd61e444	-0.05514933
124	0xbd44e1c4	-0.04806687
125	0xbe08990c	-0.13339633
126	0xbe0e836e	-0.13917324
127	0x3c4ca06d	0.01248942
128	0x3e803a36	0.2504441
129	0x3cb954a0	0.02262336
130	0xbd65a131	-0.056061927
131	0x3e2e70a8	0.17035162
132	0x3e9cba4f	0.30610892
133	0x3db975bd	0.0905566
134	0x3f0ca9d1	0.5494662
135	0x3dfc5f56	0.123228714
136	0x3d73c46d	0.059513498
137	0xbdeea340	-0.11652231
138	0x3e0252f4	0.12726957
139	0x3e97966d	0.29606953
140	0x3df55c53	0.119805
141	0x3e41e2da	0.18934193
142	0xbb911a78	-0.004428204
143	0x3eb62068	0.355716
144	0xbdd4e8c9	-0.10395963
145	0x3dc79a7a	0.09746261
146	0x3c476856	0.012170872
147	0x3f0a259d	0.53963643
148	0x3e93a5f5	0.28837553
149	0x3cf62c98	0.03005056
150	0x3ec47553	0.3837076
151	0x3d6bca8b	0.057566207
152	0x3e046daa	0.12932459
153	0xbd690424	-0.056888714
154	0x3d0c483f	0.034248587
155	0xbbfcccc4	-0.0077148397
156	0x3e16c5c0	0.14723873
157	0x3e4a7fb6	0.1977528
158	0xbd674d1e	-0.05647003
159	0x3daf4383	0.08557799
160	0x3e2c9d9d	0.16857
161	0x3c80ca1f	0.015721379
162	0x3e37770b	0.17916505
163	0x3cd2a836	0.025714975
164	0xbdcae237	-0.09906428
165	0x3ddf6ce2	0.109094396
166	0x3dba667a	0.09101577
167	0xbd28c1af	-0.041200336
168	0x3d076c9f	0.033062574
169	0x3e5e11bf	0.21686457
170	0x3e52e1b2	0.20593908
171	0xbd33e17c	-0.04391621
172	0xbcc9c08b	-0.024627944
173	0x3e5a4ae3	0.2131763
174	0x3ce40dc1	0.02783859
175	0xbd768eda	-0.060194828
176	0xbd5ad5a7	-0.05342641
177	0x3e18acdd	0.14909692
178	0x3d5a34cf	0.05327302
179	0x3cfebcd2	0.031095896
180	0x3e314ba4	0.17314011
181	0x3e02b820	0.1276555
182	0x3e0aacad	0.13542433
183	0x3dd97bb1	0.106192954
184	0x3eaf61e1	0.34254363
185	0x3e67f69e	0.2265267
186	0x3d510b65	0.051036257
187	0x3d4cb332	0.04997558
188	0x3e195dc2	0.14977172
189	0x3e2b8518	0.1674999
190	0x3da93a00	0.08263016
191	0x3cdec0c1	0.027191522
192	0x3e627944	0.22116572
193	0xbcc67418	-0.02422528
194	0x3e6cada4	0.23113114
195	0x3e8b5d10	0.2721944
196	0x3ea17359	0.31533316
197	0x3d170560	0.03687036
198	0x3e5f9b04	0.21836478
199	0x3e7c39c5	0.24631412
200	0x3de94224	0.113895684
201	0x3eaabfe4	0.33349526
202	0x3d16f419	0.036853883
203	0x3e110477	0.1416186
204	0xbd790f4f	-0.060805615
205	0x3e132f28	0.14373457
206	0xbdbb3615	-0.09141175
207	0xbde5e468	-0.11225206
208	0x3f10838c	0.56450725
209	0x3dfa7634	0.12229577
210	0xbd8cdb1d	-0.0687773
211	0xbe2506a2	-0.16115811
212	0x3e0011fe	0.12506863
213	0x3db92cbd	0.09041736
214	0x3e028ca0	0.12748957
215	0x3e2ce0d9	0.16882648
216	0xbdb51a56	-0.08842914
217	0x3f00a22f	0.5024747
218	0x3edc4b82	0.43026358
219	0x3e5f8751	0.21828963
220	0xbcfcfd15	-0.030882398
221	0x3c05c2d3	0.0081641255
222	0x3d63e195	0.055635054
223	0x3ef9b813	0.4877325
224	0x3d162479	0.036655877
225	0x3e32ad9e	0.17449042
226	0xbd93b45e	-0.07212137
227	0x3e1d6688	0.15371144
228	0x3ead9642	0.339037
229	0x3ebb7416	0.36612004
230	0xbcdfcb48	-0.027318612
231	0x3e1436db	0.1447405
232	0x3edb026e	0.4277529
233	0x3e484504	0.19557577
234	0xbd33fda9	-0.04394308
235	0xbd56ed11	-0.052472178
236	0x3d997567	0.07493096
237	0xbd880b93	-0.066428326
238	0xbdbf15b7	-0.09330314
239	0x3ccf3c94	0.02529744
240	0x3f074c69	0.5285097
241	0x3d640e58	0.05567774
242	0x3e0fa8ff	0.1402931
243	0x3ebed190	0.37269258
244	0x3def3944	0.116808444
245	0x3e807f60	0.2509718
246	0xbd2c7431	-0.042102996
247	0x3df43e53	0.1192595
248	0x3ebe9db6	0.372297
249	0x3e8e0ad4	0.27742636
250	0xbd8b5729	-0.06803734
251	0xbd20ead9	-0.03928647
252	0x3e369ff0	0.17834449
253	0x3d932fb6	0.071868345
254	0x3d94b0dd	0.072602965
255	0xbcf02c37	-0.029317958

critic.preprocess.model.model.2.bias f4 [64]
0	0x3d9597d9	0.07304353
1	0x3c8bbde3	0.017058318
2	0x3e492636	0.19643483
3	0x3e9c2197	0.30494377
4	0x3e1665c2	0.14687255
5	0x3d8cdc7e	0.06877993
6	0x3da37848	0.07981926
7	0x3d70ae6d	0.058760095
8	0x3e313eb1	0.17309071
9	0x3c21cc47	0.009875364
10	0x3da5e5da	0.08100481
11	0xbcfd848f	-0.030946998
12	0x3e178898	0.147982
13	0x3cc2c286	0.023774397
14	0x3d768649	0.060186658
15	0xbdb2a63a	-0.087231115
16	0x3e7fa337	0.24964605
17	0xbbe9f142	-0.007139356
18	0xbd75d92a	-0.060021557
19	0x3e22f90e	0.1591532
20	0x3c34bc1c	0.011031177
21	0x3c818d4b	0.015814444
22	0x3d9e6e58	0.0773589
23	0xbdb1e32a	-0.08685906
24	0xbb1a8f8b	-0.0023584093
25	0x3db89206	0.09012227
26	0xbd0d36d4	-0.034476116
27	0x3e3a5aa3	0.18198638
28	0x3d0e53a7	0.034747746
29	0x3da0a076	0.078431055
30	0x3dfa2b7b	0.122153245
31	0x3d5a1a5b	0.05324779
32	0xbca58a56	-0.020207565
33	0x3d1eda96	0.03878268
34	0x3df026f7	0.11726182
35	0x3c3bdab1	0.011465714
36	0xbdc09644	-0.09403661
37	0xbd99028b	-0.07471188
38	0xbbe7d86b	-0.0070753596
39	0xbc18e500	-0.009331942
40	0x3e9262c6	0.28590983
41	0x3db05a1f	0.08610939
42	0x3e43cc38	0.19120872
43	0x3d8e4a0e	0.069477186
44	0xbd9cd57e	-0.07657908
45	0xbdd7dff7	-0.10540765
46	0xbc9ca901	-0.019123556
47	0x3e2b7169	0.16742481
48	0x3eadfdfb	0.33982834
49	0x3e631d2f	0.22179101
50	0x3e964714	0.29351103
51	0x3e75eba4	0.24015671
52	0xbd05aee8	-0.032637507
53	0x3e2dcbc8	0.16972268
54	0xbe0873ea	-0.13325468
55	0x3df5cb19	0.120016284
56	0xbdbf4bbc	-0.09340617
57	0xbd376c77	-0.044781175
58	0x3e4661ec	0.19373292
59	0xbd885164	-0.06656149
60	0x3e93a318	0.28835368
61	0x3dd4e084	0.103943855
62	0xbb90c0d0	-0.0044175163
63	0x3e0ab3a6	0.13545093

critic.last.model.0.weight f4 [1, 64]
0	0x3df25278	0.11832136
1	0xbd96c1cf	-0.07361185
2	0x3db6981f	0.089157335
3	0x3d2b70db	0.041855674
4	0x3e14d7ad	0.14535399
5	0xbdd58ba8	-0.10427028
6	0xbd8d2c9b	-0.068932734
7	0x3e0b8b6f	0.13627408
8	0x3de378ca	0.11107023
9	0xbc0caba9	-0.008585849
10	0x3d044d46	0.032300256
11	0xbe2ead3f	-0.17058276
12	0x3d898c05	0.0671616
13	0x3ba9f4fb	0.0051866747
14	0xbccde611	-0.025134118
15	0xbde8deba	-0.11370607
16	0x3d72581c	0.05916606
17	0x3db05aff	0.08611106
18	0xbd1ffe2b	-0.039060753
19	0x3e12dcd3	0.1434205
20	0x3bb8c834	0.0056391004
21	0x3e237fb4	0.15966684
22	0xbd4c1d4b	-0.049832623
23	0xbd4b41fc	-0.049623474
24	0x3e03fdeb	0.12889831
25	0xbd9740da	-0.07385416
26	0x3dcaa53e	0.09894799
27	0x3e1e4331	0.15455319
28	0xbd9d4f14	-0.076810986
29	0xbe559367	-0.20857011
30	0x3d98f3ae	0.07468353
31	0xbd940c49	-0.07228906
32	0xbc59c115	-0.013290663
33	0x3d86bf85	0.06579498
34	0x3db7c768	0.089735806
35	0x3deecba3	0.11659934
36	0xbd314e24	-0.04328741
37	0xbda31289	-0.0796252
38	0xbd71a4d4	-0.058995083
39	0xbdcc051b	-0.09961911
40	0x3cb3d030	0.021949857
41	0x3dc989ec	0.0984076
42	0x3e070947	0.13187133
43	0xbc0abedb	-0.008468355
44	0xbdd3e511	-0.10346425
45	0xbc0193ef	-0.007908805
46	0xbdcfb4a4	-0.10141876
47	0x3e1c5afe	0.15269086
48	0x3d778096	0.060425363
49	0x3d0d20cb	0.034455102
50	0x3dfbc6cd	0.122937776
51	0xbbc11ac0	-0.0058930814
52	0xbd974616	-0.07386415
53	0x3bc2ba2b	0.005942603
54	0xbd62e82d	-0.0553972
55	0x3d9158b5	0.07096998
56	0x3c87cebc	0.01657807
57	0xbe186b44	-0.14884669
58	0x3df12ddd	0.11776326
59	0x3bdb7ee0	0.0066984743
60	0x3e142d21	0.1447034
61	0x3e3a5b8d	0.18198986
62	0xbd65a350	-0.05606395
63	0x3ce23404	0.027612694
