log/CartPole-v0/a2c/policy.pth (torch, 206471 bytes, 24 tensors)

actor.preprocess.model.model.0.weight f4 [64, 40]
000000 f2 4f e4 bd 47 8b 01 3e 52 e8 03 be ed 05 0b 3e
       -0.11148061 0.12650786 -0.12881592 0.1357648
000010 62 99 89 bd 71 3b 08 be 02 34 ef 3d b0 95 4e bc
       -0.067187086 -0.13303925 0.116798416 -0.0126089305
000020 c8 0a 86 3c 2f 0d 09 be ec b0 32 3d 76 f0 d4 bd
       0.016362563 -0.13383935 0.043625757 -0.10397427
000030 70 c9 45 bd 3e 4e cd bd e0 10 14 bc 0a 77 fb 3d
       -0.04828781 -0.10024689 -0.009037226 0.12278564
000040 be 26 2b bd ca 2c 08 be 32 41 c5 3d 9c ca 04 3d
       -0.041784994 -0.13298336 0.09631576 0.032419786
000050 3d 4a 86 bd f6 28 15 be 75 f7 b9 bd f8 ba 07 be
       -0.065571286 -0.14566407 -0.09080402 -0.13254917
000060 70 9f b9 bd 08 4d 9e bc f6 49 db bd fc 60 52 3d
       -0.090636134 -0.01932384 -0.10707466 0.051362023
000070 9a 3a f3 bd 6a 44 f4 3d 37 16 e3 bd 90 02 66 3c
       -0.11876412 0.119271114 -0.110882215 0.014038697
000080 00 c8 72 bd 00 97 47 ba 62 c5 3a bd 68 f5 b8 bc
       -0.059272766 -0.00076137483 -0.045598395 -0.022577956
000090 40 20 ed bd 90 91 3a bc ef 73 07 3e 39 57 9b bd
       -0.11578417 -0.011387244 0.13227819 -0.07584996
0000a0 ac cd df bd 3a a8 88 3d 3a d4 f8 3d 9d 70 8d bd
       -0.10927901 0.06672712 0.12149854 -0.06906245
0000b0 6e 79 47 bd 96 b9 c3 bd a0 d5 f5 3b e2 a2 db 3d
       -0.04869979 -0.09556882 0.0075022727 0.10724427
0000c0 8e 9a d5 3d e8 35 f3 bd c0 0b 04 be 16 db 3e bd
       0.104298696 -0.11875516 -0.12895107 -0.046595655
0000d0 b8 da f1 3c 58 ff 9d 3c 28 e7 00 bd 68 cf f3 bc
       0.029523239 0.019286796 -0.031470448 -0.029761985
0000e0 54 d8 d9 bd 74 7b 45 bd 84 0b fa bd 38 06 6d bd
       -0.106369644 -0.048213437 -0.12209228 -0.05786726
0000f0 b8 ec e7 bd 38 4e 9a 3c 6c 70 a8 3d cc cf fa bd
       -0.113244474 0.018836126 0.08224568 -0.12246665
000100 d2 1d dd 3d a0 96 15 3d 8b 99 18 be 08 7e b5 3c
       0.107967034 0.0365206 -0.14902322 0.022154823
000110 4c 1e 33 3d 6d 3a 12 be f2 7f 00 be 5b b3 00 3e
       0.043730065 -0.142801 -0.12548807 0.12568419
000120 53 21 17 3e b2 db d4 bd 7a 0a e6 bd 4c c8 1f 3d
       0.14758806 -0.10393466 -0.11232467 0.039009377
000130 87 4e da bd 18 98 03 bd 84 c7 6d bd 77 cd ba bd
       -0.10659509 -0.03212747 -0.0580516 -0.091212206
000140 ea 1d d1 3d 0d ce 05 3e 0a 2e a4 3d 82 83 f6 3d
       0.10210784 0.13066883 0.08016594 0.12036802
000150 0a f1 b2 bd 20 9c eb bd c0 76 d3 3c 24 ad f4 bd
       -0.08737381 -0.11504388 0.02581346 -0.119470865
000160 80 f5 e5 ba 26 e4 c3 3d 8f bf 07 be 10 c9 ae 3d
       -0.0017544478 0.09565 -0.13256668 0.085344434
000170 a4 4e 7a 3d 26 48 c9 bd 67 23 14 be 66 69 8d 3d
       0.061110154 -0.09828214 -0.1446663 0.06904869
000180 a6 93 eb 3d 24 0d 78 3d 11 3e 08 3e 11 28 ca bd
       0.11502771 0.060559407 0.13304926 -0.09870923
000190 f2 1d c8 bd 36 a8 f9 bd f0 c2 f7 3c 88 76 50 3d
       -0.097713366 -0.12190287 0.03024432 0.05089429
0001a0 38 01 04 be 81 89 0d 3e c7 eb 00 be 11 08 09 3e
       -0.1289109 0.13821985 -0.12589942 0.13381983
0001b0 16 9a ab bd 5a bb fc 3d c3 a5 f6 bd ca ab d8 3d
       -0.08378999 0.12340422 -0.12043335 0.10579641
0001c0 d0 d8 21 3d 17 f6 18 be e4 0d 06 bd 68 ad 1e 3d
       0.03951341 -0.14937626 -0.03272809 0.03873959
0001d0 f3 8b 07 3e 77 fd 8c bd 03 9e 10 3e 7b c2 0c 3e
       0.1323698 -0.06884282 0.14122777 0.13746063
0001e0 ca 0f 4b bd 86 16 9b bd 10 d2 03 3d 9a 97 b1 bd
       -0.049575604 -0.075726554 0.032182753 -0.08671494
0001f0 ee 51 76 bd 30 ec 70 3d 80 f9 f7 3c 14 b9 76 bd
       -0.060136728 0.058818996 0.030270338 -0.060235098
000200 38 38 02 be b2 58 be 3d ae 09 08 be 44 3d 04 3d
       -0.12716758 0.09294261 -0.13284943 0.03228499
000210 20 ca 82 bd 69 0c 06 be 60 c9 de 3b 9a 84 e7 3d
       -0.063862085 -0.13090672 0.006798908 0.113045886
000220 60 68 cc bb ad 3b 1c 3e c0 fa 05 3c da f7 c8 3d
       -0.0062380284 0.1525714 0.008177459 0.09812899
000230 c0 44 cd bc c9 0c 02 be 8c cd 9a 3d 7d e3 ae bd
       -0.025057197 -0.1270019 0.07558736 -0.08539484
000240 64 2f c9 bd 07 d1 e3 bd 16 9a f0 3d 2b f4 0e 3e
       -0.09823492 -0.11123853 0.117481396 0.1396033
000250 80 fc f2 3b a4 46 a0 3d 6c f9 a1 3d b3 8f 20 be
       0.0074153543 0.07825974 0.079089016 -0.15679817
000260 60 c3 8f bb 61 e3 1c 3e 00 55 e8 bd a0 39 da 3b
       -0.004387304 0.15321113 -0.113443375 0.0066597015
000270 c9 b8 82 bd 00 97 27 3c af ac 0a be d0 55 00 be
       -0.06382901 0.010228872 -0.13542436 -0.12532735
000280 55 43 cf bd 74 c6 4d 3d e8 8f cc 3c 84 4f d7 bd
       -0.101202644 0.050238088 0.024970964 -0.10513213
000290 d0 00 b8 3c 00 36 93 3d 00 75 da 3b 70 12 18 be
       0.022461325 0.07188034 0.0066667795 -0.14850783
0002a0 10 25 33 3d 04 0d 14 be 25 74 b6 bd 52 e3 07 be
       0.043736517 -0.1445809 -0.089088716 -0.1327031
0002b0 31 d7 11 3e 00 a8 99 bc 64 ad 6f 3d 3c 49 66 bd
       0.14242245 -0.018756866 0.058514968 -0.056222185
0002c0 91 8a 82 bd e0 3e 48 3d 92 c8 b5 3d 96 0e c9 bd
       -0.06374086 0.048888087 0.088761464 -0.09817235
0002d0 78 cf 5f bd 92 35 b8 3d 66 af ea 3d 48 8f 80 bc
       -0.054641217 0.08994593 0.11459236 -0.015693322
0002e0 fd 74 12 3e 42 5f 95 bd 30 57 56 bc eb 01 99 bd
       0.1430244 -0.072935596 -0.013082311 -0.07471069
0002f0 52 e9 18 be 30 ab 46 bd af 49 21 3e 78 da e4 bd
       -0.14932755 -0.0485031 0.15750764 -0.11174482
000300 20 55 ce bb aa c7 39 bd ee 39 82 3d ab 5b 12 be
       -0.006296769 -0.04535643 0.063587055 -0.14292781
000310 69 46 21 be 2c c4 73 bd 5c d4 ed bd 00 7e ad bb
       -0.15749516 -0.059513256 -0.1161277 -0.0052945614
000320 30 f4 28 3c b0 92 6a bc 48 d1 d9 bc e8 0f 91 bc
       0.010312125 -0.0143172 -0.02658905 -0.01770778
000330 10 60 00 3d c7 4b 12 3e 6c 76 26 3d c1 a7 b0 bd
       0.031341612 0.1428672 0.04064028 -0.086257465
000340 ae ea c8 3d 50 e4 e2 bd b9 ed 0e be 4e ef e8 3d
       0.098103866 -0.110787034 -0.13957871 0.11373769
000350 f4 27 99 bd 98 b2 e1 bc 58 74 98 3d 5a 31 2b bd
       -0.074783236 -0.02755098 0.07444066 -0.041795112
000360 78 ac f9 bc e3 27 0d 3e db 32 c8 bd 35 b1 05 be
       -0.030477747 0.13784747 -0.09775325 -0.1305588
000370 7b 59 8a bd 9f 58 03 be 08 52 2f bd 8d 36 20 3e
       -0.06755348 -0.12826775 -0.04280284 0.1564581
000380 1c cc fd bd 98 f9 60 bd 61 4d 0b 3e 81 88 05 be
       -0.123924464 -0.05492553 0.13603736 -0.13040353
000390 0e 2e fc 3d 80 c5 78 3c 00 ce ec bb 48 ea e5 3c
       0.12313472 0.015183806 -0.0072267056 0.028065816
0003a0 8c 25 07 be a0 4c 8f 3d 83 f4 bc bd 78 2e 98 bc
       -0.13197917 0.06997037 -0.092263244 -0.018576846
0003b0 0d 13 a2 bd 00 c9 b8 3c 28 27 6b 3d a8 00 ae 3d
       -0.0791379 0.022556782 0.05741039 0.08496219
0003c0 68 7d a2 bc c8 3f 95 3d 5e 3e ce 3d e0 f7 2f 3d
       -0.019835189 0.07287556 0.10070489 0.042961
0003d0 12 45 f6 3d aa b9 20 be f3 88 dd bd 2f c1 08 3e
       0.12024893 -0.15695825 -0.108171366 0.13354944
0003e0 5b 0c 10 3e c0 d0 db bd 02 98 86 3d 96 2c e9 3d
       0.14067213 -0.10733175 0.06571962 0.11385457
0003f0 e0 10 20 3d ac 1a 9a 3d a8 fb 99 3d 58 cc a2 3c
       0.039078593 0.075246185 0.07518703 0.01987283

actor.preprocess.model.model.0.bias f4 [64]
000000 80 9b 91 ba 83 5f 1b be b0 21 f3 bd 3a dd c8 3d
       -0.0011108965 -0.15173154 -0.1187166 0.098078206
000010 f0 33 8b 3d 3e 65 8c bd c0 60 aa bc 0e 54 8a 3d
       0.06797016 -0.06855248 -0.020798087 0.067543134
000020 22 20 f1 3d 0b ff bd bd ae 56 be 3d 00 00 1d b6
       0.11773707 -0.09277161 0.092938766 -2.3394823e-06
000030 c9 a8 0f be 78 9b 04 bd 71 3b a1 bd 8a 57 f2 bd
       -0.1402923 -0.03237483 -0.07872666 -0.11833103
000040 80 dc 6d bb e2 0f d2 3d 00 05 b3 3b 59 93 21 be
       -0.0036294758 0.10256936 0.0054632425 -0.15778865
000050 c0 33 30 3c 22 ea e1 bd ce 22 31 bd 77 34 0c 3e
       0.010754526 -0.110309854 -0.043246083 0.13691889
000060 90 ff 24 3d 30 32 01 be 00 0a 05 3b dc 9e 2f 3d
       0.040282786 -0.12616801 0.002030015 0.04287611
000070 bb 71 97 bd 50 09 13 3c e8 65 45 3d 3a c9 90 3d
       -0.07394739 0.008974388 0.04819289 0.07069631
000080 00 52 8c bc ca 6f dc 3d a0 cb ae 3d 58 96 c8 3c
       -0.017128944 0.107635096 0.08534932 0.024485752
000090 70 c3 d7 bc a3 80 13 3e af 02 17 3e 30 a2 b5 3d
       -0.026338309 0.1440454 0.14747117 0.088688254
0000a0 41 e8 a0 bd 60 c3 8c 3b dc 35 4e 3d 80 f7 20 be
       -0.07856799 0.0042957515 0.050344333 -0.15719414
0000b0 e0 c5 da bb 20 f3 eb 3b c8 7d fb bd c0 49 a1 bc
       -0.0066764206 0.0072006136 -0.1227985 -0.019688487
0000c0 c6 e6 1e be d6 42 ec 3d 02 da d2 3d f6 16 ed 3d
       -0.1551772 0.115361854 0.10295488 0.11576645
0000d0 30 97 0c bd 21 46 18 3e 66 68 82 3d 00 4b 43 3d
       -0.03432387 0.14870502 0.06367569 0.047678947
0000e0 9c 27 72 bd 0a ea 81 3d f8 29 1b be ac 11 07 be
       -0.059119806 0.063434675 -0.15152729 -0.13190335
0000f0 01 93 15 3e 07 14 0b 3e c6 ad e1 3d 18 bb e0 bc
       0.14606859 0.13581859 0.11019473 -0.027432963

actor.preprocess.model.model.2.weight f4 [64, 64]
000000 be 86 f1 bd 6a 79 d9 bd b6 8e a6 3d 68 a2 dc bd
       -0.11793278 -0.10618861 0.08132689 -0.10773164
000010 40 47 5d 3d 90 12 0b bd 6c 31 c3 bd 60 04 c2 3d
       0.054023027 -0.03395325 -0.09530911 0.09473491
000020 98 86 25 bd 88 e9 1b bd 40 22 42 3c 5e 76 b2 bd
       -0.04041156 -0.03806451 0.011848986 -0.08713983
000030 fe a5 80 bd 46 0f af 3d 34 d2 43 3d 56 c5 d2 bd
       -0.062816605 0.08547835 0.047807887 -0.10291545
000040 d8 59 03 3d 98 5e ec 3d 00 83 bc ba a4 b8 8f bd
       0.032068104 0.1154148 -0.0014382303 -0.07017639
000050 b0 53 24 3c 24 5a 4e 3d 00 a3 45 bd 08 c3 e5 3d
       0.010029718 0.050378934 -0.048251152 0.1121884
000060 68 dc 67 bd 80 ea dc 3a 00 18 30 ba 38 1f d1 bd
       -0.05660668 0.0016854554 -0.00067174435 -0.10211033
000070 5e 77 d2 bd 28 90 e7 bc 68 a4 00 bd 5e 32 c7 bd
       -0.10276674 -0.028266981 -0.03140679 -0.09726404
000080 80 e2 f9 3a 48 c9 9b 3d 64 51 89 3d a2 53 95 3d
       0.0019064695 0.07606751 0.06704977 0.07291342
000090 a8 83 b9 3c 60 4d 10 bd 44 a7 7c 3d 70 e5 a2 3c
       0.022645786 -0.03523004 0.061682954 0.019884795
0000a0 e0 7e 8a bc e0 ea 14 bc a8 41 71 bd ea 19 e3 bd
       -0.016906202 -0.009089202 -0.058900505 -0.11088927
0000b0 f0 ba f4 3c ce 51 ec 3d b4 a2 1e 3d 08 e2 e6 3d
       0.029874295 0.115390405 0.038729385 0.11273581
0000c0 00 32 08 bc 1c af ef 3d 48 f3 56 3d da 97 ae 3d
       -0.008312702 0.11703321 0.052478105 0.08525057
0000d0 a8 87 c3 bd 60 b9 b8 bc 4a ac 97 3d 54 84 ed 3d
       -0.09547359 -0.022549331 0.074059084 0.11597505
0000e0 ca 74 d1 3d 2c d2 92 3d d8 d4 de bd 3a 4e 92 3d
       0.10227354 0.07168993 -0.108804405 0.07143827
0000f0 10 30 0f bd de ed de 3d 80 94 21 3c 24 9e 19 3d
       -0.034957945 0.10885213 0.009862065 0.03750433
000100 5c 78 f9 3d 8a c0 cd bd 96 04 9b bd aa de 83 3d
       0.1218116 -0.100464895 -0.07569234 0.06438954
000110 dc ad f6 bd 58 30 a8 3c 2e 7a fd bd 20 59 42 3d
       -0.1204488 0.020530865 -0.123768196 0.047448277
000120 cc 69 e5 bd 2e da f4 bd a0 52 ba 3c 00 66 a5 ba
       -0.1120182 -0.11955677 0.022744477 -0.0012618899
000130 22 58 d7 bd a4 c2 f0 3d a4 10 cb bd e8 12 db bd
       -0.10514857 0.11755875 -0.09915283 -0.106969655
000140 24 19 18 3d 20 cc ff bd 94 12 f1 3d 98 42 93 3c
       0.03713335 -0.12490106 0.117711216 0.01797609
000150 f0 26 38 3d 48 fe bc 3c c8 59 20 3d 46 53 fd 3d
       0.04495901 0.02307047 0.039148122 0.12369399
000160 e4 68 61 bd ec d5 0f bd 00 37 f5 bb 48 1d 05 3d
       -0.055031672 -0.03511612 -0.007483363 0.032498628
000170 80 4c 5e 3c ec 2c ed 3d 5e c4 b0 3d 14 63 94 3d
       0.013568044 0.11580834 0.08631204 0.0724546
000180 24 22 90 3d 1c 22 31 3d 20 86 bd 3c a0 6e 3e bc
       0.07037762 0.04324542 0.023135245 -0.011623055
000190 80 c3 fa 3b c2 1f bc 3d 06 5e 92 3d 80 e0 87 3c
       0.0076527 0.09185745 0.0714684 0.016586542
0001a0 34 55 8e 3d 84 51 9c 3d 00 54 29 3a a0 e4 8b 3d
       0.06949845 0.07632735 0.00064593554 0.06830716
0001b0 3c 4b ab bd 26 be f3 3d 68 5e fa bd e4 42 85 bd
       -0.08363959 0.11901502 -0.12225038 -0.06506899
0001c0 94 9b d4 3d de c0 ad 3d 86 20 bd bd 98 ec 84 3d
       0.10381237 0.08484052 -0.09234719 0.06490439
0001d0 88 92 c1 3c 8a 31 c7 3d 72 74 a8 3d 28 ea d8 bd
       0.023629442 0.09726246 0.08225335 -0.10591537
0001e0 34 31 d2 3d f8 cd e4 3c 84 ec 07 bd f0 51 51 bd
       0.10263291 0.027930245 -0.033184543 -0.051103532
0001f0 70 35 ca bc c2 a7 d3 bd ea 95 ef bd 70 18 0b 3d
       -0.024683684 -0.10334732 -0.11698516 0.033958852
000200 8a c5 f6 bd a0 54 b9 3c a4 db 2d 3d ec 26 8b bd
       -0.12049396 0.02262336 0.042445794 -0.06794533
000210 50 59 74 3d a0 6e b0 3d fa 6b 83 bd e8 cf cf bc
       0.059655488 0.0861485 -0.06417079 -0.025367692
000220 b0 9d 23 3c 60 ff 39 bd 80 c4 5b 3d 58 7f dc bd
       0.009986326 -0.04540956 0.053654194 -0.107664764
000230 3e 42 e4 3d 36 97 f4 3d 98 c0 78 bd 2e 07 be 3d
       0.11145447 0.11942904 -0.060730547 0.09278713
000240 28 2a d0 bd 08 d9 c4 bc c0 9e 78 bd a0 3b 64 3c
       -0.10164291 -0.02402927 -0.06069827 0.013930231
000250 d0 04 fa 3c b0 50 95 bc a0 e5 13 3d 58 7c 0e bd
       0.030519873 -0.018226951 0.03610766 -0.034786552
000260 0c 27 de bd 38 50 88 bd 00 21 d3 3a f0 dd 8f 3c
       -0.10847291 -0.066559255 0.0016107857 0.017561883
000270 e4 f5 7f 3d 54 13 a0 3d 66 e6 e3 bd 46 35 dd bd
       0.06249036 0.078161865 -0.111279294 -0.10801177
000280 2c 42 be 3d f6 47 80 bd 34 07 cd 3d d4 01 42 bd
       0.09289965 -0.062637255 0.100111395 -0.047365025
000290 9e ee af bd 80 0e c4 3c 20 8f 09 bd fe e2 ff bd
       -0.085904345 0.023932695 -0.03358376 -0.12494467
0002a0 dc 7a 5c 3d d8 a2 8b 3c 08 f6 e3 bd d2 31 a3 bd
       0.053828105 0.017045423 -0.11130911 -0.07968487
0002b0 30 a3 a5 bc 4c d1 d7 3d 40 17 e0 3b 1c 18 fe bd
       -0.020219415 0.10537967 0.006838709 -0.12406942
0002c0 70 0b 25 bd 8a 68 ce 3d b8 1b ad bc 28 e1 55 bd
       -0.04029411 0.10078533 -0.021131381 -0.05221668
0002d0 34 8e c0 3d a4 46 eb bd 76 68 a9 3d f8 6d 57 3d
       0.09402123 -0.11488083 0.082718775 0.05259511
0002e0 e0 55 76 bc 18 69 c5 bd 18 48 3c 3d a4 cc 35 3d
       -0.015035123 -0.09639186 0.04596719 0.044384614
0002f0 70 9f 3f 3d 6c 7e 87 3d 40 fc 1a bc 8c 94 14 bd
       0.04678291 0.0661591 -0.009459555 -0.036274478
000300 30 bd 9e 3c 18 74 c6 bc 26 9e d4 3d 54 35 83 bd
       0.019377321 -0.02422528 0.10381727 -0.06406656
000310 00 7a 91 bd 58 b4 2e 3d 76 a3 8c 3d 2e e8 e5 bd
       -0.07103348 0.042652458 0.06867115 -0.112259254
000320 d8 2b 42 3d 64 3d 04 bd 70 af 4f bc 7c 72 0e 3d
       0.047405094 -0.03228511 -0.012676105 0.03477715
000330 48 97 87 bd 8c 5e c1 3d 4e b2 de bd 6e 39 d2 3d
       -0.066206515 0.094418615 -0.10873853 0.1026486
000340 0e 9b ef 3d 0c ba 82 3d e2 e6 d2 bd 6c 2e 7d bd
       0.11699496 0.06383142 -0.10297944 -0.06181185
000350 80 da 11 bb d0 a4 87 3d 60 a3 4b 3d 54 f3 ae 3d
       -0.002225548 0.06623232 0.049716353 0.08542505
000360 e8 a5 9e bc c2 8b c4 3d a0 65 a7 3c 44 06 38 bd
       -0.01936622 0.09596969 0.0204342 -0.04492785
000370 f8 b4 b9 bc 84 da 8c 3d d0 54 50 3c 78 af ec 3d
       -0.0226693 0.06877616 0.012715533 0.115569055
000380 d0 c7 d5 3c 8a c6 cf 3d 30 55 dc bd 38 5b f9 3d
       0.026096255 0.1014529 -0.10758436 0.12175602
000390 74 3c d0 bd c6 c2 85 3d 30 73 82 bd 58 62 ec 3d
       -0.101677805 0.06531291 -0.063696265 0.11542195
0003a0 50 63 07 3d 0c d6 c4 bd f8 85 93 bd c0 d3 b2 bd
       0.033053696 -0.09611139 -0.07203287 -0.08731794
0003b0 12 58 8c 3d a8 70 79 bd 40 3d e4 bd d0 60 19 bc
       0.068527356 -0.060898453 -0.11144495 -0.009361461
0003c0 7e e7 eb 3d 08 4c 8e bc 96 66 90 3d 10 95 b5 bc
       0.11518763 -0.017370239 0.07050817 -0.022165805
0003d0 26 99 bb 3d 16 40 de bd ae 6d de bd fc 69 91 3d
       0.0916007 -0.10852067 -0.108607635 0.07100293
0003e0 fc 10 aa 3d cc aa 5d bd e0 7f 90 bd 18 f6 04 bd
       0.08304021 -0.054117963 -0.0705564 -0.032461256
0003f0 5a fe ee 3d 90 aa 32 bc 70 d3 3b 3d 3c 16 33 bd
       0.116696075 -0.010904923 0.04585594 -0.043722376

actor.preprocess.model.model.2.bias f4 [64]
000000 80 07 72 bb 50 d9 21 3d 2e e4 b7 3d 34 39 e7 3d
       -0.003693074 0.039513886 0.08979069 0.112902075
000010 d0 ae 85 3d d4 4d af 3d f4 a1 e7 3d d0 2f 78 bc
       0.065274835 0.085597664 0.11310187 -0.015148118
000020 7c 9f a7 3d e8 cc bc 3c d0 62 fe bd 26 6a e0 bd
       0.08184716 0.023046926 -0.12421191 -0.10957746
000030 38 f6 f8 3c c8 78 fa 3c 8e 39 c1 3d 3a a6 b2 bd
       0.030390844 0.030575171 0.09434806 -0.087231115
000040 6e a7 f9 3d 66 81 d6 bd bc 94 3f bd 8a 0e 97 3d
       0.12190138 -0.104738995 -0.046772704 0.0737582
000050 c8 ce f5 3c d6 fd f4 bd 6a 45 d9 3d 2a e3 b1 bd
       0.030005828 -0.11962478 0.10608943 -0.08685906
000060 e0 67 b8 bd e8 f0 f0 3d a0 2a ad bc 52 71 cb 3d
       -0.090041876 0.11764699 -0.02113849 0.099337235
000070 3c d8 82 3d 88 e4 af 3d 48 d1 a1 bc fc eb a4 3d
       0.063889 0.08588511 -0.019753113 0.08052823
000080 c0 ac 1a 3c 0c d5 6d bd a0 ba 85 3c 84 4b b8 bd
       0.009440601 -0.058064505 0.016324341 -0.089987785
000090 44 96 c0 bd 28 9a 64 bd 80 62 f1 3b 80 1d 8d 3a
       -0.09403661 -0.055811077 0.0073664784 0.0010766238
0000a0 a2 93 bc 3d 80 78 79 bc f0 18 c9 3d 96 43 ca 3d
       0.09207846 -0.015226483 0.098192096 0.09876172
0000b0 de 7a 8d bd 10 df ab bd b0 20 38 bc 68 ae 80 3c
       -0.06908201 -0.08392155 -0.011238262 0.015708163
0000c0 84 07 cc 3d e2 6f 93 3d fe a0 b7 3d 00 ce 15 3b
       0.09962371 0.07199074 0.08966254 0.0022858381
0000d0 d0 ea 05 bc 70 1a a6 bd f8 22 f9 bd 70 46 12 3c
       -0.008173659 -0.08110511 -0.12164873 0.008927926
0000e0 7a 07 a7 bd 42 34 bd bd 56 c2 e0 3d 64 51 88 bd
       -0.08155723 -0.09238483 0.10974567 -0.06656149
0000f0 12 0a b0 3d a2 8c c2 bd 50 7d f2 3c 86 fb 9b bd
       0.08595671 -0.0949948 0.02960077 -0.07616334

actor.last.model.0.weight f4 [300, 64]
000000 38 8a 85 bc d4 15 82 3d 32 24 e4 3d 18 bc c1 bd
       -0.01630126 0.0635182 0.11139716 -0.09459704
000010 70 9a cf bd 1c aa 67 bd 24 fb 52 bd 7c 4d 69 3d
       -0.101368785 -0.056558713 -0.051509038 0.05695866
000020 8a 8c ae bd 6e 79 b6 bd a0 92 9a 3b bc 79 53 bd
       -0.085228994 -0.089098796 0.004717186 -0.051629767
000030 d6 cf 92 3d 7a e8 db bd e0 90 38 bd b4 2e f9 bd
       0.07168548 -0.10737701 -0.04506004 -0.12167111
000040 14 de 81 3d 14 d6 06 bd c0 79 4d 3d 70 65 61 3c
       0.06341186 -0.032919005 0.050164938 0.013757095
000050 f8 79 ee 3c a0 ea 4f bd aa 5c e6 bd 88 81 a4 bd
       0.029110894 -0.050760865 -0.11248143 -0.080325186
000060 ce 88 c6 bd 88 c9 17 3d e4 6a 95 3d b8 28 da bc
       -0.09694062 0.03705743 0.072957784 -0.026630744
000070 48 a4 c6 3d 4a 9b c4 3d c6 37 f4 bd 4c 00 56 bd
       0.09699303 0.095999315 -0.119247004 -0.052246377
000080 70 29 3a 3d 3c 54 6b 3d 6e 06 a6 bd 24 7e b6 3d
       0.045449674 0.05745338 -0.08106695 0.08910778
000090 00 d0 f8 3c 00 28 35 bb 00 56 a0 3b d4 6c c3 bd
       0.03037262 -0.002764225 0.0048930645 -0.09542242
0000a0 a0 f5 22 3c 9c de 3d bd 74 84 1c 3d 88 fb 9d bc
       0.009946257 -0.046354875 0.038212255 -0.019284979
0000b0 d4 91 07 3d 44 d9 b3 3d 2c 8a 62 3d 86 cb ea bd
       0.033098057 0.087816745 0.055307552 -0.114646
0000c0 24 01 3c 3d 98 fd 92 bc ac 9d c6 3d 28 9b ca bd
       0.045899525 -0.017943189 0.09698042 -0.09892875
0000d0 50 31 4a bd 70 f6 13 bd 1e 5c e6 bd 5e 26 87 3d
       -0.049363434 -0.036123693 -0.11248039 0.06599115
0000e0 fe f9 8c 3d ea be cd 3d e0 9b 9d bc 40 fe 89 bc
       0.0688362 0.100461796 -0.019239366 -0.016844869
0000f0 fc 6e ba 3d 10 67 ab bc 9c ee c0 bd 40 d9 66 bd
       0.091032 -0.020923167 -0.09420511 -0.05635953
000100 16 71 bb bd 60 c9 c8 bc a0 f5 54 bd 58 6b 9c bd
       -0.09152429 -0.024510086 -0.05199206 -0.07637662
000110 a0 49 1a bc b2 3f b8 3d 28 54 0d bd 40 71 e3 bd
       -0.009416968 0.08996524 -0.034504086 -0.11105585
000120 50 12 a5 bc c4 37 74 bd 60 4f c9 3c 1a 73 c8 3d
       -0.020150334 -0.059623495 0.024573982 0.09787579
000130 9c c5 94 3d f8 a3 3c 3d 32 90 a7 bd 34 c3 b7 bd
       0.072642535 0.04605481 -0.081818 -0.08972779
000140 3e 04 c1 bd b8 a1 70 bd a0 de a0 bc 6c 44 78 3d
       -0.09424637 -0.058747977 -0.019637406 0.060612127
000150 40 0f 7b bb 20 51 0c 3d 26 71 d2 3d d8 e9 82 3d
       -0.003830865 0.034257054 0.102754876 0.063922584
000160 00 4d 21 3c 78 46 90 bd cc a8 41 bd 2c 8d 24 bd
       0.009845018 -0.07044691 -0.047280118 -0.040173694
000170 b8 19 96 bd f0 e6 31 bc f2 ba e0 3d a0 3d 1b 3c
       -0.07329124 -0.010858282 0.10973157 0.009475142
000180 68 61 e1 bd 10 e6 6d bc b4 e2 d2 3d a0 9b 88 bd
       -0.11004907 -0.014520183 0.102971464 -0.06670308
000190 cc 21 6a 3d 68 89 86 bc 1c ee 52 bd 56 04 df bd
       0.057161137 -0.016422942 -0.05149661 -0.10889499
0001a0 9a d4 b6 3d 30 08 2e 3c b0 d9 19 bc d8 c5 a1 3c
       0.08927269 0.010622069 -0.00939028 0.01974766
0001b0 16 b9 db 3d 38 95 32 bd d4 f7 2d 3d e8 0b dc bd
       0.10728662 -0.043599337 0.042472675 -0.107444584
0001c0 cc 2c b5 3d ea 00 fe bd 06 3d cb bd 34 57 79 3d
       0.08846435 -0.12402518 -0.09923749 0.06087418
0001d0 b0 77 a9 bc 80 ad c5 3c 04 52 fa bd d6 16 b3 bd
       -0.020686954 0.024130583 -0.122226745 -0.0874459
0001e0 1c d6 8c bd a2 3e dd 3d ac 42 59 bd 82 f0 e7 bd
       -0.068767756 0.10802962 -0.0530421 -0.1132517
0001f0 80 1a 43 bd b6 76 c6 bd 64 77 39 bd 40 56 32 3b
       -0.047632694 -0.09690611 -0.045279875 0.0027212054
000200 48 a7 e4 bc a0 d3 95 bd e0 e6 c6 bc a4 87 bd bd
       -0.027911797 -0.07315755 -0.024280012 -0.09254387
000210 d0 2f 8e 3c 9c cc 54 3d 9a f5 88 bd b0 ba 4d bd
       0.017356783 0.051952943 -0.0668747 -0.050226867
000220 9e 40 e5 bd 18 e4 ec bc c6 10 84 3d 16 30 bb bd
       -0.111939654 -0.028917357 0.06448512 -0.09140031
000230 78 d0 f5 3c 08 c2 cf 3c 00 b2 b7 ba 64 ec 3b bd
       0.030006632 0.025361076 -0.001401484 -0.045879737
000240 6e ca 98 3d 78 63 8e 3d 32 03 95 3d 24 d5 48 3d
       0.074604854 0.06952566 0.07276 0.04903139
000250 10 77 c3 3c 2a b9 85 3d dc 57 f4 bd 24 c4 c8 bd
       0.023860484 0.06529458 -0.1193082 -0.09803036
000260 ec 88 63 bd f0 03 b6 3d e8 4a 63 3d 20 15 e2 bd
       -0.0555505 0.0888747 0.055491358 -0.110391855
000270 38 6a d6 3d 8c 2a d0 3d 00 fd 5a 3a 5a 25 c0 3d
       0.10469478 0.10164365 0.000835374 0.09382124
000280 26 49 cb 3d be 42 8b 3d a8 55 0e 3d 00 a0 95 39
       0.09926061 0.067998394 0.034749657 0.00028538704
000290 4a f5 a8 bd 28 ca e2 bd 9a ef f9 bd c6 0a 85 bd
       -0.0824991 -0.110737145 -0.122039035 -0.064961955
0002a0 30 37 5e 3d ca 1a ce 3d 60 e4 e8 3d cc 2d 69 bd
       0.05425185 0.10063703 0.11371684 -0.05692844
0002b0 e0 75 90 bb 68 33 b7 bd 8c d8 65 3d 10 58 60 3c
       -0.004408583 -0.08945352 0.05611472 0.013692871
0002c0 92 76 e6 bd d8 8a d3 3d 60 31 fc 3c 60 b7 7e bc
       -0.11253084 0.10329217 0.030785263 -0.01554665
0002d0 64 13 43 3d 18 36 f2 3d a2 06 c9 bd 50 67 0b bd
       0.047625914 0.11826724 -0.09815718 -0.034034073
0002e0 70 d1 37 bd 3c 79 69 bd fe f7 b8 bd 20 3c 5e bd
       -0.04487747 -0.057000384 -0.09031676 -0.05425656
0002f0 1c 8e d7 bd d4 a0 3e 3d d2 5e ba 3d da 3d f4 3d
       -0.10525152 0.046540096 0.09100117 0.1192586
000300 b0 b8 44 3c a8 8f a6 bd 34 06 67 3d f4 d9 40 3d
       0.012006924 -0.08132869 0.0564024 0.047082856
000310 5e 49 81 3d 04 1b 64 3d d6 ff 98 bd 5c 35 6e 3d
       0.06312822 0.055689827 -0.07470672 0.058156356
000320 9e 86 d6 bd 20 cd 48 3d a0 7a 14 bc 22 3b d0 bd
       -0.10474895 0.049023747 -0.009062439 -0.10167529
000330 98 1d ee 3c dc 53 01 3d 62 3f c1 bd 94 b2 86 3d
       0.029066846 0.031574115 -0.094359174 0.0657703
000340 70 a1 b3 3c a8 fc 91 bc 04 e6 15 3d 60 9c fa bb
       0.021927565 -0.017820671 0.036596313 -0.007648036
000350 c4 ef 2d 3d 96 eb 84 3d 1a bd c5 3d b4 52 20 bd
       0.042464986 0.06490247 0.09655209 -0.03914137
000360 4e 3d fc bd d2 24 f2 bd e8 f3 83 3d e6 4f 95 bd
       -0.123163804 -0.11823429 0.06443006 -0.0729063
000370 28 6d 35 3d fc ec f8 bd f0 68 44 3d 94 e1 d2 3d
       0.044293553 -0.12154576 0.04795164 0.10296932
000380 98 b1 0f bd 6c e1 ae bd e0 72 a5 bc d4 a9 b8 3d
       -0.035081476 -0.085390896 -0.020196378 0.09016767
000390 ea 44 d6 bd 16 52 fa 3d ec eb 48 bd 74 de 75 3d
       -0.10462363 0.12222688 -0.049053118 0.0600266
0003a0 f0 c6 0b 3d 6a 74 e7 bd b6 92 8e 3d 0a 9f 89 bd
       0.03412527 -0.11301501 0.06961577 -0.067197874
0003b0 0e a9 f3 3d 40 6f 90 3d b8 94 be 3c 40 68 a8 3d
       0.11897479 0.07052469 0.023264274 0.08223009
0003c0 78 70 d2 bc ec a6 7d bd 80 88 ea 3d 32 ca f4 3d
       -0.025688395 -0.061926767 0.114518166 0.11952628
0003d0 c0 b5 4f 3b 9a 90 f6 3d 68 0a 0c bd 8e b3 91 3d
       0.0031694025 0.12039299 -0.03418961 0.071143255
0003e0 fa d2 ea 3d 00 c1 1b ba 74 9b f4 3d 52 36 a0 3d
       0.11466022 -0.000594154 0.11943713 0.07822861
0003f0 3a c6 97 3d 94 c8 72 3d 58 55 69 3d 6c b7 50 3d
       0.074108556 0.059273317 0.056966156 0.050956175

actor.last.model.0.bias f4 [300]
000000 10 c1 0c bd 44 f0 d8 bd 54 9e d8 3d 5c aa 8f 3d
       -0.034363806 -0.10592702 0.10577074 0.07014915
000010 b2 16 a9 3d 30 77 31 bd 10 11 6c 3d fa f4 d9 3d
       0.08256282 -0.043326557 0.05763346 0.10642429
000020 80 95 cd 3a 18 cb b6 bd c4 1a 42 3d 50 b1 a5 bd
       0.0015684813 -0.08925456 0.047388807 -0.0809046
000030 bc 07 8d 3d a8 cf a7 3d 88 4e 86 bd 90 c2 c4 bc
       0.06886241 0.08193904 -0.065579474 -0.024018556
000040 80 cb b8 bd 4e 13 ec bd 62 0d cc bd 00 87 29 3a
       -0.090231895 -0.115271196 -0.0996349 0.0006466955
000050 74 0b d8 3d fc 5f 6f 3d 76 2d cf 3d b0 ec ee bd
       0.105490595 0.058441147 0.10116093 -0.11666238
000060 8a d6 c1 3d 5c 64 6c 3d 56 f8 91 3d 20 e3 cc bc
       0.09464748 0.057712898 0.071274444 -0.025010645
000070 80 68 0f 3d 60 93 bc 3c 4e 4c cb bd f0 2c 94 bd
       0.03501177 0.023019493 -0.09926663 -0.07235134
000080 40 cb 63 3b 00 72 29 3d 7c 2f d5 3d d4 73 ef bd
       0.0034758598 0.041368484 0.104094476 -0.11692014
000090 96 5a 93 3d 9c f5 f8 3d f4 2c 9d bd be 5a e9 bd
       0.07195012 0.12156221 -0.0767459 -0.11394261
0000a0 e0 7a 58 3d e8 3e 15 3d 98 1f d9 bc c8 cc 37 bd
       0.052851558 0.036436945 -0.026504323 -0.04487303
0000b0 98 fb 53 bd 50 2f 1c bc 14 37 26 3d a6 77 83 bd
       -0.05175361 -0.009532765 0.04057987 -0.064193055
0000c0 98 cc 6a 3d 70 05 f9 3c 42 53 b7 bd 92 da e4 3d
       0.057324022 0.0303981 -0.08951427 0.111745015
0000d0 40 fd 5d bb 6a 08 86 bd 20 36 2f bc fe ed 90 bd
       -0.0033872873 -0.065445736 -0.010694057 -0.070766434
0000e0 50 d2 ca bd a8 9f e2 3c bc 32 61 3d e8 0d ab 3c
       -0.09903395 0.02766402 0.054980025 0.020880654
0000f0 f6 c8 d9 bd be 8d e6 3d 10 41 a0 3d c8 d9 62 3d
       -0.106340334 0.11257504 0.0782491 0.055383474
000100 e4 e3 73 3d 78 9e 8e 3c 40 6f 47 bc 56 95 93 bd
       0.059543505 0.017409548 -0.01217252 -0.07206218
000110 a0 92 8a bc 14 d4 8f bd b4 56 aa bd 80 82 21 bd
       -0.01691562 -0.070228726 -0.083173186 -0.039431095
000120 04 3b 7b bd 72 67 ab bd c2 d4 82 3d f0 56 b5 3c
       -0.06133558 -0.0836934 0.063882366 0.022136182
000130 80 66 fb 3a c8 fd d2 3d de 67 92 3d ce a8 e9 3d
       0.0019180328 0.10302311 0.07148717 0.1140915
000140 7e 1f fc bd 58 08 b1 bc b8 28 13 3d b2 c7 94 bd
       -0.12310694 -0.021610424 0.035927504 -0.07264651
000150 d0 81 11 3d 68 39 46 bd da 75 ec 3d 20 11 08 bd
       0.03552419 -0.04839459 0.11545916 -0.033219457
000160 c8 95 f0 3d 8c 08 a1 bd 28 e1 a4 bc 90 0e 98 bc
       0.117473185 -0.07862958 -0.020126894 -0.018561631
000170 80 75 57 bc 44 25 09 bd 3a 5f e8 bd 88 fa 81 bd
       -0.013150573 -0.033482805 -0.11346288 -0.06346613
000180 4a 07 af 3d 16 7a f0 3d aa fd 9a 3d a8 b2 7e bd
       0.08546312 0.11742036 0.07567914 -0.0621821
000190 46 de 8c bd c0 60 22 bb c2 f0 89 bd 04 86 2b 3d
       -0.06878333 -0.0024776906 -0.06735374 0.041875854
0001a0 fc ca 48 bd 60 44 85 3d ac 5f ae bd f4 50 88 bd
       -0.049021706 0.06507182 -0.08514342 -0.066560656
0001b0 70 a0 72 3d 00 0a 23 3a 00 8a ba 3b bc 3d c3 3d
       0.059235036 0.00062194467 0.0056927204 0.09533259
0001c0 94 b0 3c bd 88 6a a8 bc 84 45 69 bd 28 63 98 3c
       -0.046066836 -0.02055861 -0.05695106 0.018601969
0001d0 b0 c4 9f 3d e0 70 94 3d 6c 29 f2 3d a0 7d 23 bd
       0.07801187 0.07248092 0.11824307 -0.039914727
0001e0 f8 9b 69 bd 2a d1 e4 bd f4 72 11 3d a2 a6 d1 3d
       -0.05703351 -0.111727074 0.03551002 0.10236861
0001f0 e0 d1 88 bc a4 f9 1c bd b0 2c aa bc a0 85 fe bc
       -0.016701639 -0.038324013 -0.020773262 -0.031069577
000200 88 ae 6f bd 08 d4 ad 3c c0 49 95 bc 80 fc 73 bd
       -0.058516055 0.021219268 -0.018223643 -0.059566975
000210 44 a0 6a 3d 70 14 92 3d 70 6b 8c 3c a2 94 99 bd
       0.057281747 0.071328044 0.017141074 -0.074990526
000220 00 a5 d7 3d 4c 8b 0f bd 40 69 d8 bc cc 95 26 bd
       0.10529518 -0.035044953 -0.026417375 -0.0406702
000230 16 c7 cd bd 5c 16 e7 bd 18 a8 66 bd a0 15 24 3c
       -0.10047738 -0.112835616 -0.05631265 0.010014921
000240 f0 b0 23 3c 4c 25 bb bd 12 e2 89 bd f8 3d 86 3c
       0.009990916 -0.09137973 -0.067325726 0.01638697
000250 7a 14 9c bd 40 38 7a 3d 4c 95 7d 3d b2 12 97 3d
       -0.07621093 0.0610888 0.06190996 0.07376613
000260 de 2a b2 3d 28 01 f8 3c 70 54 1f 3d bc 22 74 3d
       0.086995825 0.030273989 0.038898885 0.059603438
000270 20 59 96 3d 00 38 0c b9 54 3b 43 3d 00 90 36 bb
       0.07341218 -0.00013372302 0.047664 -0.0027856827
000280 46 c7 f9 bd 44 07 4a 3d e8 17 e9 3d 20 09 b6 3d
       -0.121962115 0.049323335 0.11381513 0.08888459
000290 62 07 d5 3d 64 d5 54 3d 78 f2 e6 bc a8 30 ed bc
       0.10401799 0.051961318 -0.02819179 -0.028953865
0002a0 40 c4 ef 3d 78 aa 46 3d c8 89 64 3d 00 93 83 bb
       0.117073536 0.048502415 0.05579546 -0.0040153265
0002b0 dc c1 c2 3d 20 35 e3 3b 9c 2d 29 bd f4 8a 71 bd
       0.09509632 0.006933823 -0.041303262 -0.058970407
0002c0 10 21 0c 3c 72 52 ff 3d 58 44 b8 3c 7e 21 c2 bd
       0.008552805 0.12466897 0.022493526 -0.094790444
0002d0 38 99 26 3d 00 fb 07 3d 82 2c f2 bd 90 f6 a2 3d
       0.040673465 0.033198357 -0.118248954 0.07957184
0002e0 1c fd ee bd c4 b1 17 3d 2c 69 bb 3d be 89 dd bd
       -0.116693705 0.037034765 0.09150919 -0.10817288
0002f0 64 a0 54 bd aa ac 98 3d f8 86 26 bd 62 db a7 bd
       -0.051910773 0.07454808 -0.04065606 -0.08196141
000300 92 86 8a 3d b4 96 3a bd 08 ad c4 3c 2e a5 d6 3d
       0.067639485 -0.045553878 0.024008289 0.10480724
000310 38 96 f2 bc b0 a4 16 bc f8 e2 7d bd e8 1b bd 3d
       -0.029612646 -0.009194538 -0.061984032 0.09233838
000320 b8 4c d9 bc 40 2f dc 3b 90 83 20 bc b0 2b d0 3d
       -0.02652584 0.0067195 -0.009796992 0.10164583
000330 80 d8 0b bb f0 db 09 bd f8 a4 ab bd ac 5d aa bd
       -0.002133876 -0.033657014 -0.08381075 -0.08318648
000340 c0 7f 5f bb 26 11 d3 3d b8 e9 ee 3c f0 be d0 3d
       -0.0034103245 0.10306005 0.02916418 0.101926684
000350 32 bf 95 3d 94 11 90 3d 20 06 b5 3d 48 be c1 bd
       0.07311858 0.07034603 0.08839059 -0.094601214
000360 f8 7e e9 3d 00 c9 87 3a e0 c7 c1 3b a8 3f e1 bd
       0.114011705 0.0010359585 0.0059137195 -0.109984696
000370 08 a3 02 3d 2a 8c 9a 3d 28 71 2e 3d 60 83 39 bc
       0.03189376 0.075462654 0.042588383 -0.011322826
000380 c8 46 73 3d a0 d0 16 bc 20 b4 7a 3c 54 21 97 3d
       0.059393674 -0.0092050135 0.015301734 0.07379404
000390 88 12 d0 bd 92 a9 ff 3d 40 ac 4b bd 44 c6 86 bd
       -0.101597846 0.12483515 -0.049724817 -0.06580785
0003a0 e8 ff c0 3d 88 ed 81 bc 84 5e f7 bd 9c fb 5c 3d
       0.0942381 -0.015860334 -0.12078574 0.05395089
0003b0 0c 9c e8 bd 8a 98 9d 3d c8 0a 67 3d f8 09 5f 3d
       -0.113578886 0.0769511 0.056406766 0.054452866
0003c0 8c 7e 74 3d 40 66 51 bb d6 03 84 bd e8 ff d9 3c
       0.059690997 -0.0031951815 -0.06446044 0.026611283
0003d0 20 da 4b 3c 18 ad 87 3c ee 1d bb bd 00 8d c9 bd
       0.012442142 0.01656203 -0.09136568 -0.09841347
0003e0 40 b8 14 bd 4a a8 eb bd e0 6c ab bd 84 49 6f 3d
       -0.036308527 -0.11506708 -0.08370376 0.05841972
0003f0 c0 ea 55 bc 10 d3 77 bc 0a 96 df 3d 80 a1 fd ba
       -0.013056457 -0.015126005 0.109172896 -0.0019350499

critic.preprocess.model.model.0.weight f4 [64, 40]
000000 f2 4f e4 bd 47 8b 01 3e 52 e8 03 be ed 05 0b 3e
       -0.11148061 0.12650786 -0.12881592 0.1357648
000010 62 99 89 bd 71 3b 08 be 02 34 ef 3d b0 95 4e bc
       -0.067187086 -0.13303925 0.116798416 -0.0126089305
000020 c8 0a 86 3c 2f 0d 09 be ec b0 32 3d 76 f0 d4 bd
       0.016362563 -0.13383935 0.043625757 -0.10397427
000030 70 c9 45 bd 3e 4e cd bd e0 10 14 bc 0a 77 fb 3d
       -0.04828781 -0.10024689 -0.009037226 0.12278564
000040 be 26 2b bd ca 2c 08 be 32 41 c5 3d 9c ca 04 3d
       -0.041784994 -0.13298336 0.09631576 0.032419786
000050 3d 4a 86 bd f6 28 15 be 75 f7 b9 bd f8 ba 07 be
       -0.065571286 -0.14566407 -0.09080402 -0.13254917
000060 70 9f b9 bd 08 4d 9e bc f6 49 db bd fc 60 52 3d
       -0.090636134 -0.01932384 -0.10707466 0.051362023
000070 9a 3a f3 bd 6a 44 f4 3d 37 16 e3 bd 90 02 66 3c
       -0.11876412 0.119271114 -0.110882215 0.014038697
000080 00 c8 72 bd 00 97 47 ba 62 c5 3a bd 68 f5 b8 bc
       -0.059272766 -0.00076137483 -0.045598395 -0.022577956
000090 40 20 ed bd 90 91 3a bc ef 73 07 3e 39 57 9b bd
       -0.11578417 -0.011387244 0.13227819 -0.07584996
0000a0 ac cd df bd 3a a8 88 3d 3a d4 f8 3d 9d 70 8d bd
       -0.10927901 0.06672712 0.12149854 -0.06906245
0000b0 6e 79 47 bd 96 b9 c3 bd a0 d5 f5 3b e2 a2 db 3d
       -0.04869979 -0.09556882 0.0075022727 0.10724427
0000c0 8e 9a d5 3d e8 35 f3 bd c0 0b 04 be 16 db 3e bd
       0.104298696 -0.11875516 -0.12895107 -0.046595655
0000d0 b8 da f1 3c 58 ff 9d 3c 28 e7 00 bd 68 cf f3 bc
       0.029523239 0.019286796 -0.031470448 -0.029761985
0000e0 54 d8 d9 bd 74 7b 45 bd 84 0b fa bd 38 06 6d bd
       -0.106369644 -0.048213437 -0.12209228 -0.05786726
0000f0 b8 ec e7 bd 38 4e 9a 3c 6c 70 a8 3d cc cf fa bd
       -0.113244474 0.018836126 0.08224568 -0.12246665
000100 d2 1d dd 3d a0 96 15 3d 8b 99 18 be 08 7e b5 3c
       0.107967034 0.0365206 -0.14902322 0.022154823
000110 4c 1e 33 3d 6d 3a 12 be f2 7f 00 be 5b b3 00 3e
       0.043730065 -0.142801 -0.12548807 0.12568419
000120 53 21 17 3e b2 db d4 bd 7a 0a e6 bd 4c c8 1f 3d
       0.14758806 -0.10393466 -0.11232467 0.039009377
000130 87 4e da bd 18 98 03 bd 84 c7 6d bd 77 cd ba bd
       -0.10659509 -0.03212747 -0.0580516 -0.091212206
000140 ea 1d d1 3d 0d ce 05 3e 0a 2e a4 3d 82 83 f6 3d
       0.10210784 0.13066883 0.08016594 0.12036802
000150 0a f1 b2 bd 20 9c eb bd c0 76 d3 3c 24 ad f4 bd
       -0.08737381 -0.11504388 0.02581346 -0.119470865
000160 80 f5 e5 ba 26 e4 c3 3d 8f bf 07 be 10 c9 ae 3d
       -0.0017544478 0.09565 -0.13256668 0.085344434
000170 a4 4e 7a 3d 26 48 c9 bd 67 23 14 be 66 69 8d 3d
       0.061110154 -0.09828214 -0.1446663 0.06904869
000180 a6 93 eb 3d 24 0d 78 3d 11 3e 08 3e 11 28 ca bd
       0.11502771 0.060559407 0.13304926 -0.09870923
000190 f2 1d c8 bd 36 a8 f9 bd f0 c2 f7 3c 88 76 50 3d
       -0.097713366 -0.12190287 0.03024432 0.05089429
0001a0 38 01 04 be 81 89 0d 3e c7 eb 00 be 11 08 09 3e
       -0.1289109 0.13821985 -0.12589942 0.13381983
0001b0 16 9a ab bd 5a bb fc 3d c3 a5 f6 bd ca ab d8 3d
       -0.08378999 0.12340422 -0.12043335 0.10579641
0001c0 d0 d8 21 3d 17 f6 18 be e4 0d 06 bd 68 ad 1e 3d
       0.03951341 -0.14937626 -0.03272809 0.03873959
0001d0 f3 8b 07 3e 77 fd 8c bd 03 9e 10 3e 7b c2 0c 3e
       0.1323698 -0.06884282 0.14122777 0.13746063
0001e0 ca 0f 4b bd 86 16 9b bd 10 d2 03 3d 9a 97 b1 bd
       -0.049575604 -0.075726554 0.032182753 -0.08671494
0001f0 ee 51 76 bd 30 ec 70 3d 80 f9 f7 3c 14 b9 76 bd
       -0.060136728 0.058818996 0.030270338 -0.060235098
000200 38 38 02 be b2 58 be 3d ae 09 08 be 44 3d 04 3d
       -0.12716758 0.09294261 -0.13284943 0.03228499
000210 20 ca 82 bd 69 0c 06 be 60 c9 de 3b 9a 84 e7 3d
       -0.063862085 -0.13090672 0.006798908 0.113045886
000220 60 68 cc bb ad 3b 1c 3e c0 fa 05 3c da f7 c8 3d
       -0.0062380284 0.1525714 0.008177459 0.09812899
000230 c0 44 cd bc c9 0c 02 be 8c cd 9a 3d 7d e3 ae bd
       -0.025057197 -0.1270019 0.07558736 -0.08539484
000240 64 2f c9 bd 07 d1 e3 bd 16 9a f0 3d 2b f4 0e 3e
       -0.09823492 -0.11123853 0.117481396 0.1396033
000250 80 fc f2 3b a4 46 a0 3d 6c f9 a1 3d b3 8f 20 be
       0.0074153543 0.07825974 0.079089016 -0.15679817
000260 60 c3 8f bb 61 e3 1c 3e 00 55 e8 bd a0 39 da 3b
       -0.004387304 0.15321113 -0.113443375 0.0066597015
000270 c9 b8 82 bd 00 97 27 3c af ac 0a be d0 55 00 be
       -0.06382901 0.010228872 -0.13542436 -0.12532735
000280 55 43 cf bd 74 c6 4d 3d e8 8f cc 3c 84 4f d7 bd
       -0.101202644 0.050238088 0.024970964 -0.10513213
000290 d0 00 b8 3c 00 36 93 3d 00 75 da 3b 70 12 18 be
       0.022461325 0.07188034 0.0066667795 -0.14850783
0002a0 10 25 33 3d 04 0d 14 be 25 74 b6 bd 52 e3 07 be
       0.043736517 -0.1445809 -0.089088716 -0.1327031
0002b0 31 d7 11 3e 00 a8 99 bc 64 ad 6f 3d 3c 49 66 bd
       0.14242245 -0.018756866 0.058514968 -0.056222185
0002c0 91 8a 82 bd e0 3e 48 3d 92 c8 b5 3d 96 0e c9 bd
       -0.06374086 0.048888087 0.088761464 -0.09817235
0002d0 78 cf 5f bd 92 35 b8 3d 66 af ea 3d 48 8f 80 bc
       -0.054641217 0.08994593 0.11459236 -0.015693322
0002e0 fd 74 12 3e 42 5f 95 bd 30 57 56 bc eb 01 99 bd
       0.1430244 -0.072935596 -0.013082311 -0.07471069
0002f0 52 e9 18 be 30 ab 46 bd af 49 21 3e 78 da e4 bd
       -0.14932755 -0.0485031 0.15750764 -0.11174482
000300 20 55 ce bb aa c7 39 bd ee 39 82 3d ab 5b 12 be
       -0.006296769 -0.04535643 0.063587055 -0.14292781
000310 69 46 21 be 2c c4 73 bd 5c d4 ed bd 00 7e ad bb
       -0.15749516 -0.059513256 -0.1161277 -0.0052945614
000320 30 f4 28 3c b0 92 6a bc 48 d1 d9 bc e8 0f 91 bc
       0.010312125 -0.0143172 -0.02658905 -0.01770778
000330 10 60 00 3d c7 4b 12 3e 6c 76 26 3d c1 a7 b0 bd
       0.031341612 0.1428672 0.04064028 -0.086257465
000340 ae ea c8 3d 50 e4 e2 bd b9 ed 0e be 4e ef e8 3d
       0.098103866 -0.110787034 -0.13957871 0.11373769
000350 f4 27 99 bd 98 b2 e1 bc 58 74 98 3d 5a 31 2b bd
       -0.074783236 -0.02755098 0.07444066 -0.041795112
000360 78 ac f9 bc e3 27 0d 3e db 32 c8 bd 35 b1 05 be
       -0.030477747 0.13784747 -0.09775325 -0.1305588
000370 7b 59 8a bd 9f 58 03 be 08 52 2f bd 8d 36 20 3e
       -0.06755348 -0.12826775 -0.04280284 0.1564581
000380 1c cc fd bd 98 f9 60 bd 61 4d 0b 3e 81 88 05 be
       -0.123924464 -0.05492553 0.13603736 -0.13040353
000390 0e 2e fc 3d 80 c5 78 3c 00 ce ec bb 48 ea e5 3c
       0.12313472 0.015183806 -0.0072267056 0.028065816
0003a0 8c 25 07 be a0 4c 8f 3d 83 f4 bc bd 78 2e 98 bc
       -0.13197917 0.06997037 -0.092263244 -0.018576846
0003b0 0d 13 a2 bd 00 c9 b8 3c 28 27 6b 3d a8 00 ae 3d
       -0.0791379 0.022556782 0.05741039 0.08496219
0003c0 68 7d a2 bc c8 3f 95 3d 5e 3e ce 3d e0 f7 2f 3d
       -0.019835189 0.07287556 0.10070489 0.042961
0003d0 12 45 f6 3d aa b9 20 be f3 88 dd bd 2f c1 08 3e
       0.12024893 -0.15695825 -0.108171366 0.13354944
0003e0 5b 0c 10 3e c0 d0 db bd 02 98 86 3d 96 2c e9 3d
       0.14067213 -0.10733175 0.06571962 0.11385457
0003f0 e0 10 20 3d ac 1a 9a 3d a8 fb 99 3d 58 cc a2 3c
       0.039078593 0.075246185 0.07518703 0.01987283

critic.preprocess.model.model.0.bias f4 [64]
000000 80 9b 91 ba 83 5f 1b be b0 21 f3 bd 3a dd c8 3d
       -0.0011108965 -0.15173154 -0.1187166 0.098078206
000010 f0 33 8b 3d 3e 65 8c bd c0 60 aa bc 0e 54 8a 3d
       0.06797016 -0.06855248 -0.020798087 0.067543134
000020 22 20 f1 3d 0b ff bd bd ae 56 be 3d 00 00 1d b6
       0.11773707 -0.09277161 0.092938766 -2.3394823e-06
000030 c9 a8 0f be 78 9b 04 bd 71 3b a1 bd 8a 57 f2 bd
       -0.1402923 -0.03237483 -0.07872666 -0.11833103
000040 80 dc 6d bb e2 0f d2 3d 00 05 b3 3b 59 93 21 be
       -0.0036294758 0.10256936 0.0054632425 -0.15778865
000050 c0 33 30 3c 22 ea e1 bd ce 22 31 bd 77 34 0c 3e
       0.010754526 -0.110309854 -0.043246083 0.13691889
000060 90 ff 24 3d 30 32 01 be 00 0a 05 3b dc 9e 2f 3d
       0.040282786 -0.12616801 0.002030015 0.04287611
000070 bb 71 97 bd 50 09 13 3c e8 65 45 3d 3a c9 90 3d
       -0.07394739 0.008974388 0.04819289 0.07069631
000080 00 52 8c bc ca 6f dc 3d a0 cb ae 3d 58 96 c8 3c
       -0.017128944 0.107635096 0.08534932 0.024485752
000090 70 c3 d7 bc a3 80 13 3e af 02 17 3e 30 a2 b5 3d
       -0.026338309 0.1440454 0.14747117 0.088688254
0000a0 41 e8 a0 bd 60 c3 8c 3b dc 35 4e 3d 80 f7 20 be
       -0.07856799 0.0042957515 0.050344333 -0.15719414
0000b0 e0 c5 da bb 20 f3 eb 3b c8 7d fb bd c0 49 a1 bc
       -0.0066764206 0.0072006136 -0.1227985 -0.019688487
0000c0 c6 e6 1e be d6 42 ec 3d 02 da d2 3d f6 16 ed 3d
       -0.1551772 0.115361854 0.10295488 0.11576645
0000d0 30 97 0c bd 21 46 18 3e 66 68 82 3d 00 4b 43 3d
       -0.03432387 0.14870502 0.06367569 0.047678947
0000e0 9c 27 72 bd 0a ea 81 3d f8 29 1b be ac 11 07 be
       -0.059119806 0.063434675 -0.15152729 -0.13190335
0000f0 01 93 15 3e 07 14 0b 3e c6 ad e1 3d 18 bb e0 bc
       0.14606859 0.13581859 0.11019473 -0.027432963

critic.preprocess.model.model.2.weight f4 [64, 64]
000000 be 86 f1 bd 6a 79 d9 bd b6 8e a6 3d 68 a2 dc bd
       -0.11793278 -0.10618861 0.08132689 -0.10773164
000010 40 47 5d 3d 90 12 0b bd 6c 31 c3 bd 60 04 c2 3d
       0.054023027 -0.03395325 -0.09530911 0.09473491
000020 98 86 25 bd 88 e9 1b bd 40 22 42 3c 5e 76 b2 bd
       -0.04041156 -0.03806451 0.011848986 -0.08713983
000030 fe a5 80 bd 46 0f af 3d 34 d2 43 3d 56 c5 d2 bd
       -0.062816605 0.08547835 0.047807887 -0.10291545
000040 d8 59 03 3d 98 5e ec 3d 00 83 bc ba a4 b8 8f bd
       0.032068104 0.1154148 -0.0014382303 -0.07017639
000050 b0 53 24 3c 24 5a 4e 3d 00 a3 45 bd 08 c3 e5 3d
       0.010029718 0.050378934 -0.048251152 0.1121884
000060 68 dc 67 bd 80 ea dc 3a 00 18 30 ba 38 1f d1 bd
       -0.05660668 0.0016854554 -0.00067174435 -0.10211033
000070 5e 77 d2 bd 28 90 e7 bc 68 a4 00 bd 5e 32 c7 bd
       -0.10276674 -0.028266981 -0.03140679 -0.09726404
000080 80 e2 f9 3a 48 c9 9b 3d 64 51 89 3d a2 53 95 3d
       0.0019064695 0.07606751 0.06704977 0.07291342
000090 a8 83 b9 3c 60 4d 10 bd 44 a7 7c 3d 70 e5 a2 3c
       0.022645786 -0.03523004 0.061682954 0.019884795
0000a0 e0 7e 8a bc e0 ea 14 bc a8 41 71 bd ea 19 e3 bd
       -0.016906202 -0.009089202 -0.058900505 -0.11088927
0000b0 f0 ba f4 3c ce 51 ec 3d b4 a2 1e 3d 08 e2 e6 3d
       0.029874295 0.115390405 0.038729385 0.11273581
0000c0 00 32 08 bc 1c af ef 3d 48 f3 56 3d da 97 ae 3d
       -0.008312702 0.11703321 0.052478105 0.08525057
0000d0 a8 87 c3 bd 60 b9 b8 bc 4a ac 97 3d 54 84 ed 3d
       -0.09547359 -0.022549331 0.074059084 0.11597505
0000e0 ca 74 d1 3d 2c d2 92 3d d8 d4 de bd 3a 4e 92 3d
       0.10227354 0.07168993 -0.108804405 0.07143827
0000f0 10 30 0f bd de ed de 3d 80 94 21 3c 24 9e 19 3d
       -0.034957945 0.10885213 0.009862065 0.03750433
000100 5c 78 f9 3d 8a c0 cd bd 96 04 9b bd aa de 83 3d
       0.1218116 -0.100464895 -0.07569234 0.06438954
000110 dc ad f6 bd 58 30 a8 3c 2e 7a fd bd 20 59 42 3d
       -0.1204488 0.020530865 -0.123768196 0.047448277
000120 cc 69 e5 bd 2e da f4 bd a0 52 ba 3c 00 66 a5 ba
       -0.1120182 -0.11955677 0.022744477 -0.0012618899
000130 22 58 d7 bd a4 c2 f0 3d a4 10 cb bd e8 12 db bd
       -0.10514857 0.11755875 -0.09915283 -0.106969655
000140 24 19 18 3d 20 cc ff bd 94 12 f1 3d 98 42 93 3c
       0.03713335 -0.12490106 0.117711216 0.01797609
000150 f0 26 38 3d 48 fe bc 3c c8 59 20 3d 46 53 fd 3d
       0.04495901 0.02307047 0.039148122 0.12369399
000160 e4 68 61 bd ec d5 0f bd 00 37 f5 bb 48 1d 05 3d
       -0.055031672 -0.03511612 -0.007483363 0.032498628
000170 80 4c 5e 3c ec 2c ed 3d 5e c4 b0 3d 14 63 94 3d
       0.013568044 0.11580834 0.08631204 0.0724546
000180 24 22 90 3d 1c 22 31 3d 20 86 bd 3c a0 6e 3e bc
       0.07037762 0.04324542 0.023135245 -0.011623055
000190 80 c3 fa 3b c2 1f bc 3d 06 5e 92 3d 80 e0 87 3c
       0.0076527 0.09185745 0.0714684 0.016586542
0001a0 34 55 8e 3d 84 51 9c 3d 00 54 29 3a a0 e4 8b 3d
       0.06949845 0.07632735 0.00064593554 0.06830716
0001b0 3c 4b ab bd 26 be f3 3d 68 5e fa bd e4 42 85 bd
       -0.08363959 0.11901502 -0.12225038 -0.06506899
0001c0 94 9b d4 3d de c0 ad 3d 86 20 bd bd 98 ec 84 3d
       0.10381237 0.08484052 -0.09234719 0.06490439
0001d0 88 92 c1 3c 8a 31 c7 3d 72 74 a8 3d 28 ea d8 bd
       0.023629442 0.09726246 0.08225335 -0.10591537
0001e0 34 31 d2 3d f8 cd e4 3c 84 ec 07 bd f0 51 51 bd
       0.10263291 0.027930245 -0.033184543 -0.051103532
0001f0 70 35 ca bc c2 a7 d3 bd ea 95 ef bd 70 18 0b 3d
       -0.024683684 -0.10334732 -0.11698516 0.033958852
000200 8a c5 f6 bd a0 54 b9 3c a4 db 2d 3d ec 26 8b bd
       -0.12049396 0.02262336 0.042445794 -0.06794533
000210 50 59 74 3d a0 6e b0 3d fa 6b 83 bd e8 cf cf bc
       0.059655488 0.0861485 -0.06417079 -0.025367692
000220 b0 9d 23 3c 60 ff 39 bd 80 c4 5b 3d 58 7f dc bd
       0.009986326 -0.04540956 0.053654194 -0.107664764
000230 3e 42 e4 3d 36 97 f4 3d 98 c0 78 bd 2e 07 be 3d
       0.11145447 0.11942904 -0.060730547 0.09278713
000240 28 2a d0 bd 08 d9 c4 bc c0 9e 78 bd a0 3b 64 3c
       -0.10164291 -0.02402927 -0.06069827 0.013930231
000250 d0 04 fa 3c b0 50 95 bc a0 e5 13 3d 58 7c 0e bd
       0.030519873 -0.018226951 0.03610766 -0.034786552
000260 0c 27 de bd 38 50 88 bd 00 21 d3 3a f0 dd 8f 3c
       -0.10847291 -0.066559255 0.0016107857 0.017561883
000270 e4 f5 7f 3d 54 13 a0 3d 66 e6 e3 bd 46 35 dd bd
       0.06249036 0.078161865 -0.111279294 -0.10801177
000280 2c 42 be 3d f6 47 80 bd 34 07 cd 3d d4 01 42 bd
       0.09289965 -0.062637255 0.100111395 -0.047365025
000290 9e ee af bd 80 0e c4 3c 20 8f 09 bd fe e2 ff bd
       -0.085904345 0.023932695 -0.03358376 -0.12494467
0002a0 dc 7a 5c 3d d8 a2 8b 3c 08 f6 e3 bd d2 31 a3 bd
       0.053828105 0.017045423 -0.11130911 -0.07968487
0002b0 30 a3 a5 bc 4c d1 d7 3d 40 17 e0 3b 1c 18 fe bd
       -0.020219415 0.10537967 0.006838709 -0.12406942
0002c0 70 0b 25 bd 8a 68 ce 3d b8 1b ad bc 28 e1 55 bd
       -0.04029411 0.10078533 -0.021131381 -0.05221668
0002d0 34 8e c0 3d a4 46 eb bd 76 68 a9 3d f8 6d 57 3d
       0.09402123 -0.11488083 0.082718775 0.05259511
0002e0 e0 55 76 bc 18 69 c5 bd 18 48 3c 3d a4 cc 35 3d
       -0.015035123 -0.09639186 0.04596719 0.044384614
0002f0 70 9f 3f 3d 6c 7e 87 3d 40 fc 1a bc 8c 94 14 bd
       0.04678291 0.0661591 -0.009459555 -0.036274478
000300 30 bd 9e 3c 18 74 c6 bc 26 9e d4 3d 54 35 83 bd
       0.019377321 -0.02422528 0.10381727 -0.06406656
000310 00 7a 91 bd 58 b4 2e 3d 76 a3 8c 3d 2e e8 e5 bd
       -0.07103348 0.042652458 0.06867115 -0.112259254
000320 d8 2b 42 3d 64 3d 04 bd 70 af 4f bc 7c 72 0e 3d
       0.047405094 -0.03228511 -0.012676105 0.03477715
000330 48 97 87 bd 8c 5e c1 3d 4e b2 de bd 6e 39 d2 3d
       -0.066206515 0.094418615 -0.10873853 0.1026486
000340 0e 9b ef 3d 0c ba 82 3d e2 e6 d2 bd 6c 2e 7d bd
       0.11699496 0.06383142 -0.10297944 -0.06181185
000350 80 da 11 bb d0 a4 87 3d 60 a3 4b 3d 54 f3 ae 3d
       -0.002225548 0.06623232 0.049716353 0.08542505
000360 e8 a5 9e bc c2 8b c4 3d a0 65 a7 3c 44 06 38 bd
       -0.01936622 0.09596969 0.0204342 -0.04492785
000370 f8 b4 b9 bc 84 da 8c 3d d0 54 50 3c 78 af ec 3d
       -0.0226693 0.06877616 0.012715533 0.115569055
000380 d0 c7 d5 3c 8a c6 cf 3d 30 55 dc bd 38 5b f9 3d
       0.026096255 0.1014529 -0.10758436 0.12175602
000390 74 3c d0 bd c6 c2 85 3d 30 73 82 bd 58 62 ec 3d
       -0.101677805 0.06531291 -0.063696265 0.11542195
0003a0 50 63 07 3d 0c d6 c4 bd f8 85 93 bd c0 d3 b2 bd
       0.033053696 -0.09611139 -0.07203287 -0.08731794
0003b0 12 58 8c 3d a8 70 79 bd 40 3d e4 bd d0 60 19 bc
       0.068527356 -0.060898453 -0.11144495 -0.009361461
0003c0 7e e7 eb 3d 08 4c 8e bc 96 66 90 3d 10 95 b5 bc
       0.11518763 -0.017370239 0.07050817 -0.022165805
0003d0 26 99 bb 3d 16 40 de bd ae 6d de bd fc 69 91 3d
       0.0916007 -0.10852067 -0.108607635 0.07100293
0003e0 fc 10 aa 3d cc aa 5d bd e0 7f 90 bd 18 f6 04 bd
       0.08304021 -0.054117963 -0.0705564 -0.032461256
0003f0 5a fe ee 3d 90 aa 32 bc 70 d3 3b 3d 3c 16 33 bd
       0.116696075 -0.010904923 0.04585594 -0.043722376

critic.preprocess.model.model.2.bias f4 [64]
000000 80 07 72 bb 50 d9 21 3d 2e e4 b7 3d 34 39 e7 3d
       -0.003693074 0.039513886 0.08979069 0.112902075
000010 d0 ae 85 3d d4 4d af 3d f4 a1 e7 3d d0 2f 78 bc
       0.065274835 0.085597664 0.11310187 -0.015148118
000020 7c 9f a7 3d e8 cc bc 3c d0 62 fe bd 26 6a e0 bd
       0.08184716 0.023046926 -0.12421191 -0.10957746
000030 38 f6 f8 3c c8 78 fa 3c 8e 39 c1 3d 3a a6 b2 bd
       0.030390844 0.030575171 0.09434806 -0.087231115
000040 6e a7 f9 3d 66 81 d6 bd bc 94 3f bd 8a 0e 97 3d
       0.12190138 -0.104738995 -0.046772704 0.0737582
000050 c8 ce f5 3c d6 fd f4 bd 6a 45 d9 3d 2a e3 b1 bd
       0.030005828 -0.11962478 0.10608943 -0.08685906
000060 e0 67 b8 bd e8 f0 f0 3d a0 2a ad bc 52 71 cb 3d
       -0.090041876 0.11764699 -0.02113849 0.099337235
000070 3c d8 82 3d 88 e4 af 3d 48 d1 a1 bc fc eb a4 3d
       0.063889 0.08588511 -0.019753113 0.08052823
000080 c0 ac 1a 3c 0c d5 6d bd a0 ba 85 3c 84 4b b8 bd
       0.009440601 -0.058064505 0.016324341 -0.089987785
000090 44 96 c0 bd 28 9a 64 bd 80 62 f1 3b 80 1d 8d 3a
       -0.09403661 -0.055811077 0.0073664784 0.0010766238
0000a0 a2 93 bc 3d 80 78 79 bc f0 18 c9 3d 96 43 ca 3d
       0.09207846 -0.015226483 0.098192096 0.09876172
0000b0 de 7a 8d bd 10 df ab bd b0 20 38 bc 68 ae 80 3c
       -0.06908201 -0.08392155 -0.011238262 0.015708163
0000c0 84 07 cc 3d e2 6f 93 3d fe a0 b7 3d 00 ce 15 3b
       0.09962371 0.07199074 0.08966254 0.0022858381
0000d0 d0 ea 05 bc 70 1a a6 bd f8 22 f9 bd 70 46 12 3c
       -0.008173659 -0.08110511 -0.12164873 0.008927926
0000e0 7a 07 a7 bd 42 34 bd bd 56 c2 e0 3d 64 51 88 bd
       -0.08155723 -0.09238483 0.10974567 -0.06656149
0000f0 12 0a b0 3d a2 8c c2 bd 50 7d f2 3c 86 fb 9b bd
       0.08595671 -0.0949948 0.02960077 -0.07616334
