log/CartPole-v0/a2c/policy.pth (torch, 908815 bytes, 22 tensors)

actor.preprocess.model.model.0.weight f4 [64, 81]
00000000: 1e01 5cbd fd81 153e 3ebc 4fbd 3f94 0c3e
00000010: 7f6f 3bbc c825 4fbd 88c6 2e3d 754c 4fbc
00000020: 3549 583d efa6 60bd 8189 f2bc 96ea 03bd
00000030: 9d73 9cbd a72a edbd f1a7 fc3c db7e 223d
00000040: f531 823c 9c0c 48bd 54b3 f73c b8fa ab3d
00000050: 22f7 b8bd e0b0 0bbe dd1a e2bb c52d 6cbd
00000060: 494c d5bd d8e5 a3bd 11a5 edbd a493 ccba
00000070: e654 aa3a 8755 fa3d bb52 f6bc b337 433d
00000080: 286c a5bd be8e 133d a73b 8dbd 99de b83c
00000090: 147c f3bd b5ac 38bd d691 603d 5665 60bc
000000a0: dd7b f0bd c6f6 203c 9202 fb3d a5ba 2cbc
000000b0: 490e 8ebd 2766 e7bd bea4 2cbd 6051 153d
000000c0: 6227 e93d d8e9 36bd dd0b 04be 6f85 a53c
000000d0: 5569 8ebc b91d ffbc 9093 ba3c 9333 6ebd
000000e0: b5c1 3bbd 33ef 623a 2c40 fabd ca61 a5bd
000000f0: 4db4 05be a22c 5d3d 6ee1 c23d 1db5 44bd
00000100: 2aa4 f23d 8c9c 863d 870d 89bd 2639 663d
00000110: f967 d73d 9a9e 78bd eeff c0bb 0191 033e
00000120: 0012 833d 7763 e1bd d4b9 f0bd bc7d 873d
00000130: 1c03 13bd 74e7 93bd ed8a 323b 7d61 dabd
00000140: 60fe 7c3d 89fc 733f f59c 923e e133 373e
00000150: 4e94 703d 0657 0e3d a4bb 043e 248e 35be
00000160: 750a 513f 4782 293e ceae 80ba 48ef c2bd
00000170: eebd 163e 4de7 3bbe e339 fabe 2367 073e
00000180: dbe5 b6bd ea67 1e3e 3486 6d3e d7c2 27be
00000190: 81e9 a73e 9be9 fdbe 998c 90bd 7c81 6b3e
000001a0: fca0 48bc 40ca 57bc cb5a e6be 6767 4ebc
000001b0: 8431 1dbe fe5e 123f 25f4 7d3b 5f5a 443e
000001c0: ecba 043e c58a 4ebe 7261 813d 20b4 bdbd
000001d0: e86f 7d3e 65e0 06be 9ec7 733c 94e9 283c
000001e0: b79c 7d3d a553 2bbe 64a9 87bd c66c d53c
000001f0: 8bab 473d c101 76bd 04f8 edbd 638e 99be
00000200: 9c7d 3cbe 0e30 283e 0269 4bbb 5d23 e7bd
00000210: 79f1 f83d 2bec 36be ca83 04be 620c 613e
00000220: 8797 bdbd 8d3c 6d3e 17a5 c23d 72d7 2fbc
00000230: c9f7 ebbd 4309 77be ff37 163e 6071 bb3c
00000240: 83f5 b63c ca58 1c3d 9871 363e dbe4 3b3e
00000250: 8f72 e73d fa0d 013f 8a75 1e3e 2ee7 113f
00000260: d245 d33d 93a6 563c d457 2fbe 9daa abbd
00000270: a99f 513d e9d6 cf3d 4cf1 6bbe 1820 163d
00000280: dbdc 74be 65cf d03c 04ff 683f bc85 263e
00000290: aa88 b13d 30a5 1d3e 04fa d73d e443 57bc
000002a0: c9d0 1ebd 593a 3e3f 654f 463c b173 c2bc
000002b0: 54d8 30bd 0d19 903d 234e 5fbd adff eebe
000002c0: bbf5 663c 6d4f 08be d7c7 1d3e b84f 653d
000002d0: 2035 e2bd 1700 023f 0e83 c3be 1ef3 a3bd
000002e0: ff81 963e cdf6 a53a a369 cebd 8aeb f2be
000002f0: 1a96 42be ab19 d9bd 6b65 363f 1be6 5cbc
00000300: 82be be3d 6102 4e3d c1dd f8bc e779 1cbd
00000310: 5fb4 5bbe acba cd3d 0f2d 0fbe aad8 81bd
00000320: fd2b 5ebd 4691 843d b25a e8bd 0a11 9ebd
00000330: d2ca af3d 78f1 2c3e e39d 5abd 82d0 3cbe
00000340: f4d2 4cbe 290c 1abe 247d b1bc 5daa 163e
00000350: 801d 32be c152 0f3e dd94 2cbc 6657 19be
00000360: 30e1 db3d 0f55 013d a8ef 333d abd2 c2bc
00000370: ce2f d0bd e005 2abe c82b 2ebe a209 383e
00000380: 3d1d f0bc 89d6 f03c 161b 473e d6b5 96bc
00000390: 0811 163e 0c29 ca3d e464 063f 6f15 c83d
000003a0: e93d 353f 5e94 093e 5815 0cbe 1f2e a7bd
000003b0: 1b22 f5bd 85ce b63d 591d e63d 287a 76bd
000003c0: 8a3c c43d 08dd e3bd 5b46 9a3d e49a 843e
000003d0: aaa9 763e bfe1 dc3c be92 8d3d 0a4b 843e
000003e0: a6ab 733e 760b 59be 1ce7 9f3e 6fd8 5c3e
000003f0: 9900 293e c7d7 bcbd b23d 483e 4584 06be
-0.053712003 0.14600368 -0.05071663 0.13728426 -0.011440157 -0.05057314 0.042669803 -0.012652506
0.05280419 -0.0548467 -0.029606583 -0.03220614 -0.07639239 -0.11580401 0.0308418 0.03967176
0.015892962 -0.04884015 0.030236878 0.0839743 -0.09031512 -0.13641691 -0.006900175 -0.057660837
-0.10414941 -0.080028236 -0.116037495 -0.0015607965 0.0012995272 0.12223344 -0.030068746 0.04766054
-0.0807727 0.0360248 -0.068961434 0.02256708 -0.118889004 -0.04508658 0.05482658 -0.013696035
-0.11742375 0.00982446 0.122563496 -0.010542546 -0.069363184 -0.11298781 -0.042149298 0.03645456
0.11384465 -0.044656605 -0.1289515 0.020205228 -0.01738421 -0.031142103 0.022775441 -0.058154654
-0.04583903 0.0008656859 -0.12219271 -0.080752924 -0.1305706 0.053997643 0.095156536 -0.048024286
0.11847718 0.06572828 -0.06692033 0.056206845 0.10517878 -0.06069813 -0.005889884 0.12848283
0.063999176 -0.110052995 -0.11754194 0.06615779 -0.035891637 -0.072218806 0.002724345 -0.10663126
0.06176603 0.95307213 0.28635374 0.17890884 0.058735184 0.03475096 0.12962204 -0.17730004
0.8165658 0.16553603 -0.0009817721 -0.095182955 0.1472089 -0.18349953 -0.4887229 0.13222937
-0.0893056 0.15469328 0.23195726 -0.16382919 0.32795337 -0.4959229 -0.07058067 0.22998613
-0.012245413 -0.013170779 -0.44991145 -0.012597895 -0.1535092 0.57176197 0.0038750258 0.19175099
0.1296193 -0.20170124 0.06317414 -0.09262872 0.2474972 -0.13171537 0.014879135 0.010309596
0.061917033 -0.16731127 -0.066241056 0.026052844 0.04874758 -0.060060266 -0.11619571 -0.29991445
-0.18407291 0.16424581 -0.0031037931 -0.11286042 0.12155432 -0.17863528 -0.12940899 0.2197738
-0.09257417 0.2316763 0.09504145 -0.0107325185 -0.11521871 -0.24124627 0.14669798 0.02288121
0.022333866 0.038170613 0.1781677 0.1834902 0.11301147 0.5041195 0.15474525 0.5699338
0.103160515 0.013101238 -0.17123348 -0.08382151 0.051177654 0.10148413 -0.23041266 0.0366517
-0.23912375 0.025489518 0.9101412 0.16261953 0.08668645 0.15395045 0.105457336 -0.013138745
-0.03877333 0.7430778 0.01210389 -0.023736807 -0.043175057 0.07036028 -0.054517876 -0.4667944
0.014096673 -0.13311549 0.15408264 0.05598423 -0.11045289 0.5078139 -0.38185924 -0.08005355
0.29396054 0.0012662053 -0.10078742 -0.47445327 -0.19002572 -0.10600599 0.712485 -0.013482596
0.0931368 0.050295237 -0.030379178 -0.038202193 -0.21455525 0.100453705 -0.13982032 -0.063401535
-0.05424117 0.06473021 -0.11345424 -0.07718094 0.08583607 0.16888988 -0.05337323 -0.18438914
-0.20002347 -0.15043701 -0.021666117 0.14713426 -0.17394066 0.13996412 -0.010533539 -0.14974746
0.107363105 0.03157526 0.043929726 -0.023782095 -0.10165368 -0.16603804 -0.17008889 0.17972425
-0.029310817 0.029399173 0.19443926 -0.018397253 0.14654934 0.0987111 0.52497697 0.09769713
0.7079759 0.13435504 -0.13680017 -0.08163094 -0.11969396 0.08926109 0.11236066 -0.06017509
0.095818594 -0.11126143 0.075329505 0.25899422 0.24088159 0.026963113 0.069127545 0.258385
0.23795947 -0.21195778 0.3123101 0.21566938 0.16504134 -0.09220844 0.19554785 -0.13136394

actor.preprocess.model.model.0.bias f4 [64]
00000000: 6d0e ae3d a273 e83d 7f2f d63d 3c40 583a
00000010: 8b91 7bbd 856d 9abd 3b8d fbbd 3972 753d
00000020: 8da8 d03d 8b2e dfbd c1f1 733d 6299 00be
00000030: 0764 843d d79f ba3d 8858 8f3b c523 d43d
00000040: 829c 8dbd a808 23bd 42f5 ebbc 7e3f e3bd
00000050: 7fcd cb3d 6cda 95bd 8720 8bbd 75ec 983d
00000060: b6c9 b73d bae2 0fbd 92f2 3bbd 5b60 7c3b
00000070: 43bc 36bd 3234 2a3d 8d76 253d b838 0abc
00000080: afe8 463d c8df be3d 9092 a4bc 5495 ddbd
00000090: dcbc e1bd 7dd5 4c3e dcd7 cd3d 88f8 bb3d
000000a0: 321c 7d3d 8900 34bc 1db3 02be 22ce d3bd
000000b0: 7efd d33d 07c6 063e 6036 1e3c cafc edbd
000000c0: a29c a1bd 6802 9f3d 9106 8ebd 588f 3dbd
000000d0: e0c3 ddbd 4f5e 103e 64c0 c63b 59da 5bbd
000000e0: 157e e73d 4691 c0bd 324d a73d 5066 ea3b
000000f0: cae1 e3bd ec74 2e3e 1fe6 153d 904a da3c
0.08498845 0.1135018 0.10458278 0.0008249318 -0.061418097 -0.075404204 -0.12282797 0.059923384
0.101883985 -0.10897549 0.059556726 -0.12558511 0.06464391 0.09112518 0.0043745674 0.10358385
-0.06914617 -0.039803177 -0.028803471 -0.110960945 0.09951305 -0.07317051 -0.067933135 0.074669756
0.0897402 -0.035128333 -0.04588563 0.003850958 -0.044613134 0.041553684 0.040396262 -0.008436374
0.048561748 0.09320027 -0.020089418 -0.10819498 -0.1102235 0.20003314 0.100509375 0.09178263
0.061794467 -0.010986456 -0.12763639 -0.10342051 0.10351084 0.13161479 0.009656519 -0.11620481
-0.078912035 0.07764131 -0.06934846 -0.04627928 -0.10828376 0.14098476 0.006065415 -0.05367503
0.11303345 -0.09402709 0.08169021 0.00715331 -0.1112705 0.1703679 0.036596414 0.026646882

actor.preprocess.model.model.2.weight f4 [64, 64]
00000000: b2c2 ff3c e867 52bd 1b94 e83c 30cd e93c
00000010: 570a 97bc f0f6 c1bc 0843 cfbc e8e9 92bc
00000020: 5f06 b33d 59ac 893d adae b63c 3ec3 8c3c
00000030: a472 c23d 6635 4dbd e05d 543d 5a8b f23d
00000040: c5ad c2bd b07f fbbc 309a fcbd 3f33 bbbd
00000050: cf44 8dbd 9e1a 98bd c0f1 62bd 34b7 213d
00000060: 4157 7e3d a5f1 46bd 904a 093d ab7b 80bd
00000070: ccdf 673d 8c36 2cbd cb1d 7b3d 2827 9bbd
00000080: 14b7 e73d d3bf 5abd 1801 be3d 00dd e6bd
00000090: 36b2 1b3b 48dc 8a3e 5fa3 a13d 0f92 24bd
000000a0: 9a55 c0bd 708d f53d dc9c 313d d883 ad3c
000000b0: 79b3 4b3e 8ec3 7f3d 863a ecbd 66e8 f33d
000000c0: 76d1 55bd 21c0 60bd 0061 97bd dae4 2b3b
000000d0: b0af 2d3c a435 f93d 2ad0 e53d a872 6abd
000000e0: 3798 033a 4ca3 1c3d 171b e73c 780c abbd
000000f0: d005 283b 5648 ea3d 51ce b43d add9 d4bb
00000100: ffe5 973d 3c1c 403d 7c35 bebc d0f1 9d3d
00000110: 86c2 f8bd ba5f 96bd 8eb9 4fbd 38dd 4ebd
00000120: 91bc dabd f681 163c 25ad 31bc 1551 763d
00000130: 13db df3c 200e 0d3d c091 aebd 116b 773d
00000140: f7f4 91bc ce46 9b3d ac78 febd 6f98 67bd
00000150: ed8e f3bd 749b 27bd 5867 f7bc 9527 a83d
00000160: fe9b 6d3d bac2 943d 708a 4dbc f565 733d
00000170: cb9e 50bd a877 dc3d 436d 283d 7d82 ddba
00000180: 8cb9 db3d d1cd cf3c 162a 9dbd 48cc 0bbd
00000190: 17f4 39bd bf21 d6bd dbba 813c 502f 8d3d
000001a0: c9c7 adbd 425c bd3d d7ce 853d 625a f2bd
000001b0: 09be 2dbe f8f9 ae3d 0067 7f3b 02b2 18bd
000001c0: 5405 84bd e565 123c 20cc 9a3d ae4e b03d
000001d0: 09b3 d13d 9e9d e1bc 5b56 bc3d 4dac a03d
000001e0: 001d 84bc 7377 fdbd 0b5b 323d d8b4 8d3c
000001f0: 68b4 c73d 4d62 2fbd 4d37 8c3d f9d6 6f3d
00000200: fd54 91bd 8043 2bbc 5549 d2bc 3fa8 b63d
00000210: d0de bbbd 1178 d53d 6b0f 8e3d 4e5a 3b3d
00000220: 1c11 393e dca7 343d 7f94 cf3d 0bff 65bd
00000230: f907 4a3d 3167 96bd ccf6 333d 453d a3bd
00000240: 6f33 743d 8837 8fbd 6de0 5abc 0f73 b33d
00000250: f21e 8ebc dc9a b43d d059 3fbd 94f4 423d
00000260: 2812 f83d 1de2 e3bd 441f 2dbd 2a18 0cbd
00000270: 0ee8 d7bc f049 98bc 23ad 1e3e 8ddd 7d3d
00000280: a3e2 f23d 537d 06be 96fc ccbd 585f d7bd
00000290: a240 a6bd 16d9 513e f56d 573e 7928 01bd
000002a0: 0128 563d 6c0f b2bd fea6 bf3d d000 a43d
000002b0: ede5 d4bc f6de 2fbc d809 ac3c eac0 05bd
000002c0: c0af e03d 40d5 b539 f4ec 62bc 975c d1bc
000002d0: 21d8 9e3c 6ea7 44bd f76e f63d 39c1 073d
000002e0: 74ce 1cbd 3f4c 02bd 8e61 833d 0883 4abd
000002f0: 3e8d c33d 42d9 103e 8f30 183d 02c9 9bbc
00000300: 219d 603d 0248 253d 47f7 133e 2458 6dbe
00000310: 7ec0 49bd 5a88 86bd 6390 9fbd 5868 ee3c
00000320: 8fb4 943d 600b b4bd 719d 6fbd 3ed7 4d3d
00000330: c5fd 12bd e4a6 99bd 475b 6c3c 0e7b a9bc
00000340: 43b8 143e 50eb 913d e592 4d3d 0c29 31bd
00000350: b630 213d 0c47 333d e0a6 ba3c b446 55bd
00000360: 888a 6dbc 9c90 cfbc c643 99bd 4fa1 c7bd
00000370: 5004 a8bd d852 983d 64b2 053e 8317 4b3d
00000380: 15f1 1d3e c5a8 063e b4e2 463d 9291 c73d
00000390: 3307 a3bc 576e 353e 2159 263e 3fec 163c
000003a0: caf9 c33c 5df2 c03d 1cc6 b4bd 4c22 6c3d
000003b0: 81d0 a8bb 5d57 533d 4046 59bb 3c11 21bd
000003c0: 1f3e 4bbd a261 5cbd c274 d33d 4403 9b3d
000003d0: 620c 86bd 653d d63d c04c c83d 4e66 8cbc
000003e0: 433b 033e 6f5e 8dbc e0ed 6e3c faaa a3bd
000003f0: ff39 9fbd abcd 113d 56af 873d 1f16 6abd
0.031220768 -0.051368624 0.028390935 0.028540224 -0.018437548 -0.02367732 -0.025300518 -0.0179338
0.087414496 0.06722326 0.022300089 0.017182942 0.09494522 -0.050099753 0.05184734 0.118429855
-0.095058 -0.030700535 -0.123340964 -0.09140634 -0.0689789 -0.07426952 -0.055406332 0.039481357
0.06209493 -0.048570294 0.033518374 -0.06273588 0.056609914 -0.042044207 0.06130771 -0.07575828
0.11314216 -0.053405594 0.09277552 -0.11272621 0.0023757345 0.27121186 0.07892489 -0.040178355
-0.09391327 0.11989868 0.043362483 0.021181032 0.19892682 0.062442355 -0.115346 0.11909561
-0.05220171 -0.05487073 -0.07391548 0.0026228935 0.010600969 0.12168434 0.11221345 -0.05723825
0.0005019935 0.03824167 0.02821116 -0.083519876 0.002563823 0.11439578 0.08828414 -0.0064956755
0.07416915 0.046901926 -0.023218863 0.07712138 -0.121464774 -0.07342477 -0.050714068 -0.05050394
-0.106804974 0.009186259 -0.0108445035 0.06013592 0.027326142 0.0344373 -0.08523893 0.06040484
-0.017817004 0.07581864 -0.1242536 -0.056541856 -0.11892495 -0.040919736 -0.030200645 0.08210675
0.058010094 0.07263704 -0.012545213 0.059423406 -0.050932687 0.1076501 0.041119825 -0.001689985
0.1072875 0.025366696 -0.07674043 -0.034130365 -0.045398798 -0.10455655 0.01583617 0.0689379
-0.084853716 0.092461124 0.06533592 -0.118336454 -0.16967024 0.085437715 0.0038971305 -0.037279136
-0.06446329 0.008935426 0.07558465 0.08608757 0.10239226 -0.027540978 0.091961585 0.07845364
-0.01612711 -0.12376299 0.043543857 0.017298147 0.09751207 -0.042818356 0.06846485 0.058554623
-0.07096288 -0.010453105 -0.025669733 0.08918809 -0.091733575 0.104232915 0.069365345 0.045740418
0.18072933 0.044105396 0.10135745 -0.05615143 0.04932401 -0.07343901 0.043936536 -0.079706706
0.059619363 -0.069930136 -0.013359171 0.0876218 -0.01734874 0.088185996 -0.04671651 0.04759653
0.12112838 -0.11127112 -0.042266145 -0.034202732 -0.02635577 -0.018589944 0.15495734 0.061978865
0.11859634 -0.13133745 -0.100091144 -0.10516232 -0.081177965 0.20492968 0.21038039 -0.03153274
0.052284244 -0.08694348 0.09358023 0.080079675 -0.025988543 -0.01073431 0.021000788 -0.03265468
0.10971022 0.00034681894 -0.013850439 -0.025556846 0.019390168 -0.048011236 0.120328836 0.033143256
-0.038282827 -0.031810995 0.064150915 -0.049441367 0.09548424 0.14145377 0.037155684 -0.019016746
0.05483735 0.040351875 0.14449798 -0.23178154 -0.04925584 -0.06568976 -0.077912115 0.02910249
0.07261001 -0.08791232 -0.058499757 0.0502541 -0.035886545 -0.07502535 0.014426059 -0.02068856
0.14523415 0.071249604 0.050188918 -0.043252036 0.039353095 0.043768927 0.02278465 -0.05206938
-0.01449836 -0.02533751 -0.0748363 -0.09747564 -0.082039475 0.07437676 0.13056332 0.04958297
0.15423997 0.13150318 0.048556045 0.09744562 -0.019900894 0.17717873 0.16244937 0.009211599
0.02392282 0.09421227 -0.08826849 0.057649896 -0.0051518087 0.051596988 -0.0033153445 -0.039323077
-0.04961979 -0.053804047 0.10325004 0.07568982 -0.065453306 0.10460929 0.09780264 -0.017138626
0.12815575 -0.017256944 0.014583081 -0.079915956 -0.07774734 0.03559653 0.066252396 -0.057150003

actor.preprocess.model.model.2.bias f4 [64]
00000000: 5e83 77bd c5e8 0dbd 0205 b43d 77e7 523e
00000010: e7de 83bc f755 f43d df37 ff3d 68ef 23bd
00000020: 8c31 573d f0fb 0cbd 8cdc 3dbc a700 a63d
00000030: da06 b9bd 9096 633d f885 993e fc5d cbbd
00000040: 31a9 cd3d 3a96 5cbd e0aa ddbd 3be2 e6bd
00000050: 24eb 7b3d 8862 193e 5af1 bebd 6dca 8b3d
00000060: fcf0 3cbd 10a9 e13c 5f7a 9bbd d074 193e
00000070: a331 933d 4599 d0bd daf0 6639 0f9d 093e
00000080: bc72 223d de52 09bd 7cd7 39bd 106c 02bc
00000090: fedb bbbd d80b 42bc 74e4 1c3e 7c32 c63d
000000a0: 1e48 a13d c09a f2bd 01b2 e73d c6b8 c2be
000000b0: 4c34 66bd e944 733d 6dae 70bd 8cb6 30bd
000000c0: fc5c 05bd b863 923c e0ac acbc 44e3 c6bd
000000d0: 7cdb 073e f540 0ebe 5b32 643d 4c19 e83d
000000e0: 13f9 fb3d cba9 8c3c e416 90bd 6a6f 9bbd
000000f0: 0cba ceba 984a b9bc a98a 693e c59c 9bbd
-0.060428016 -0.034645814 0.08790018 0.2059611 -0.016097499 0.11930459 0.124618284 -0.040023237
0.052537486 -0.034419954 -0.011588227 0.08105593 -0.0903451 0.05556351 0.29985023 -0.099300355
0.10042036 -0.053854205 -0.108236074 -0.11273619 0.061503544 0.14978993 -0.09323378 0.06825719
-0.046128258 0.027546436 -0.075917 0.14985967 0.07187202 -0.10185484 0.00022024233 0.1343882
0.0396602 -0.033526294 -0.045371518 -0.007960334 -0.091728196 -0.011843644 0.15321523 0.09677598
0.078750834 -0.118459225 0.113132484 -0.38031596 -0.056202218 0.05939189 -0.058760095 -0.04314284
-0.03255938 0.017869815 -0.021078527 -0.09711316 0.1326732 -0.13891967 0.055712085 0.1133295
0.123033665 0.017170807 -0.07035616 -0.0758961 -0.0015771999 -0.022618577 0.22806801 -0.07598261

actor.last.model.0.weight f4 [3327, 64]
00000000: d5bc 623d 386d 85bc 78d3 19be 1156 f3bb
00000010: eb57 fd3c 5f3c 213c e942 85bd 28ff 03bd
00000020: edc0 3dbd c422 8abd 12c0 413d c905 8bbd
00000030: efb3 353e e802 02bd 1bcd 373d 02c2 ccbd
00000040: 6b31 bb3d c002 edbd d8d3 743d b059 623d
00000050: 4c83 8e3d ad57 20be 20bf 413d 3499 f4bd
00000060: b06d cdbd f8eb d5bc 6c2b 4d3d ba6a 49bd
00000070: 2ec5 1ebe 82f4 c63d d8d7 b4bd 83f0 45be
00000080: 51fd dfbd c359 f33d 1022 203c 43e5 2bbe
00000090: 2ca5 58bd 00b6 1f3d 7ba5 f03c 5760 8b3d
000000a0: 054c 5d3c 0e3f d43d 8f74 f9bd d661 e93d
000000b0: f2f1 093e 6bff 9ebc 077c 2fbd 30b6 7ebc
000000c0: dabc e33d 0490 9d3d ca10 b83d 4821 5b3d
000000d0: c096 41be d026 3cbd fab5 e6bd 74e2 f3b9
000000e0: 4d72 50bd e661 8ebd e6c1 b43d 36fa 893d
000000f0: 49e2 8bbd dcdc 903d 6657 4a3b 68cd 08be
00000100: 1e1c 2e3e 4cf2 ef3d 11d3 e5bd 0b26 8c3b
00000110: 22d8 813c dec8 553a 8e94 54bd 2416 2fbd
00000120: c815 e33d e205 cbba 1697 a53d 9e05 5fbd
00000130: 364a ca3c 9e2d b7bd a119 d7bc 421e b0bd
00000140: 2429 fbbc 6a98 d5bd 1c2b 0cbd a586 04bd
00000150: 1704 3c3c 9ea5 ecbd a282 99bd 66d1 f2bd
00000160: 1068 31bd 2870 b3bc 4647 fc3d 6fac a1bc
00000170: 5008 893d 33d6 91bd 9652 193c 9f34 9b3a
00000180: 6b9b b03d a37a 513e 568e af3d 39fc 86bd
00000190: d022 7f3c b043 583d 6468 7fbd 8a44 9f3c
000001a0: 6ac3 d5bd c838 803c d5f9 a93c fb4a de3d
000001b0: 4f7a 643b f745 d9bd 99c5 c63d 08c8 f1bd
000001c0: c0a6 a93d 7010 c6bd bc0f 31bd ce9d d23d
000001d0: cd5f da3d 4462 b0bd a0ff 233c ba74 e9bd
000001e0: 3008 8b3d 1469 e9ba 8da6 4abd e054 16bd
000001f0: 0cd6 fcbd 4e93 d83d 0206 a43d 6011 fb3c
00000200: 2331 923d c652 b4bd 027e 59bb 1835 da3d
00000210: 95a5 a8bd 0f51 473d 3df8 9fbd 5265 a1bd
00000220: ba2a 593d b5be 43bd 91b8 d1bd 3cfc ab3d
00000230: 15bb 223e b84d 64bd 2524 edbc 78f7 c9bc
00000240: 3e91 c1bd 192a 123d 4283 ae3d e42e 08ba
00000250: 363b fd3d ae0d 803d b8a7 f63c 0dd5 143d
00000260: 2051 183d 7edf edbd 1eec a6bd 0a45 483d
00000270: b69b 7f3c 20cd c43d bef2 a5bc 5c3d c13d
00000280: 9869 b33d 1a47 1b3d d89d 113d d1b5 a73d
00000290: 4677 e03d 2a9d efbd 40ac c03d 6cca f2bd
000002a0: 5e5a e43d 84f4 6ebd 3eab cc3c 40c2 503c
000002b0: d5cc 003e 2bbb d73d cc9c 89bd fe36 d43d
000002c0: 48f4 d2bd b440 45bd f044 2dbd 88b1 ecbd
000002d0: 0c44 303d ec0f a43d 53e9 b5bd fd9b e03d
000002e0: 2315 d93c 5794 dbbb cb61 9fbd 8880 fbbc
000002f0: 6f84 e3bd 7620 a53d ca4e 8fbc 2b3b c2bd
00000300: f8b4 053d 0e56 80bd c4e7 acbd f574 633d
00000310: 470b cd3d a458 62bd 07ea e63d 347a b53d
00000320: dfdc b83d cbd2 393d 2b26 9abd ab1d f2bd
00000330: 5a24 253d 4c9d 31bd 6f82 873b 9c7b 253d
00000340: cdf8 193d 6216 453b 22b3 a2bd abf4 ab3d
00000350: b7aa a13d a537 be3d 48a5 bf3d 2a12 c6bd
00000360: 001a 1ebc 00e3 263c 9271 8f3d 8c70 c63b
00000370: cdb8 b9bc a1ed b5bd 24c0 aa3d 6d54 b3bd
00000380: b432 7d3c cb4c 5b3b 7cdb bbbd 370d 31bd
00000390: 0064 45b9 3cb5 d43d d308 1bbd 11ed 00be
000003a0: a4de c5bc 3293 a0bd 7b43 1dbd f348 933c
000003b0: c774 043e bd5a 1d3d 399d 433d 4e07 933d
000003c0: 92b5 883d 10b2 6a3d b0f3 40bd 3c1f 183d
000003d0: 0baf a43d 30f8 dbbc b0b7 293b cdc3 b9bd
000003e0: 9ae5 e6bd 8fae 8bbd 17b3 1fbd 20ae 373c
000003f0: 9c24 ecbd 6084 ddbb 14cd 453d 470d 823d
0.055355866 -0.016287431 -0.15022075 -0.0074260314 0.030925712 0.009841054 -0.06506903 -0.032225758
-0.046326566 -0.06744912 0.047302313 -0.06788213 0.1774442 -0.031741053 0.04487334 -0.099979416
0.09140285 -0.1157279 0.059772342 0.055261314 0.06958637 -0.15658446 0.04730141 -0.11943284
-0.10030687 -0.026113495 0.05009024 -0.049174048 -0.15504906 0.09714605 -0.088302314 -0.19330029
-0.10936988 0.11882355 0.009773746 -0.16786675 -0.052891895 0.038991928 0.029375782 0.06805485
0.013506894 0.10363589 -0.12180435 0.11395614 0.13471201 -0.019408902 -0.04284289 -0.015546367
0.11120005 0.076934844 0.08987577 0.053498536 -0.18905163 -0.045935452 -0.11265178 -0.00046517293
-0.050890256 -0.069522664 0.08826046 0.06737177 -0.0683027 0.070733756 0.0030874847 -0.13359606
0.17002913 0.11716136 -0.11221898 0.004276996 0.01585013 0.0008155237 -0.051899485 -0.042745724
0.11088139 -0.0015489424 0.08085458 -0.054448716 0.02469359 -0.08944248 -0.026257338 -0.08599521
-0.030659266 -0.10429461 -0.0342208 -0.03235497 0.0114755845 -0.115550265 -0.07495619 -0.11856346
-0.043312132 -0.021904066 0.12318282 -0.019735543 0.066910386 -0.071209334 0.009358069 0.0011841244
0.086233936 0.20456938 0.0857207 -0.065910764 0.015572265 0.052798927 -0.062355414 0.019441862
-0.10437663 0.015652075 0.020749012 0.10854145 0.003486294 -0.10609048 0.097056575 -0.11805731
0.08283758 -0.09671104 -0.043227896 0.10284005 0.10662804 -0.08612493 0.010009676 -0.11399217
0.06788671 -0.0017807805 -0.04947524 -0.036702037 -0.12345514 0.10574971 0.080089584 0.030647933
0.07138278 -0.0880485 -0.0033186679 0.10654658 -0.08234707 0.048661288 -0.078110196 -0.078806534
0.053019263 -0.047789294 -0.102402814 0.08397719 0.15891679 -0.05573818 -0.0289479 -0.024654135
-0.09451531 0.03568468 0.08521129 -0.00051949755 0.12364809 0.06252609 0.030109271 0.036335994
0.03718674 -0.116148934 -0.081505045 0.048893966 0.015601089 0.09609437 -0.02025735 0.094355315
0.08760375 0.037909605 0.035550922 0.081889756 0.109602496 -0.116998985 0.09407854 -0.11855015
0.11150049 -0.058338657 0.024983998 0.012741625 0.12578137 0.10533746 -0.0671936 0.103620514
-0.10300499 -0.04815741 -0.042302072 -0.11557299 0.043033645 0.08010849 -0.08882394 0.109672524
0.026499337 -0.006701033 -0.077823244 -0.030700937 -0.11109244 0.08062832 -0.017493624 -0.09483942
0.03264329 -0.06266414 -0.08442643 0.05553146 0.100119166 -0.055260316 0.11275106 0.08861199
0.09026503 0.045367043 -0.07526811 -0.11822065 0.04031787 -0.0433629 0.004135422 0.040401086
0.03759079 0.0030073156 -0.07944323 0.08396276 0.078938894 0.09287957 0.09357697 -0.09671433
-0.009649754 0.010185957 0.07004084 0.006055897 -0.022671128 -0.08883215 0.08337429 -0.08756337
0.015453983 0.003346252 -0.09172723 -0.043225493 -0.00018824637 0.1038613 -0.037850212 -0.12590434
-0.024154015 -0.07840575 -0.038394433 0.01797912 0.12935172 0.038416613 0.04775736 0.07179128
0.06675257 0.05729872 -0.0471074 0.037139162 0.08041199 -0.026851743 0.002589684 -0.09070549
-0.11274262 -0.06820404 -0.038989153 0.011210948 -0.1153042 -0.006760165 0.04829128 0.06350189

actor.last.model.0.bias f4 [3327]
00000000: 59e0 20be c1ca b73c 3e8a 153d 545e 83bd
00000010: 8d77 c9ba db03 32be 7f28 f4bd 066f 3dbd
00000020: 80a9 17be fdfb f4bd 3f33 f3bd 6cd7 ca3d
00000030: 424e b5bd 8514 253d 78e6 e2bd 9083 e6bd
00000040: e983 bdbb df38 eebd 8098 d23d 8d70 903d
00000050: 97f8 95bd 248b fbbd 7233 8a3d 8b11 3dbd
00000060: 32fc 80bd d837 603d 96e1 dcbc 88da 3ebe
00000070: ef34 0bbe 0822 9ebd 764a 38be cbdc 13bc
00000080: b174 b2bd d5f6 1fbd f54d bcbd 11eb 703d
00000090: 9eae 1fbe 2c58 d9bd 3900 b73d 60a3 1e3d
000000a0: dfe2 d43d 1f38 a0bd 750c a2bd 6f20 c4bd
000000b0: 89f1 8abd 10b0 d8bd 1b05 05be 14ba cabd
000000c0: a156 2abd 4959 e3bd 1e50 00be d4a2 30bd
000000d0: a2cd 81bd 3847 c9bc 0079 083d c973 2bbe
000000e0: 4e42 0bbe 3358 af3d 685d b3bd 7316 f8bc
000000f0: 36cb e0bc 64dc 0bbc 8bd5 d7bb bf0b c83b
00000100: d6f9 ddbd 3a9f 73bd 8831 60bd ec43 9abd
00000110: 56d9 b1bc 67ad d1bd bfa3 60bc 8ea2 0dbc
00000120: ec0c 2fbc d380 1c3d 7ff1 0cbd 2cd6 4abc
00000130: d62a 2ebd 4fcc be3c 7f2f eebd 2a0a fbbd
00000140: aff3 9c3d 3c07 f93c f46f bdbd cb80 26bd
00000150: 424f d13d e224 88bd fb9f 003b 756c 40be
00000160: 3f8b a7bd fd82 dfbd 56be ce3c cbe4 04be
00000170: a2f3 d23d 168b d7bd b8b6 8d3c 747c 4abe
00000180: 0130 923d 6e8b 9cbd 3a2e 5a3d 5608 083d
00000190: f120 0a3d bcbe 033e 901f 853d 7299 ccbc
000001a0: d145 003e 0010 a43d 1845 183c 66a6 92bd
000001b0: 4957 45bd ffc5 ca3d 0bb0 45be 85c5 94bd
000001c0: 50c8 10be 30f8 67bd f63c a43d aa48 e7bd
000001d0: fbff d0bd 4e33 17be 3b26 04be e8ac 423d
000001e0: c1d2 6abd f874 ccbd 993e d23a a22b d3ba
000001f0: f652 053e 049e a83d b752 963d 1525 6ebd
00000200: 9486 92bd fdb0 08be 25ec bebb 6f42 a1bc
00000210: c379 963d 3547 9abd 1aa3 efbd af02 bb3d
00000220: f644 84bd 60ff ef3d edb3 ad3d de2a 813d
00000230: d7d0 843d 2618 93bd 9cd3 b7bc 4869 1bbe
00000240: e174 99bb 345d 343d ee90 673d 9304 0d3e
00000250: fb05 cdbb d8f5 cfbd 3e0b 0a3d d2a0 9abd
00000260: ab17 963d 859a 86bd d6cb 77bd cbba d33d
00000270: c052 d63d af7e a2bd d474 43bd 2f60 a8bd
00000280: d4a7 a33d 949a 96bd 309a 453d c55d 583d
00000290: ce74 1a3d c1c0 4a3d 38fd fe3d b8d3 abbd
000002a0: a193 1bbe 8dc4 18be 8d2f dabb 189d 34be
000002b0: 486c 23be 0f31 0f3d 6bfd 883c b94b cfbd
000002c0: 37c9 1cbe 2cff dc3c 11b6 043d ed7e 99bc
000002d0: df09 cebd 98c5 da3d c49a 0abc 957e 08bd
000002e0: d1f5 fbbd 36b1 93bd 6f78 933d 7142 09bd
000002f0: e2a4 d3bd 265e 8a3d ee45 4bbd 4947 93bd
00000300: 1466 bcbc f653 1e3c dcfc 1fbe 5380 d13d
00000310: ef0d 0abe 8c5a d93c 41ec b5bd 7f1a 123b
00000320: 455c 6b3d 9264 a03d 0cac ee3d 8d5e 16be
00000330: 3113 8a3d 4e6e 25be 7a63 b1bd 3f68 9d3d
00000340: 145c 4bbd 2e4e 053d 3e8f e13d 459a c1bb
00000350: 8221 133d 113a 3fbd fab5 5e3b 68ca 2ebd
00000360: 8b80 96bd 0487 80bd 3613 e43c 6018 033e
00000370: 9142 95bd 461d bebd 90d7 2dbd a8d6 313d
00000380: 45e5 9fbd d79b b1bd 75eb c6bd 0f7d 33bd
00000390: 875b 6f3d 941d 13be e504 b83d 62a7 90bd
000003a0: 789b a83c 386a 92bc 428d 7fbd 80e9 0b3d
000003b0: 8afd 1ebd 927f a83d 3bb1 cb3d 1772 24be
000003c0: eb35 a1bd 4f6d 463d 644f 1bbe 69b3 9ebc
000003d0: 65b6 793d a757 95bd a82a 10bd 8d37 cc3d
000003e0: 21b1 e23d e271 253d fc49 e83b 3b32 143d
000003f0: 25d9 9d3d 6051 98bb 4d14 ddbc 1610 f0bc
-0.15710582 0.022435548 0.03650879 -0.06414476 -0.0015370712 -0.17384283 -0.119217865 -0.04624846
-0.14810753 -0.119621255 -0.11875009 0.0990437 -0.08852817 0.040302772 -0.11079115 -0.11255562
-0.005783547 -0.11631941 0.10282993 0.07052717 -0.073228054 -0.12282398 0.06748094 -0.04615931
-0.062981024 0.054740757 -0.026963037 -0.1863805 -0.13594411 -0.07721335 -0.17997155 -0.009024809
-0.08713663 -0.039053757 -0.091945566 0.058817927 -0.15593955 -0.106125206 0.08935589 0.038730025
0.10394835 -0.07823204 -0.07912532 -0.09576499 -0.067843504 -0.10580456 -0.12990229 -0.09898773
-0.041586522 -0.11101014 -0.12530562 -0.043124035 -0.063380495 -0.024570093 0.03331852 -0.16743387
-0.13599512 0.085617445 -0.0875805 -0.030284142 -0.027440649 -0.008536432 -0.0065867356 0.006104916
-0.10838668 -0.059478022 -0.054734737 -0.07532486 -0.02171008 -0.10238152 -0.013710915 -0.008644713
-0.010684233 0.038208794 -0.034409996 -0.012380164 -0.04252132 0.023290781 -0.11630153 -0.12257798
0.076636665 0.030398957 -0.09249869 -0.04065017 0.10220195 -0.0664766 0.0019626606 -0.18791373
-0.08180856 -0.10913656 0.025237244 -0.12977903 0.103003755 -0.105245754 0.017299041 -0.19774038
0.07138062 -0.076437816 0.05326674 0.033211075 0.03372282 0.12865728 0.06500161 -0.024975512
0.12526633 0.08010864 0.009293817 -0.07160644 -0.048178945 0.09901046 -0.19305436 -0.07264236
-0.14138913 -0.056633174 0.0801944 -0.112931564 -0.102050744 -0.14765665 -0.12905209 0.047528177
-0.057329897 -0.099832475 0.0016040384 -0.0016111026 0.13019928 0.08233264 0.07339995 -0.058140833
-0.07154575 -0.13348766 -0.0058264905 -0.019684998 0.07347443 -0.07533113 -0.11701031 0.09131371
-0.06458466 0.11718631 0.08481584 0.063070044 0.064851455 -0.0718234 -0.02243977 -0.1517688
-0.0046831225 0.044034198 0.0565347 0.13771276 -0.0062568164 -0.10154313 0.033702128 -0.07550205
0.07328733 -0.06572441 -0.060497127 0.10338362 0.10465002 -0.07934319 -0.047718838 -0.082214706
0.07990995 -0.07353702 0.048242748 0.0528238 0.03770905 0.04950023 0.124506414 -0.083899915
-0.15193035 -0.14918728 -0.0066585005 -0.17638052 -0.15959275 0.034958895 0.016722402 -0.10121865
-0.15311132 0.026977144 0.032400195 -0.01873728 -0.100604765 0.10682219 -0.008459751 -0.033323843
-0.12302745 -0.07211535 0.07200705 -0.03351063 -0.10334183 0.06756239 -0.049627237 -0.07191331
-0.022997893 0.009663573 -0.15623802 0.10229554 -0.13481878 0.026532434 -0.088829525 0.0022293625
0.057461042 0.07831682 0.11653909 -0.14684506 0.06741942 -0.16155359 -0.08661552 0.07685899
-0.04964836 0.03254526 0.110136494 -0.005908283 0.035920627 -0.046686236 0.0033982978 -0.0426735
-0.073487364 -0.06275752 0.027841192 0.12802267 -0.07288087 -0.09282927 -0.042441905 0.043417603
-0.078074016 -0.08672302 -0.097128786 -0.043820437 0.058436897 -0.14366752 0.089853086 -0.07063176
0.020581946 -0.017872915 -0.062390573 0.03415823 -0.038816012 0.08227457 0.099459134 -0.16059147
-0.07871612 0.04844409 -0.15167004 -0.019372659 0.06096496 -0.07292109 -0.03519693 0.09971533
0.11068941 0.04039181 0.0070888977 0.036180716 0.07707433 -0.0046483725 -0.02698722 -0.029304545

critic.preprocess.model.model.0.weight f4 [64, 81]
00000000: 1e01 5cbd fd81 153e 3ebc 4fbd 3f94 0c3e
00000010: 7f6f 3bbc c825 4fbd 88c6 2e3d 754c 4fbc
00000020: 3549 583d efa6 60bd 8189 f2bc 96ea 03bd
00000030: 9d73 9cbd a72a edbd f1a7 fc3c db7e 223d
00000040: f531 823c 9c0c 48bd 54b3 f73c b8fa ab3d
00000050: 22f7 b8bd e0b0 0bbe dd1a e2bb c52d 6cbd
00000060: 494c d5bd d8e5 a3bd 11a5 edbd a493 ccba
00000070: e654 aa3a 8755 fa3d bb52 f6bc b337 433d
00000080: 286c a5bd be8e 133d a73b 8dbd 99de b83c
00000090: 147c f3bd b5ac 38bd d691 603d 5665 60bc
000000a0: dd7b f0bd c6f6 203c 9202 fb3d a5ba 2cbc
000000b0: 490e 8ebd 2766 e7bd bea4 2cbd 6051 153d
000000c0: 6227 e93d d8e9 36bd dd0b 04be 6f85 a53c
000000d0: 5569 8ebc b91d ffbc 9093 ba3c 9333 6ebd
000000e0: b5c1 3bbd 33ef 623a 2c40 fabd ca61 a5bd
000000f0: 4db4 05be a22c 5d3d 6ee1 c23d 1db5 44bd
00000100: 2aa4 f23d 8c9c 863d 870d 89bd 2639 663d
00000110: f967 d73d 9a9e 78bd eeff c0bb 0191 033e
00000120: 0012 833d 7763 e1bd d4b9 f0bd bc7d 873d
00000130: 1c03 13bd 74e7 93bd ed8a 323b 7d61 dabd
00000140: 60fe 7c3d 89fc 733f f59c 923e e133 373e
00000150: 4e94 703d 0657 0e3d a4bb 043e 248e 35be
00000160: 750a 513f 4782 293e ceae 80ba 48ef c2bd
00000170: eebd 163e 4de7 3bbe e339 fabe 2367 073e
00000180: dbe5 b6bd ea67 1e3e 3486 6d3e d7c2 27be
00000190: 81e9 a73e 9be9 fdbe 998c 90bd 7c81 6b3e
000001a0: fca0 48bc 40ca 57bc cb5a e6be 6767 4ebc
000001b0: 8431 1dbe fe5e 123f 25f4 7d3b 5f5a 443e
000001c0: ecba 043e c58a 4ebe 7261 813d 20b4 bdbd
000001d0: e86f 7d3e 65e0 06be 9ec7 733c 94e9 283c
000001e0: b79c 7d3d a553 2bbe 64a9 87bd c66c d53c
000001f0: 8bab 473d c101 76bd 04f8 edbd 638e 99be
00000200: 9c7d 3cbe 0e30 283e 0269 4bbb 5d23 e7bd
00000210: 79f1 f83d 2bec 36be ca83 04be 620c 613e
00000220: 8797 bdbd 8d3c 6d3e 17a5 c23d 72d7 2fbc
00000230: c9f7 ebbd 4309 77be ff37 163e 6071 bb3c
00000240: 83f5 b63c ca58 1c3d 9871 363e dbe4 3b3e
00000250: 8f72 e73d fa0d 013f 8a75 1e3e 2ee7 113f
00000260: d245 d33d 93a6 563c d457 2fbe 9daa abbd
00000270: a99f 513d e9d6 cf3d 4cf1 6bbe 1820 163d
00000280: dbdc 74be 65cf d03c 04ff 683f bc85 263e
00000290: aa88 b13d 30a5 1d3e 04fa d73d e443 57bc
000002a0: c9d0 1ebd 593a 3e3f 654f 463c b173 c2bc
000002b0: 54d8 30bd 0d19 903d 234e 5fbd adff eebe
000002c0: bbf5 663c 6d4f 08be d7c7 1d3e b84f 653d
000002d0: 2035 e2bd 1700 023f 0e83 c3be 1ef3 a3bd
000002e0: ff81 963e cdf6 a53a a369 cebd 8aeb f2be
000002f0: 1a96 42be ab19 d9bd 6b65 363f 1be6 5cbc
00000300: 82be be3d 6102 4e3d c1dd f8bc e779 1cbd
00000310: 5fb4 5bbe acba cd3d 0f2d 0fbe aad8 81bd
00000320: fd2b 5ebd 4691 843d b25a e8bd 0a11 9ebd
00000330: d2ca af3d 78f1 2c3e e39d 5abd 82d0 3cbe
00000340: f4d2 4cbe 290c 1abe 247d b1bc 5daa 163e
00000350: 801d 32be c152 0f3e dd94 2cbc 6657 19be
00000360: 30e1 db3d 0f55 013d a8ef 333d abd2 c2bc
00000370: ce2f d0bd e005 2abe c82b 2ebe a209 383e
00000380: 3d1d f0bc 89d6 f03c 161b 473e d6b5 96bc
00000390: 0811 163e 0c29 ca3d e464 063f 6f15 c83d
000003a0: e93d 353f 5e94 093e 5815 0cbe 1f2e a7bd
000003b0: 1b22 f5bd 85ce b63d 591d e63d 287a 76bd
000003c0: 8a3c c43d 08dd e3bd 5b46 9a3d e49a 843e
000003d0: aaa9 763e bfe1 dc3c be92 8d3d 0a4b 843e
000003e0: a6ab 733e 760b 59be 1ce7 9f3e 6fd8 5c3e
000003f0: 9900 293e c7d7 bcbd b23d 483e 4584 06be
-0.053712003 0.14600368 -0.05071663 0.13728426 -0.011440157 -0.05057314 0.042669803 -0.012652506
0.05280419 -0.0548467 -0.029606583 -0.03220614 -0.07639239 -0.11580401 0.0308418 0.03967176
0.015892962 -0.04884015 0.030236878 0.0839743 -0.09031512 -0.13641691 -0.006900175 -0.057660837
-0.10414941 -0.080028236 -0.116037495 -0.0015607965 0.0012995272 0.12223344 -0.030068746 0.04766054
-0.0807727 0.0360248 -0.068961434 0.02256708 -0.118889004 -0.04508658 0.05482658 -0.013696035
-0.11742375 0.00982446 0.122563496 -0.010542546 -0.069363184 -0.11298781 -0.042149298 0.03645456
0.11384465 -0.044656605 -0.1289515 0.020205228 -0.01738421 -0.031142103 0.022775441 -0.058154654
-0.04583903 0.0008656859 -0.12219271 -0.080752924 -0.1305706 0.053997643 0.095156536 -0.048024286
0.11847718 0.06572828 -0.06692033 0.056206845 0.10517878 -0.06069813 -0.005889884 0.12848283
0.063999176 -0.110052995 -0.11754194 0.06615779 -0.035891637 -0.072218806 0.002724345 -0.10663126
0.06176603 0.95307213 0.28635374 0.17890884 0.058735184 0.03475096 0.12962204 -0.17730004
0.8165658 0.16553603 -0.0009817721 -0.095182955 0.1472089 -0.18349953 -0.4887229 0.13222937
-0.0893056 0.15469328 0.23195726 -0.16382919 0.32795337 -0.4959229 -0.07058067 0.22998613
-0.012245413 -0.013170779 -0.44991145 -0.012597895 -0.1535092 0.57176197 0.0038750258 0.19175099
0.1296193 -0.20170124 0.06317414 -0.09262872 0.2474972 -0.13171537 0.014879135 0.010309596
0.061917033 -0.16731127 -0.066241056 0.026052844 0.04874758 -0.060060266 -0.11619571 -0.29991445
-0.18407291 0.16424581 -0.0031037931 -0.11286042 0.12155432 -0.17863528 -0.12940899 0.2197738
-0.09257417 0.2316763 0.09504145 -0.0107325185 -0.11521871 -0.24124627 0.14669798 0.02288121
0.022333866 0.038170613 0.1781677 0.1834902 0.11301147 0.5041195 0.15474525 0.5699338
0.103160515 0.013101238 -0.17123348 -0.08382151 0.051177654 0.10148413 -0.23041266 0.0366517
-0.23912375 0.025489518 0.9101412 0.16261953 0.08668645 0.15395045 0.105457336 -0.013138745
-0.03877333 0.7430778 0.01210389 -0.023736807 -0.043175057 0.07036028 -0.054517876 -0.4667944
0.014096673 -0.13311549 0.15408264 0.05598423 -0.11045289 0.5078139 -0.38185924 -0.08005355
0.29396054 0.0012662053 -0.10078742 -0.47445327 -0.19002572 -0.10600599 0.712485 -0.013482596
0.0931368 0.050295237 -0.030379178 -0.038202193 -0.21455525 0.100453705 -0.13982032 -0.063401535
-0.05424117 0.06473021 -0.11345424 -0.07718094 0.08583607 0.16888988 -0.05337323 -0.18438914
-0.20002347 -0.15043701 -0.021666117 0.14713426 -0.17394066 0.13996412 -0.010533539 -0.14974746
0.107363105 0.03157526 0.043929726 -0.023782095 -0.10165368 -0.16603804 -0.17008889 0.17972425
-0.029310817 0.029399173 0.19443926 -0.018397253 0.14654934 0.0987111 0.52497697 0.09769713
0.7079759 0.13435504 -0.13680017 -0.08163094 -0.11969396 0.08926109 0.11236066 -0.06017509
0.095818594 -0.11126143 0.075329505 0.25899422 0.24088159 0.026963113 0.069127545 0.258385
0.23795947 -0.21195778 0.3123101 0.21566938 0.16504134 -0.09220844 0.19554785 -0.13136394

critic.preprocess.model.model.0.bias f4 [64]
00000000: 6d0e ae3d a273 e83d 7f2f d63d 3c40 583a
00000010: 8b91 7bbd 856d 9abd 3b8d fbbd 3972 753d
00000020: 8da8 d03d 8b2e dfbd c1f1 733d 6299 00be
00000030: 0764 843d d79f ba3d 8858 8f3b c523 d43d
00000040: 829c 8dbd a808 23bd 42f5 ebbc 7e3f e3bd
00000050: 7fcd cb3d 6cda 95bd 8720 8bbd 75ec 983d
00000060: b6c9 b73d bae2 0fbd 92f2 3bbd 5b60 7c3b
00000070: 43bc 36bd 3234 2a3d 8d76 253d b838 0abc
00000080: afe8 463d c8df be3d 9092 a4bc 5495 ddbd
00000090: dcbc e1bd 7dd5 4c3e dcd7 cd3d 88f8 bb3d
000000a0: 321c 7d3d 8900 34bc 1db3 02be 22ce d3bd
000000b0: 7efd d33d 07c6 063e 6036 1e3c cafc edbd
000000c0: a29c a1bd 6802 9f3d 9106 8ebd 588f 3dbd
000000d0: e0c3 ddbd 4f5e 103e 64c0 c63b 59da 5bbd
000000e0: 157e e73d 4691 c0bd 324d a73d 5066 ea3b
000000f0: cae1 e3bd ec74 2e3e 1fe6 153d 904a da3c
0.08498845 0.1135018 0.10458278 0.0008249318 -0.061418097 -0.075404204 -0.12282797 0.059923384
0.101883985 -0.10897549 0.059556726 -0.12558511 0.06464391 0.09112518 0.0043745674 0.10358385
-0.06914617 -0.039803177 -0.028803471 -0.110960945 0.09951305 -0.07317051 -0.067933135 0.074669756
0.0897402 -0.035128333 -0.04588563 0.003850958 -0.044613134 0.041553684 0.040396262 -0.008436374
0.048561748 0.09320027 -0.020089418 -0.10819498 -0.1102235 0.20003314 0.100509375 0.09178263
0.061794467 -0.010986456 -0.12763639 -0.10342051 0.10351084 0.13161479 0.009656519 -0.11620481
-0.078912035 0.07764131 -0.06934846 -0.04627928 -0.10828376 0.14098476 0.006065415 -0.05367503
0.11303345 -0.09402709 0.08169021 0.00715331 -0.1112705 0.1703679 0.036596414 0.026646882

critic.preprocess.model.model.2.weight f4 [64, 64]
00000000: b2c2 ff3c e867 52bd 1b94 e83c 30cd e93c
00000010: 570a 97bc f0f6 c1bc 0843 cfbc e8e9 92bc
00000020: 5f06 b33d 59ac 893d adae b63c 3ec3 8c3c
00000030: a472 c23d 6635 4dbd e05d 543d 5a8b f23d
00000040: c5ad c2bd b07f fbbc 309a fcbd 3f33 bbbd
00000050: cf44 8dbd 9e1a 98bd c0f1 62bd 34b7 213d
00000060: 4157 7e3d a5f1 46bd 904a 093d ab7b 80bd
00000070: ccdf 673d 8c36 2cbd cb1d 7b3d 2827 9bbd
00000080: 14b7 e73d d3bf 5abd 1801 be3d 00dd e6bd
00000090: 36b2 1b3b 48dc 8a3e 5fa3 a13d 0f92 24bd
000000a0: 9a55 c0bd 708d f53d dc9c 313d d883 ad3c
000000b0: 79b3 4b3e 8ec3 7f3d 863a ecbd 66e8 f33d
000000c0: 76d1 55bd 21c0 60bd 0061 97bd dae4 2b3b
000000d0: b0af 2d3c a435 f93d 2ad0 e53d a872 6abd
000000e0: 3798 033a 4ca3 1c3d 171b e73c 780c abbd
000000f0: d005 283b 5648 ea3d 51ce b43d add9 d4bb
00000100: ffe5 973d 3c1c 403d 7c35 bebc d0f1 9d3d
00000110: 86c2 f8bd ba5f 96bd 8eb9 4fbd 38dd 4ebd
00000120: 91bc dabd f681 163c 25ad 31bc 1551 763d
00000130: 13db df3c 200e 0d3d c091 aebd 116b 773d
00000140: f7f4 91bc ce46 9b3d ac78 febd 6f98 67bd
00000150: ed8e f3bd 749b 27bd 5867 f7bc 9527 a83d
00000160: fe9b 6d3d bac2 943d 708a 4dbc f565 733d
00000170: cb9e 50bd a877 dc3d 436d 283d 7d82 ddba
00000180: 8cb9 db3d d1cd cf3c 162a 9dbd 48cc 0bbd
00000190: 17f4 39bd bf21 d6bd dbba 813c 502f 8d3d
000001a0: c9c7 adbd 425c bd3d d7ce 853d 625a f2bd
000001b0: 09be 2dbe f8f9 ae3d 0067 7f3b 02b2 18bd
000001c0: 5405 84bd e565 123c 20cc 9a3d ae4e b03d
000001d0: 09b3 d13d 9e9d e1bc 5b56 bc3d 4dac a03d
000001e0: 001d 84bc 7377 fdbd 0b5b 323d d8b4 8d3c
000001f0: 68b4 c73d 4d62 2fbd 4d37 8c3d f9d6 6f3d
00000200: fd54 91bd 8043 2bbc 5549 d2bc 3fa8 b63d
00000210: d0de bbbd 1178 d53d 6b0f 8e3d 4e5a 3b3d
00000220: 1c11 393e dca7 343d 7f94 cf3d 0bff 65bd
00000230: f907 4a3d 3167 96bd ccf6 333d 453d a3bd
00000240: 6f33 743d 8837 8fbd 6de0 5abc 0f73 b33d
00000250: f21e 8ebc dc9a b43d d059 3fbd 94f4 423d
00000260: 2812 f83d 1de2 e3bd 441f 2dbd 2a18 0cbd
00000270: 0ee8 d7bc f049 98bc 23ad 1e3e 8ddd 7d3d
00000280: a3e2 f23d 537d 06be 96fc ccbd 585f d7bd
00000290: a240 a6bd 16d9 513e f56d 573e 7928 01bd
000002a0: 0128 563d 6c0f b2bd fea6 bf3d d000 a43d
000002b0: ede5 d4bc f6de 2fbc d809 ac3c eac0 05bd
000002c0: c0af e03d 40d5 b539 f4ec 62bc 975c d1bc
000002d0: 21d8 9e3c 6ea7 44bd f76e f63d 39c1 073d
000002e0: 74ce 1cbd 3f4c 02bd 8e61 833d 0883 4abd
000002f0: 3e8d c33d 42d9 103e 8f30 183d 02c9 9bbc
00000300: 219d 603d 0248 253d 47f7 133e 2458 6dbe
00000310: 7ec0 49bd 5a88 86bd 6390 9fbd 5868 ee3c
00000320: 8fb4 943d 600b b4bd 719d 6fbd 3ed7 4d3d
00000330: c5fd 12bd e4a6 99bd 475b 6c3c 0e7b a9bc
00000340: 43b8 143e 50eb 913d e592 4d3d 0c29 31bd
00000350: b630 213d 0c47 333d e0a6 ba3c b446 55bd
00000360: 888a 6dbc 9c90 cfbc c643 99bd 4fa1 c7bd
00000370: 5004 a8bd d852 983d 64b2 053e 8317 4b3d
00000380: 15f1 1d3e c5a8 063e b4e2 463d 9291 c73d
00000390: 3307 a3bc 576e 353e 2159 263e 3fec 163c
000003a0: caf9 c33c 5df2 c03d 1cc6 b4bd 4c22 6c3d
000003b0: 81d0 a8bb 5d57 533d 4046 59bb 3c11 21bd
000003c0: 1f3e 4bbd a261 5cbd c274 d33d 4403 9b3d
000003d0: 620c 86bd 653d d63d c04c c83d 4e66 8cbc
000003e0: 433b 033e 6f5e 8dbc e0ed 6e3c faaa a3bd
000003f0: ff39 9fbd abcd 113d 56af 873d 1f16 6abd
0.031220768 -0.051368624 0.028390935 0.028540224 -0.018437548 -0.02367732 -0.025300518 -0.0179338
0.087414496 0.06722326 0.022300089 0.017182942 0.09494522 -0.050099753 0.05184734 0.118429855
-0.095058 -0.030700535 -0.123340964 -0.09140634 -0.0689789 -0.07426952 -0.055406332 0.039481357
0.06209493 -0.048570294 0.033518374 -0.06273588 0.056609914 -0.042044207 0.06130771 -0.07575828
0.11314216 -0.053405594 0.09277552 -0.11272621 0.0023757345 0.27121186 0.07892489 -0.040178355
-0.09391327 0.11989868 0.043362483 0.021181032 0.19892682 0.062442355 -0.115346 0.11909561
-0.05220171 -0.05487073 -0.07391548 0.0026228935 0.010600969 0.12168434 0.11221345 -0.05723825
0.0005019935 0.03824167 0.02821116 -0.083519876 0.002563823 0.11439578 0.08828414 -0.0064956755
0.07416915 0.046901926 -0.023218863 0.07712138 -0.121464774 -0.07342477 -0.050714068 -0.05050394
-0.106804974 0.009186259 -0.0108445035 0.06013592 0.027326142 0.0344373 -0.08523893 0.06040484
-0.017817004 0.07581864 -0.1242536 -0.056541856 -0.11892495 -0.040919736 -0.030200645 0.08210675
0.058010094 0.07263704 -0.012545213 0.059423406 -0.050932687 0.1076501 0.041119825 -0.001689985
0.1072875 0.025366696 -0.07674043 -0.034130365 -0.045398798 -0.10455655 0.01583617 0.0689379
-0.084853716 0.092461124 0.06533592 -0.118336454 -0.16967024 0.085437715 0.0038971305 -0.037279136
-0.06446329 0.008935426 0.07558465 0.08608757 0.10239226 -0.027540978 0.091961585 0.07845364
-0.01612711 -0.12376299 0.043543857 0.017298147 0.09751207 -0.042818356 0.06846485 0.058554623
-0.07096288 -0.010453105 -0.025669733 0.08918809 -0.091733575 0.104232915 0.069365345 0.045740418
0.18072933 0.044105396 0.10135745 -0.05615143 0.04932401 -0.07343901 0.043936536 -0.079706706
0.059619363 -0.069930136 -0.013359171 0.0876218 -0.01734874 0.088185996 -0.04671651 0.04759653
0.12112838 -0.11127112 -0.042266145 -0.034202732 -0.02635577 -0.018589944 0.15495734 0.061978865
0.11859634 -0.13133745 -0.100091144 -0.10516232 -0.081177965 0.20492968 0.21038039 -0.03153274
0.052284244 -0.08694348 0.09358023 0.080079675 -0.025988543 -0.01073431 0.021000788 -0.03265468
0.10971022 0.00034681894 -0.013850439 -0.025556846 0.019390168 -0.048011236 0.120328836 0.033143256
-0.038282827 -0.031810995 0.064150915 -0.049441367 0.09548424 0.14145377 0.037155684 -0.019016746
0.05483735 0.040351875 0.14449798 -0.23178154 -0.04925584 -0.06568976 -0.077912115 0.02910249
0.07261001 -0.08791232 -0.058499757 0.0502541 -0.035886545 -0.07502535 0.014426059 -0.02068856
0.14523415 0.071249604 0.050188918 -0.043252036 0.039353095 0.043768927 0.02278465 -0.05206938
-0.01449836 -0.02533751 -0.0748363 -0.09747564 -0.082039475 0.07437676 0.13056332 0.04958297
0.15423997 0.13150318 0.048556045 0.09744562 -0.019900894 0.17717873 0.16244937 0.009211599
0.02392282 0.09421227 -0.08826849 0.057649896 -0.0051518087 0.051596988 -0.0033153445 -0.039323077
-0.04961979 -0.053804047 0.10325004 0.07568982 -0.065453306 0.10460929 0.09780264 -0.017138626
0.12815575 -0.017256944 0.014583081 -0.079915956 -0.07774734 0.03559653 0.066252396 -0.057150003

critic.preprocess.model.model.2.bias f4 [64]
00000000: 5e83 77bd c5e8 0dbd 0205 b43d 77e7 523e
00000010: e7de 83bc f755 f43d df37 ff3d 68ef 23bd
00000020: 8c31 573d f0fb 0cbd 8cdc 3dbc a700 a63d
00000030: da06 b9bd 9096 633d f885 993e fc5d cbbd
00000040: 31a9 cd3d 3a96 5cbd e0aa ddbd 3be2 e6bd
00000050: 24eb 7b3d 8862 193e 5af1 bebd 6dca 8b3d
00000060: fcf0 3cbd 10a9 e13c 5f7a 9bbd d074 193e
00000070: a331 933d 4599 d0bd daf0 6639 0f9d 093e
00000080: bc72 223d de52 09bd 7cd7 39bd 106c 02bc
00000090: fedb bbbd d80b 42bc 74e4 1c3e 7c32 c63d
000000a0: 1e48 a13d c09a f2bd 01b2 e73d c6b8 c2be
000000b0: 4c34 66bd e944 733d 6dae 70bd 8cb6 30bd
000000c0: fc5c 05bd b863 923c e0ac acbc 44e3 c6bd
000000d0: 7cdb 073e f540 0ebe 5b32 643d 4c19 e83d
000000e0: 13f9 fb3d cba9 8c3c e416 90bd 6a6f 9bbd
000000f0: 0cba ceba 984a b9bc a98a 693e c59c 9bbd
-0.060428016 -0.034645814 0.08790018 0.2059611 -0.016097499 0.11930459 0.124618284 -0.040023237
0.052537486 -0.034419954 -0.011588227 0.08105593 -0.0903451 0.05556351 0.29985023 -0.099300355
0.10042036 -0.053854205 -0.108236074 -0.11273619 0.061503544 0.14978993 -0.09323378 0.06825719
-0.046128258 0.027546436 -0.075917 0.14985967 0.07187202 -0.10185484 0.00022024233 0.1343882
0.0396602 -0.033526294 -0.045371518 -0.007960334 -0.091728196 -0.011843644 0.15321523 0.09677598
0.078750834 -0.118459225 0.113132484 -0.38031596 -0.056202218 0.05939189 -0.058760095 -0.04314284
-0.03255938 0.017869815 -0.021078527 -0.09711316 0.1326732 -0.13891967 0.055712085 0.1133295
0.123033665 0.017170807 -0.07035616 -0.0758961 -0.0015771999 -0.022618577 0.22806801 -0.07598261

critic.last.model.0.weight f4 [1, 64]
00000000: 3aae 283c 1870 1dbd 1e85 093d d7e0 0c3e
00000010: 4492 be3d 0e4c ed3d e0bc a63d da40 f4bd
00000020: 1497 76bd e244 a63d 5b9f 13bd eb7e 8abd
00000030: e5d4 5f3d 4070 013b 01b7 9a3d 2031 dc3d
00000040: 95a9 dcbd 4c3b 89bd d457 633d da48 cbbd
00000050: 727d 6dbd 0019 213d 0db6 b53d 570a b7bd
00000060: 3070 e53d 3492 6abd e139 2fbb 1005 243d
00000070: d05a 103e fa1f dfbc 8262 a9bc cc16 373d
00000080: 7a99 c7bc 3304 0fbe d029 14bc 2cbe a13d
00000090: dac7 8ebd 63c9 b6bd 2b3f a43c bbe8 3ebc
000000a0: cc8c 4abd c05e 39bd dcd5 edbd 3be7 f4bd
000000b0: f87f c13c 5acd 5d3d e62a fc3d 506b 3e3c
000000c0: 1460 ca3d a235 393d 40de f7bc f001 f5bd
000000d0: 3042 5c3d e759 2dbd 512a 97bd 5efd 83bc
000000e0: b6ff fa3d d79e a0bd e58c bfbb 00b5 613b
000000f0: e78f a4bd 80d9 f43b bffa e13d 1c3a 2ebd
0.010295445 -0.03843698 0.033574216 0.13757645 0.09305242 0.11586772 0.08141494 -0.11926432
-0.060202673 0.08118607 -0.036040645 -0.06762489 0.05464639 0.0019750744 0.075544365 0.10751557
-0.10774533 -0.06700763 0.05550368 -0.09926005 -0.057980962 0.039330482 0.08872614 -0.08937519
0.11203039 -0.057268336 -0.002673738 0.04004389 0.14097142 -0.027236927 -0.020676855 0.044699475
-0.024365176 -0.13966446 -0.009043172 0.078976005 -0.069717124 -0.0892513 0.020049652 -0.011652167
-0.04945068 -0.045256376 -0.11613056 -0.11958166 0.02362059 0.054150917 0.1231287 0.011622265
0.09881607 0.045217164 -0.030257344 -0.1196326 0.05377406 -0.042322066 -0.07381118 -0.016112026
0.12255804 -0.07842796 -0.0058456534 0.003444016 -0.0803526 0.007472217 0.11034154 -0.042535886
