log/CartPole-v0/a2c/policy.pth (torch, 813953 bytes, 26 tensors)

actor.preprocess.model.model.0.weight f4 [64, 16]
000000 02 0d 1f be d2 1a 34 be 66 36 3e 3e a0 07 62 3e
       -0.15532306 -0.17588356 0.18575439 0.22073221
000010 00 19 40 3c 24 6b fd 3d 4c 0d 00 3e a8 de 7d be
       0.01172471 0.12373951 0.12505072 -0.24791968
000020 40 4f e3 bb e0 0f 78 3e b2 ac 37 be a0 85 2c 3c
       -0.0069369376 0.24224806 -0.17936972 0.010529906
000030 78 b0 ce bd d0 7d 84 3c 82 43 5b be 70 ea 4a be
       -0.100922525 0.016173273 -0.21412471 -0.19815993
000040 16 db 23 be f8 ad a2 3d 78 b8 21 3d ce 37 2a be
       -0.16001543 0.07943338 0.039482564 -0.1662285
000050 a0 77 11 3d cc c2 e8 3d a0 b4 2c 3c 6e 72 70 be
       0.035514474 0.113652796 0.010541111 -0.23481151
000060 5c a0 8d 3d c4 16 6a be 08 3e 10 be 96 db 56 be
       0.06915352 -0.22860247 -0.14086163 -0.20982203
000070 1e 98 66 3e b0 f3 f2 bc 48 7b bd 3d a0 0e b6 bd
       0.22518966 -0.029657215 0.0925203 -0.08889508
000080 64 67 ce bd dc 4e 9e 3d 64 b6 0f 3e 12 f3 1e be
       -0.10078314 0.07729885 0.1403442 -0.15522411
000090 0c f0 b0 bd 56 a1 11 3e f0 88 39 3e 50 45 cb bc
       -0.08639535 0.14221701 0.18118644 -0.024813324
0000a0 a0 91 67 3e 94 2d ec bd 80 73 a9 bc 14 ed f1 bd
       0.22614145 -0.11532131 -0.020684958 -0.11812797
0000b0 30 c6 71 be b8 0f 9d bd ba 04 7f 3e ac ec 34 be
       -0.23610759 -0.07669014 0.24904147 -0.17668408
0000c0 c0 1e 23 bc 38 df 92 bd e4 e7 cd 3d 96 69 67 be
       -0.009956062 -0.07171482 0.10053995 -0.22598872
0000d0 8c ff 7e be d4 b6 c0 bd 50 05 3c be 60 28 09 bc
       -0.24902171 -0.09409872 -0.18361402 -0.008371443
0000e0 e0 91 85 3c 40 72 b9 bc 28 33 2c bd 00 5d e5 bc
       0.01630491 -0.022637486 -0.042040974 -0.027998447
0000f0 a8 fa 4a 3d 76 50 67 3e a8 99 83 3d 84 a8 0b be
       0.04955545 0.22589287 0.06425792 -0.13638502
000100 ae d6 1e 3e ae 5f 33 be 6e fd 61 be b0 26 38 3e
       0.15511581 -0.17516968 -0.22069332 0.17983508
000110 38 29 f2 bd 00 6e 32 bd 3c 0d f1 3d fc 56 87 bd
       -0.11824268 -0.043561935 0.117701024 -0.06608388
000120 68 62 45 bd dc 2f 5f 3e 5c 45 1e be ce 62 53 be
       -0.04818955 0.217956 -0.15456146 -0.2064316
000130 f4 bf da bd 32 ad 4f be 5c 9a 8a bd b2 51 7d 3e
       -0.106811434 -0.20280913 -0.06767723 0.24738196
000140 f6 a4 48 be bc db b1 bd 96 41 5c 3e 72 22 53 be
       -0.19594178 -0.08684489 0.21509394 -0.20618609
000150 a0 5d 47 3e d0 ab c4 3c e0 35 3b bc 90 c3 35 3d
       0.19469309 0.024007708 -0.011426419 0.044375956
000160 86 af 55 be 7c 93 e2 3d d4 61 15 be c0 9e f0 bc
       -0.20867738 0.11063287 -0.145881 -0.029372573
000170 8e 21 00 be e0 15 12 3d 9c e7 b9 3d a4 8f 09 3e
       -0.125128 0.035665393 0.09077379 0.13433701
000180 a0 75 00 bd d0 fb eb 3d c6 0c 23 3e 78 1d 8b 3d
       -0.031362176 0.11522639 0.15922841 0.0679273
000190 82 b1 42 3e 02 21 7e be 86 23 2f be 60 3a 58 3e
       0.19013026 -0.24817279 -0.17103395 0.21116018
0001a0 a2 c2 63 3e 84 c7 2d be bc cf d4 3d 22 57 38 3e
       0.22242215 -0.1697064 0.10391185 0.18001989
0001b0 20 16 7d 3d fc a8 f3 3d f4 77 f3 3d 08 b4 00 3d
       0.06178868 0.118974656 0.118881136 0.03142169
0001c0 fc e7 e2 bd fe e3 7d be 50 c0 d9 bd fe c6 02 3e
       -0.11079404 -0.24794003 -0.10632384 0.12771222
0001d0 20 b9 ce 3c 30 cf b5 bd e0 22 01 be 44 64 2c be
       0.025234759 -0.088774085 -0.1261096 -0.16835123
0001e0 10 39 4c 3d 84 12 a6 bd 5c 2e 9c 3d ec 18 a1 bd
       0.049859107 -0.08109 0.0762603 -0.078660816
0001f0 7c 7d 6a be c0 2b e7 bd 66 0c 09 3e a8 27 0a bd
       -0.22899431 -0.112876415 0.13383636 -0.033729225
000200 2c a7 14 be ee 2c 42 3e 50 a1 39 bd 80 1c 49 bb
       -0.14516896 0.18962452 -0.045319855 -0.0030687153
000210 90 c8 a3 bc 96 df 36 3e 4e c1 73 3e 10 c8 e4 bd
       -0.019993097 0.17858729 0.23804209 -0.111709714
000220 04 4c 61 3e 7c 13 50 be 38 46 30 3d 80 66 6f 3c
       0.22001654 -0.20319933 0.043035716 0.01461184
000230 30 99 1a 3e 10 b1 be bc 82 e4 62 3e fe 98 2d be
       0.15097499 -0.02327779 0.22157481 -0.16952893
000240 d8 83 bd 3d 6c 06 36 3e f8 50 18 be b0 27 b7 3c
       0.09253663 0.17775887 -0.14874637 0.022357792
000250 80 b8 ea bb 10 f1 94 bc d0 43 1e 3e d4 18 42 be
       -0.0071631074 -0.018181354 0.15455556 -0.18954784
000260 8c 9e 69 3e d8 7a 64 bd 70 fe 5c be 50 37 0c bd
       0.22814387 -0.055781215 -0.21581435 -0.034232438
000270 b0 bb 80 3d b4 6c 63 be 50 b0 6f bd b2 49 1b be
       0.062857985 -0.22209436 -0.058517754 -0.15164831
000280 f4 af f2 bd 30 bd 05 3e d4 31 0b be 6e d7 73 be
       -0.11849967 0.1306045 -0.13593227 -0.23812649
000290 c0 87 c3 3c 96 4a 16 be 94 e2 45 3e 52 53 00 3e
       0.023868442 -0.1467689 0.19324714 0.12531784
0002a0 50 10 f5 bd bc 86 f9 3d 50 ca 48 be 90 3f 95 3d
       -0.11966002 0.12183902 -0.19608426 0.07287514
0002b0 2a cd 30 be 8c 29 fb 3d 86 72 05 3e 80 ba a3 bd
       -0.17265764 0.12263784 0.13031968 -0.079945564
0002c0 80 6c 17 3d a0 2a 7d 3d c6 d7 21 3e b2 01 53 be
       0.036968708 0.06180823 0.15804967 -0.20606115
0002d0 40 4b 21 3c 16 e9 56 3e 88 c9 00 3d 48 03 59 3e
       0.009844601 0.20987353 0.031442195 0.21192658
0002e0 ba db 24 3e 10 c6 56 3d a8 f0 30 be 28 19 57 bd
       0.16099444 0.05243498 -0.17279303 -0.052514225
0002f0 58 0e d7 3d e0 d7 e3 bd 32 29 53 be e8 70 55 bd
       0.10500783 -0.11125159 -0.20621184 -0.05210963
000300 6c 6e be 3d 00 15 60 3c c6 23 67 be 02 6e 35 3e
       0.09298405 0.013676882 -0.2257224 0.17717746
000310 30 e7 58 3e 00 c4 8a 3c 14 07 aa bd 00 70 bf 3d
       0.21181941 0.016939163 -0.08302131 0.09347534
000320 fe 6c 23 3e 86 5d 6e 3e 76 d0 01 3e 00 5a c7 bd
       0.15959546 0.23277864 0.12677178 -0.09733963
000330 7c d3 94 3d 8e 8a 15 be 14 76 32 3e 84 38 ee 3d
       0.072669 -0.14603636 0.17427856 0.11631873
000340 42 23 01 3e 50 c1 ee 3c 28 1c 4c 3e 42 9a 0a be
       0.12611106 0.029144913 0.19932616 -0.13535407
000350 10 9b 6a 3e 26 46 02 be 8c ec 3f be 8c 07 62 be
       0.22910714 -0.12722072 -0.18742579 -0.22073191
000360 d0 ab b5 bd 5a c9 69 3e 74 a3 de 3d ae 23 2c be
       -0.08870661 0.22830716 0.1087102 -0.16810486
000370 20 2c a4 bd 70 dd 37 bd f8 e5 02 3d 80 2b 28 be
       -0.08016229 -0.044888914 0.031957597 -0.16422844
000380 7a c0 23 3e 00 1f 2d be 3e d0 45 3e f4 6f 5f be
       0.15991393 -0.16906357 0.1931772 -0.2182005
000390 a0 5c 63 bd 00 51 f4 3d 46 65 47 be 44 5f f3 3d
       -0.055508256 0.11929512 -0.19472227 0.11883405
0003a0 18 f4 05 be 78 f6 3a bd f0 4f bb 3c e2 31 0a 3e
       -0.13081396 -0.045645207 0.022865266 0.13495591
0003b0 80 9f 13 be 08 31 67 be 94 d2 ab 3d f8 d3 4c 3d
       -0.14416313 -0.22577298 0.08389774 0.050006837
0003c0 10 f8 01 3d 3c 79 5b be 1e 64 66 be 34 d0 13 be
       0.03173071 -0.21432966 -0.22499129 -0.14434892
0003d0 c4 f0 fb 3d b8 1d 1a bd 80 49 68 be e6 d5 47 3e
       0.12301782 -0.037626 -0.22684288 0.1951519
0003e0 54 ab 93 bd 38 8a 44 3e e4 e3 78 be 50 47 a9 bc
       -0.072104126 0.19193351 -0.24305683 -0.020663887
0003f0 82 79 3d be ea 75 57 3e 28 9e 70 3e 1c 81 0e be
       -0.18503383 0.21041074 0.23497832 -0.13916439

actor.preprocess.model.model.0.bias f4 [64]
000000 24 6c ed bd 1c a4 e2 bd 7c 82 7a be 48 8b 40 bd
       -0.11592892 -0.11066458 -0.24463838 -0.04700783
000010 2c b9 92 bd 48 9a 66 be 74 07 88 bd 30 02 ae 3d
       -0.07164225 -0.22519791 -0.066420466 0.08496511
000020 b8 6d 00 bd c0 bb a4 3c 60 85 c9 bd d8 61 21 3e
       -0.031354636 0.020109057 -0.098398924 0.1575998
000030 e4 08 90 3d fc 44 9c bd 88 db e6 bd 40 b5 d0 3b
       0.07032946 -0.07630345 -0.11272341 0.006369263
000040 cc 95 e0 bd 50 69 af bc e8 49 01 3d 9a d8 32 be
       -0.109660715 -0.021412522 0.031564623 -0.1746544
000050 50 47 d7 bc 3a a5 6f be 3a 30 68 3e 82 0a 4f 3e
       -0.026279122 -0.23402873 0.22674647 0.20218852
000060 00 62 86 3b 88 3e 4b 3e 18 32 2d 3d dc e8 5d 3e
       0.004101038 0.19848073 0.0422841 0.2167086
000070 68 99 0e 3d 5a 0c 56 3e 3a 31 46 be f0 ab 1f 3e
       0.03481427 0.20903149 -0.19354716 0.15592933
000080 68 e0 e1 3d 3a be 14 3e c6 58 50 be a8 4c 36 3d
       0.1102913 0.1452569 -0.20346364 0.0445067
000090 30 8d 66 bd 30 21 3f 3e 74 70 a6 bd 98 97 d2 3d
       -0.05628699 0.18665004 -0.081269175 0.102828205
0000a0 ee 8f 2f 3e 6e fd 46 be 72 6e 7f 3e 6c a9 0b 3e
       0.17144749 -0.19432613 0.24944475 0.13638848
0000b0 14 25 79 3e 66 f1 3f 3e 06 32 6b be 38 6a c5 3d
       0.2433055 0.1874443 -0.22968301 0.096394
0000c0 84 32 a6 3d 80 9f 83 bc a0 df 9b bd 50 ce 51 bd
       0.08115104 -0.016067266 -0.076110125 -0.051222146
0000d0 18 6b 2a 3e 9a 42 7c 3e 80 f6 30 3d a8 4b 49 bd
       0.16642416 0.24634781 0.04320383 -0.049144417
0000e0 88 4c 0f 3d 7c 86 e4 bd ac fd 3b 3e 80 c9 54 3e
       0.034985095 -0.11158463 0.18358487 0.20779991
0000f0 f4 bc 95 3d de ec 17 3e 00 a2 2f 3c c0 2f 7c bc
       0.073114306 0.14836451 0.010719776 -0.015392244

actor.preprocess.model.model.2.weight f4 [64, 64]
000000 c2 cc d9 3d 70 6e f8 3c ee 50 bb bd 92 2c da bd
       0.106347576 0.030326098 -0.091462955 -0.10653032
000010 3a cd 9a 3d 70 a2 e0 3c 3c 73 17 bd 70 61 48 3d
       0.07558675 0.027421206 -0.03697513 0.04892105
000020 f8 26 be bc a0 cb 6b bc 58 e8 20 3d 88 85 91 bc
       -0.023211941 -0.01439181 0.03928408 -0.017763868
000030 26 3e cc bd 78 ac 8e bd 20 1b e5 bb 9c c8 5d 3d
       -0.099727914 -0.069664896 -0.006991759 0.054146394
000040 84 a7 94 bd c4 2a a1 3d e8 35 72 3d d2 6b 80 3d
       -0.072585136 0.07869485 0.05913344 0.06270565
000050 00 6c 70 3c 6a 15 c3 bd b2 ae f3 bd d2 7a 9b 3d
       0.014674187 -0.09525569 -0.11898555 0.075917855
000060 50 5f 53 bc bc ff 70 bd a8 e0 f9 3c ba 6a 95 3d
       -0.012901142 -0.058837637 0.030502632 0.07295747
000070 f0 87 fb 3c b8 51 d5 bd cc 07 42 3d 88 06 ad 3d
       0.030704468 -0.10415977 0.047370717 0.08448511
000080 90 9f e8 bc c4 00 50 bd b8 1e e5 3d 74 c9 af bd
       -0.028396398 -0.05078198 0.111875 -0.08583346
000090 a8 81 1f bd 12 63 df bd 3c 50 6e bd c8 4f 37 bd
       -0.03894201 -0.10907568 -0.058181986 -0.04475382
0000a0 d0 ff 24 3d 18 1d cf bd 80 ff 53 3d fe 29 f2 bd
       0.040283024 -0.10112971 0.051757336 -0.118244156
0000b0 56 45 fb 3d 98 c9 b6 bc 88 a2 c1 bc d0 d3 56 bd
       0.12269084 -0.022312924 -0.023637071 -0.052448094
0000c0 de d9 bc bd 02 38 d9 bd f2 6f 8a bd 56 cb b1 3d
       -0.09221242 -0.10606386 -0.06759633 0.086813614
0000d0 0e 27 b5 3d 36 07 f0 bd 7a f9 fb 3d 44 c0 3a bd
       0.0884534 -0.117201254 0.12303443 -0.045593515
0000e0 f4 7d c9 bd 40 d8 4f 3b 1a ac c5 bd 50 50 2d bd
       -0.09838477 0.0031714588 -0.096519664 -0.04231292
0000f0 82 35 e2 bd fe 4c a4 3d 60 20 e9 bb fa 47 b4 3d
       -0.11045362 0.080224976 -0.007114455 0.08802791
000100 80 65 87 bb c0 39 56 3c 70 84 fe 3d c8 f8 7a 3d
       -0.004131973 0.013075292 0.12427604 0.061272413
000110 68 42 df 3c 38 b2 9d 3d a0 35 9f bd 00 b4 90 3a
       0.027253345 0.07700008 -0.077739 0.0011039972
000120 e4 c8 74 3d 46 2f 92 3d b0 96 a1 bc f4 2e cb 3d
       0.059761897 0.07137923 -0.019725174 0.09921065
000130 72 b1 89 bd 60 ba 06 bc bc 84 fb 3d 90 0f 43 bc
       -0.06723298 -0.008223146 0.122811764 -0.011905566
000140 50 39 81 3d ea d9 9e 3d 06 e0 a3 bd 80 f6 a5 3b
       0.063097596 0.077564076 -0.080017135 0.0050647855
000150 a0 1d dc bb 18 e8 bd bc e0 61 b8 3c ac fd 4f 3d
       -0.0067173988 -0.02318196 0.022507608 0.05077903
000160 e4 e6 b6 bd 30 d6 54 bc b8 49 38 bd 98 7c 81 bd
       -0.08930758 -0.012990519 -0.04499218 -0.063225925
000170 e0 86 be 3b 7c c6 fd 3d 6c ec 66 3d 18 05 6d 3d
       0.005814418 0.123913735 0.056377813 0.057866186
000180 5a ab bf bd b2 e5 bf 3d 0a 6e ab bd 20 56 6c 3c
       -0.093588546 0.09369983 -0.08370598 0.014424831
000190 30 49 d7 bd 48 b4 ca bd d6 41 ce bd 6e 13 c1 3d
       -0.10512006 -0.09897667 -0.10071151 0.09427534
0001a0 7c 77 54 bd 48 db 43 bd 08 90 e7 3d ae a1 a1 3d
       -0.05187176 -0.047816545 0.11306769 0.07892166
0001b0 bc 5d f6 bd 0c f2 2d bd 58 e9 8d bc 16 1d dc bd
       -0.12029597 -0.042467162 -0.017323181 -0.10747735
0001c0 4c e4 f1 3d aa c8 ac 3d 98 85 06 bd cc 21 12 3d
       0.11811122 0.08436711 -0.03284225 0.035676762
0001d0 0c c1 ef bd b8 b3 48 bd f0 19 da 3c f8 70 ec bd
       -0.11706743 -0.04899952 0.026623696 -0.115449846
0001e0 dc 91 61 3d 4c df d1 3d 5e db b3 bd 1a 4e 97 bd
       0.055070743 0.102476686 -0.08782075 -0.073879436
0001f0 c8 22 2e bd 68 95 e6 3d 7a 57 fd 3d 6a ae f2 3d
       -0.04251364 0.11258966 0.123702005 0.11849673
000200 b8 1c 44 3d 0e 14 b1 3d b0 70 4a 3d ea 49 dd 3d
       0.04787895 0.08646403 0.049423873 0.108051136
000210 40 3e bf 3b 10 61 96 3d a0 f6 89 bb 28 8a 72 3d
       0.005836278 0.07342732 -0.004210308 0.059213787
000220 88 c6 c9 bd e4 60 a9 bd 84 14 de bd 18 b2 bb 3d
       -0.0985232 -0.082704335 -0.10843757 0.09164828
000230 04 65 ce 3d b4 4f 21 bd 48 b8 b5 3c e0 ce d5 bc
       0.10077861 -0.03938265 0.022182599 -0.026099622
000240 3a 6e b9 3d b8 d6 f8 bc 00 c9 93 bc 78 c4 e0 bc
       0.09054227 -0.030375823 -0.01804018 -0.027437434
000250 ae 2a b6 bd 92 a7 8b bd e0 48 f2 bd 90 d9 07 3c
       -0.08894859 -0.06819071 -0.11830306 0.008291617
000260 3e 62 fb 3d 18 a8 37 bd 9c 41 11 3d a8 99 f0 3d
       0.122745976 -0.04483804 0.03546296 0.117480576
000270 76 fc fa bd f0 19 10 3d 26 85 ec bd 8c 14 d3 3d
       -0.12255184 0.035180986 -0.115488335 0.103066534
000280 92 3a 91 3d e6 a8 9f bd f0 f8 41 bd 80 db a6 bd
       0.070912495 -0.07795887 -0.047356546 -0.08147335
000290 20 be 34 bd 54 aa 0a 3d f4 bd 19 3d 8c 89 c0 bd
       -0.04412663 0.033853844 0.03753467 -0.09401235
0002a0 a8 83 a9 bc a0 70 c5 3c d0 b0 67 bc 9c c0 68 3d
       -0.020692661 0.024101555 -0.0141412765 0.05682431
0002b0 48 ac 43 bd c4 a4 66 bd 10 5a 1b 3d e0 d3 da 3d
       -0.047771722 -0.056309476 0.037927687 0.10684943
0002c0 48 28 b7 bd c4 9c 39 bd d0 d0 5a bc a8 b6 7a 3d
       -0.0894323 -0.04531552 -0.013355449 0.06120935
0002d0 64 e4 00 bd 90 e2 10 3c 18 73 42 3d 14 b4 5b bd
       -0.03146781 0.008843079 0.047473043 -0.053638533
0002e0 78 b4 9e bc 38 25 38 3d 00 e4 4a bc 50 6e 22 3c
       -0.019373164 0.04495737 -0.012383461 0.009913996
0002f0 8c f0 47 bd 70 81 cc 3c a8 9a 65 bd 60 b8 a5 bb
       -0.048813388 0.024964064 -0.056055695 -0.0050573796
000300 5e 3e fe 3d 74 08 f7 3d d0 fc 2b bd 2e eb ea 3d
       0.12414239 0.12062159 -0.041989148 0.11470638
000310 6c 6e 48 3d c0 95 6e bc a4 07 05 3d e0 41 8e 3b
       0.04893343 -0.01456207 0.03247799 0.004341349
000320 f8 84 13 3d 14 2a 11 bd e0 6d 93 bc 48 4c 8e bd
       0.03601548 -0.03544052 -0.017996728 -0.06948143
000330 b8 00 1c bd 48 fe bf 3d 1c 74 5e bd 40 41 41 bb
       -0.038086623 0.09374672 -0.05430995 -0.0029488355
000340 10 3e bc 3d b8 2a 90 3d 06 7f fd bd 34 aa 60 3d
       0.09191525 0.07039398 -0.123777434 0.05484982
000350 8a d7 9f bd 00 5e 1b 3d 38 5b 64 bd 44 59 84 bd
       -0.07804783 0.037931442 -0.055751055 -0.064623386
000360 46 32 d0 3d fc 4b bf bd c0 06 ef bc 72 90 e7 3d
       0.10165839 -0.09340665 -0.029178023 0.11306848
000370 38 36 dd 3d 98 ca 91 3d 20 96 69 bd f0 28 41 3c
       0.10801357 0.0711872 -0.057027936 0.011789545
000380 10 db ef bd 18 e3 9c bd e6 73 df bd c4 26 af bd
       -0.11711705 -0.07660502 -0.10910778 -0.08552316
000390 b0 95 8e bd 90 09 19 bc 44 00 4d bd 3c c4 e5 bd
       -0.069621444 -0.009340659 -0.05004908 -0.11219069
0003a0 10 3a ec bd 7e ec a8 bd 04 75 c3 3d 52 31 9e bd
       -0.11534512 -0.08248232 0.09543803 -0.07724251
0003b0 ec f8 15 bd f8 42 b2 bd 3c 9e b4 3d 20 8d f0 3b
       -0.036614344 -0.087041795 0.08819243 0.007341042
0003c0 34 1f 71 3d a0 85 1f bc 44 07 0b bd 44 68 94 bd
       0.05886765 -0.0097364485 -0.033942476 -0.072464496
0003d0 5a 92 f2 bd 88 31 ab bc 42 f1 d0 3d 30 8b 2e 3d
       -0.118443206 -0.020897642 0.10202266 0.04261321
0003e0 42 29 87 bd 20 11 25 bc 84 36 c7 bd b0 ff 71 3c
       -0.06599666 -0.010074884 -0.09727195 0.014770433
0003f0 44 8a 62 bd d2 ec ca 3d 0e 8a 95 3d 8e 84 fc 3d
       -0.05530764 0.09908451 0.073017225 0.1232997

actor.preprocess.model.model.2.bias f4 [64]
000000 f0 7c 83 bc ce 46 9b 3d ac 78 fe bd ec ec 53 bd
       -0.016050786 0.07581864 -0.1242536 -0.05173962
000010 46 e8 ee bd 74 9b 27 bd 58 67 f7 bc 04 00 aa 3d
       -0.116653964 -0.040919736 -0.030200645 0.08300784
000020 5c c4 73 3d 5e a7 98 3d 70 8a 4d bc 18 da 7e 3d
       0.059513435 0.07453798 -0.012545213 0.06221971
000030 ac e0 48 bd a8 77 dc 3d 78 e3 3c 3d 00 98 b1 39
       -0.04904239 0.1076501 0.04611537 0.0003387332
000040 58 fd d0 3d 18 c8 e4 3c 16 2a 9d bd 48 cc 0b bd
       0.102045715 0.027927443 -0.07674043 -0.034130365
000050 cc 05 3a bd 40 70 2a bd c4 e4 5c 3d d8 2c 90 3d
       -0.045415685 -0.041610956 0.053929105 0.07039803
000060 16 26 ad bd 42 5c bd 3d 46 c9 89 3d 62 5a f2 bd
       -0.0845453 0.092461124 0.06727843 -0.118336454
000070 f6 4f e6 bd a6 af e5 3d 00 67 7f 3b 88 85 0e bd
       -0.1124572 0.11215143 0.0038971305 -0.034795314
000080 b4 84 7e bd 90 9d 2c 3c 6c bf 9f 3d 0a 80 b4 3d
       -0.062138274 0.010535613 0.07800183 0.08813484
000090 e6 46 d8 3d 78 47 d2 bc 8c 46 c1 3d 44 93 a0 3d
       0.10560398 -0.025668845 0.09437284 0.07840589
0000a0 c0 74 6f bc 26 38 f9 bd e8 76 30 3d d8 b4 8d 3c
       -0.014615238 -0.121689126 0.043082148 0.017298147
0000b0 ac a3 ca 3d 28 8f af 3c f6 87 94 3d 2c 4c 76 3d
       0.09894499 0.021430567 0.07252495 0.060131237
0000c0 6c 71 c2 bd d8 84 df bc 00 10 75 b8 f2 5c ba 3d
       -0.0949429 -0.027285025 -5.8427453e-05 0.09099759
0000d0 2e e4 b1 bd 2e 4a e4 3d 34 09 98 3d 74 51 6c 3d
       -0.086861 0.11146961 0.0742363 0.057694867
0000e0 32 6e 9e 3d bc 9d 48 3d 06 59 f1 3d 78 0c 20 bd
       0.07735862 0.048978552 0.11784558 -0.03907439
0000f0 b4 bf 84 3d 70 6d 8b bd dc 3b 7c 3d 6c 3a bc bd
       0.06481877 -0.06807983 0.061580524 -0.091908306

actor.last.model.0.weight f4 [1000, 64]
000000 cc 37 55 3d 88 37 8f bd 00 61 37 3a d2 6e bd 3d
       0.052055165 -0.069930136 0.000699535 0.09249653
000010 d0 9e d5 bc dc 9a b4 3d d0 59 3f bd 40 11 18 3d
       -0.026076704 0.088185996 -0.04671651 0.037125826
000020 3c b0 da 3d de b2 bb bd 44 1f 2d bd d0 44 f0 bc
       0.10678145 -0.091649756 -0.042266145 -0.029329687
000030 a0 02 b0 bc f0 49 98 bc bc 87 3a 3d ce e8 88 3d
       -0.021485627 -0.018589944 0.045539603 0.06685029
000040 10 e4 46 3c 56 89 f8 bd 96 fc cc bd 58 5f d7 bd
       0.012139335 -0.1213557 -0.100091144 -0.10516232
000050 d6 38 a6 bd dc 0b d1 3d fe c3 db 3d 10 21 ba bc
       -0.08116309 0.1020734 0.10730742 -0.022720844
000060 60 19 49 3d b4 e1 94 bd 86 4d e5 3d d0 00 a4 3d
       0.049096465 -0.07269612 0.11196427 0.080079675
000070 0c 4d ec bd 4a b2 e4 bd d8 09 ac 3c 48 94 e3 bc
       -0.11538133 -0.111668184 0.021000788 -0.027780667
000080 98 a9 ea 3d d8 d0 ca 3c b0 1e 13 bc a8 75 a9 bc
       0.11458129 0.024757788 -0.008979484 -0.020685986
000090 20 c3 c6 3c d8 1c f7 bc 92 82 e5 3d 4c ed 07 3d
       0.024262965 -0.030165121 0.11206545 0.03318529
0000a0 d4 b9 14 bd e0 c1 85 bc f0 1c 13 bd 08 83 4a bd
       -0.036310032 -0.016327798 -0.03591627 -0.049441367
0000b0 94 47 96 3d 60 82 46 3c 64 61 45 3d c0 2f c7 bc
       0.07337871 0.012116045 0.048188582 -0.024314761
0000c0 58 4a bf 3c 00 f8 f1 38 94 86 e5 3d 60 82 e0 bd
       0.02335088 0.00011537969 0.11207309 -0.10962367
0000d0 ec d9 6d bd 28 1d 95 bd da 4d b0 bd 70 d9 91 3c
       -0.058069155 -0.07280952 -0.08608599 0.017803878
0000e0 20 ad 92 bc 84 1f c6 bd a6 b2 9c bd a0 63 d8 3c
       -0.017904818 -0.0967398 -0.07651262 0.026414692
0000f0 a4 fe 54 bd e8 2b a3 bd 20 ac bc bb 04 d6 75 bd
       -0.052000657 -0.07967359 -0.0057578236 -0.060018554
000100 7e c8 d7 3d 50 eb 91 3d c4 64 15 3d bc 81 4b bd
       0.10536288 0.071249604 0.03647305 -0.04968427
000110 00 2b 02 3a 0c 47 33 3d e0 a6 ba 3c a8 a7 b8 bd
       0.0004965514 0.043768927 0.02278465 -0.09016353
000120 08 7a 61 bd 80 78 47 bd c6 43 99 bd 1e 0e d5 bd
       -0.05504802 -0.048698902 -0.0748363 -0.10403083
000130 34 27 b9 bd d8 52 98 3d c8 54 ef 3c 68 9b 28 3d
       -0.090406805 0.07437676 0.029215232 0.041163832
000140 8c 13 5b 3d fe 53 f9 3d b4 e2 46 3d 92 91 c7 3d
       0.05348544 0.12174223 0.048556045 0.09744562
000150 68 89 a2 bc 5a 1a 9b 3d 80 d2 ca 3d 78 67 f5 bc
       -0.019840911 0.075733855 0.09903431 -0.029956564
000160 10 70 71 bc 54 1d a4 3d 82 37 df bd 4c 22 6c 3d
       -0.01473619 0.080134064 -0.10899259 0.057649896
000170 a6 9f ba bd 30 e3 18 3c 40 46 59 bb f4 5c 40 bd
       -0.09112482 0.0093315095 -0.0033153445 -0.046963647
000180 7c fd 6a bd ce 85 b2 bd 2e 10 c3 3d 4a a6 89 3d
       -0.057370648 -0.087169275 0.095245704 0.0672117
000190 c4 d9 8f bd 5a e8 aa 3d e4 c1 6d 3d 20 04 8b bc
       -0.07023957 0.08345099 0.058046237 -0.01696974
0001a0 da 79 b6 3d 28 e2 29 bd 70 19 ab bd fa aa a3 bd
       0.0890996 -0.041475445 -0.08354461 -0.079915956
0001b0 46 a5 e8 bd 04 f8 70 bd 64 b1 06 3d 0a c3 b7 bd
       -0.113596484 -0.058830276 0.032884017 -0.089727476
0001c0 20 44 9a 3c 1c d7 8a 3d c4 64 2e bd b0 25 0d bc
       0.018831313 0.0677931 -0.042576566 -0.008614942
0001d0 20 46 39 3d a2 fd c7 bd 74 e2 93 3d 80 80 bf bd
       0.045232892 -0.097651735 0.07220927 -0.09350681
0001e0 98 64 47 bd 60 e6 3e bc a8 cd 3a 3d 08 24 2d bd
       -0.048679918 -0.011651605 0.045606285 -0.04227069
0001f0 48 4e 3b bd 88 4c aa 3c 48 4d d5 bd 58 73 99 bd
       -0.04572895 0.020788446 -0.10415131 -0.07492703
000200 e0 56 9d 3d 40 66 1f 3d 20 9b 00 3c e2 45 e1 bd
       0.07682586 0.038915873 0.007849485 -0.10999657
000210 0a 50 c9 bd a8 21 91 bd 00 a0 14 3b 30 09 ca 3d
       -0.09829719 -0.070864975 0.0022678375 0.098650336
000220 58 92 83 bd 28 5a 20 3d 00 23 b7 3c 94 eb b1 3d
       -0.06424397 0.03914848 0.022355556 0.08687511
000230 e0 90 fb bb 9c 83 3c 3d b6 ee f1 bd 58 84 4f 3d
       -0.0076771826 0.04602395 -0.118131086 0.050663322
000240 d8 0b 96 3d 10 dc 19 bd 80 d1 b2 3b 3e ad cf bd
       0.07326478 -0.037563384 0.0054571033 -0.10140465
000250 98 07 da 3c fc 7b 5e 3d b4 c8 db 3d 88 fb 50 bd
       0.02661495 0.05431746 0.107316405 -0.05102113
000260 ac 86 b5 3d 20 c5 9f 3b a8 e7 ef bc c0 34 26 3d
       0.08863577 0.004875794 -0.029285267 0.04057765
000270 08 a1 1f 3d f0 18 10 bc 80 b6 c0 bb 38 31 b3 bd
       0.03897193 -0.008795008 -0.0058811307 -0.08749622
000280 3c 52 d1 bd 10 35 3a bd 0c a0 81 3d a4 35 a5 bd
       -0.10220763 -0.04546076 0.06329355 -0.08066872
000290 50 47 67 3c 22 ea 9c 3d b6 18 cc bd d4 10 69 bd
       0.014116123 0.07661845 -0.09965651 -0.056900814
0002a0 40 0c 96 3c d2 e6 c9 bd 84 a9 fe 3d 16 40 94 3d
       0.018316388 -0.098584786 0.12434676 0.07238786
0002b0 8c a7 53 3d 1e 01 8b 3d 40 11 b4 bd 9e 4d c4 3d
       0.051673457 0.067873225 -0.08792353 0.09585117
0002c0 d2 01 9f 3d 80 9b d0 ba 00 59 35 ba 22 cd d8 bd
       0.07764019 -0.0015915483 -0.0006917864 -0.10586001
0002d0 dc 00 d8 bd d2 de 8f bd 14 1e 78 3d 80 3b 8e 3a
       -0.10547039 -0.070249215 0.06057556 0.0010851473
0002e0 0e 25 82 bd 10 1b 31 bd 94 3c de bd 78 db 77 bd
       -0.06354724 -0.0432387 -0.10851398 -0.060512036
0002f0 e0 10 9a 3c 28 34 eb bd d4 99 f1 3d 00 be 69 bc
       0.018806875 -0.114845574 0.117969185 -0.014266491
000300 b0 71 f3 bd 68 15 df bd 6c f9 ee bd f8 4c 67 bd
       -0.118869185 -0.10892755 -0.11668667 -0.056469887
000310 30 62 6e bc d0 f4 33 3d 28 6a cb 3d 40 de ba 3d
       -0.014549777 0.043934643 0.09932357 0.09124422
000320 96 35 f1 3d c4 9d 60 bd a0 a2 3c 3c b4 d0 1d bd
       0.11777799 -0.054837957 0.011513382 -0.038529113
000330 26 55 f9 bd e8 86 60 bd 80 f8 64 bc a0 9e c5 bc
       -0.12174444 -0.054816157 -0.013975263 -0.02412349
000340 48 f3 7b 3d 46 b7 d7 bd d4 0a 6b 3d 0e 9b d4 bd
       0.061511308 -0.105330035 0.057383373 -0.10381137
000350 54 1d b5 3d 7a 13 c9 3d 04 09 34 3d e2 d3 a4 bd
       0.088434845 0.09818168 0.04395391 -0.08048226
000360 38 36 e7 3c b0 29 f0 3d 0c 09 f7 3d 2c 11 93 3d
       0.028224096 0.11726701 0.120622724 0.0718101
000370 5e 77 ce bd 9c 04 10 3d 9c c8 43 bd 66 8c 83 bd
       -0.10081361 0.035160646 -0.047798738 -0.06423263
000380 c8 3c 21 bd 8c 6c 4a 3d 24 1b 2c bd dc 87 b4 3d
       -0.039364606 0.049419925 -0.04201807 0.088149756
000390 30 03 89 3d 5e 4a be 3d 90 9d b1 bd 20 8d 2b 3d
       0.06690061 0.09291528 -0.08672631 0.041882634
0003a0 7e 52 8b bd 9a 72 c5 bd 58 9d 8f 3c 58 a7 ba 3c
       -0.068028435 -0.09640999 0.017531082 0.022784874
0003b0 00 38 dc 39 a4 35 c4 3d a6 b6 c5 bd c0 8a 9f 3d
       0.00042003393 0.09580544 -0.09653978 0.07790136
0003c0 2a 92 cb 3d 6c 08 fb 3d 9e 10 ef bd ac cb 4b bd
       0.09939988 0.12257466 -0.11673091 -0.049754784
0003d0 30 ad 45 3d 4c f2 68 3d 26 0a d8 bd d2 51 f4 bd
       0.048260868 0.056871697 -0.10548811 -0.119296685
0003e0 ec 13 50 bd 00 ec a9 bd 60 e1 d5 3c 94 5e 28 3d
       -0.05080025 -0.082969666 0.026108444 0.04110582
0003f0 80 b2 3c 3b 3e 54 bb bd a0 62 ce bd 48 6a a8 bc
       0.0028792918 -0.09146927 -0.10077405 -0.020558491

actor.last.model.0.bias f4 [1000]
000000 14 7f 31 3d 8e ca c2 3d 58 9b fb bc b8 51 a8 bd
       0.04333408 0.095112905 -0.030713722 -0.082187116
000010 d4 d4 ab 3d 34 d5 8d 3d c0 0d 67 3c cc 6e 4a 3d
       0.08390203 0.06925431 0.014102399 0.04942207
000020 e8 a5 76 bd 60 85 33 3d c0 5d 27 3c 04 74 bc 3d
       -0.060216814 0.04382837 0.010215223 0.09201816
000030 04 4e ea bd e0 9e 2c 3d 26 14 e1 bd ce a4 82 bd
       -0.114406615 0.042143703 -0.10990171 -0.0637909
000040 c0 d5 93 3c a0 f8 b3 bd 3e 66 d6 3d b0 1d 34 3d
       0.01804626 -0.08787656 0.1046872 0.043973625
000050 20 19 da 3c e0 09 fb bc a0 4f 6f bd b0 a6 6f 3c
       0.026623309 -0.030644357 -0.058425546 0.014627144
000060 a8 fc 08 3d 16 cf e6 3d ac 52 8a 3d 78 1b 78 3d
       0.033444077 0.11269967 0.0675405 0.06057307
000070 80 b4 19 3b dc 27 02 3d d8 dd db bd 14 65 97 3d
       0.0023453534 0.031776294 -0.10735673 0.07392326
000080 b0 0e 8c 3c e8 70 de bd b6 28 b7 bd 30 35 8b 3d
       0.017096847 -0.10861379 -0.08943312 0.06797254
000090 98 b1 e4 3d f2 3e 99 bd 48 d7 e5 bd e4 eb 89 bd
       0.11166686 -0.07482709 -0.11222702 -0.06734446
0000a0 2a 94 8f bd 60 ed b0 bb 10 92 e7 3d 08 03 db bd
       -0.07010682 -0.005399391 0.11307156 -0.106939375
0000b0 f8 ee b5 bc b2 12 85 bd 9c 8f ee bd 4c 99 cb 3d
       -0.022208676 -0.064977065 -0.11648485 0.099413484
0000c0 12 f6 de 3d 68 6b e1 3d 6c 18 0b 3d 14 5f e1 bd
       0.10886778 0.11006814 0.033958837 -0.11004463
0000d0 82 05 b6 3d 66 47 ec 3d 28 35 2a bd 20 0b eb 3c
       0.08887769 0.11537056 -0.0415546 0.028691828
0000e0 36 e4 fb bd 80 11 e0 bb 74 2f 21 3d fa 70 b5 3d
       -0.12299387 -0.0068380237 0.039351895 0.08859439
0000f0 3a bf 85 3d 1c 6d f3 3d 0a ac a4 3d ca d7 96 bd
       0.06530614 0.11886045 0.08040626 -0.07365377
000100 80 e4 5b bd fc b3 c8 bd d8 f5 ab 3d b2 bd d3 3d
       -0.05368471 -0.09799954 0.083965 0.10338916
000110 30 6d 2f bc 28 51 54 3d 94 ee e2 3d cc b4 90 bd
       -0.010707185 0.05183521 0.110806614 -0.07065734
000120 50 1c 70 bc 08 94 6b bd 20 73 b5 3c 98 13 95 bd
       -0.014655188 -0.05751422 0.022149622 -0.07279128
000130 d0 7f 5a 3c 6c aa 3a 3d c0 a5 6c bd c6 7a ae 3d
       0.013336137 0.045572683 -0.05777526 0.08519511
000140 e0 f4 66 bc 12 3c f1 bd 74 31 43 bd d0 98 ed bc
       -0.014096469 -0.11779036 -0.047654584 -0.02900353
000150 82 f5 91 bd 50 c1 1c bc e0 79 9d 3c 98 f0 fb bd
       -0.07126905 -0.009567574 0.019223154 -0.12301749
000160 a8 ab 94 3c c0 62 6a 3b 20 95 08 bd 60 df 89 3c
       0.018148258 0.0035764426 -0.03334534 0.016830146
000170 26 12 ef bd f4 95 d4 bd e4 60 e2 bd 10 a9 32 bd
       -0.116733834 -0.10380164 -0.11053637 -0.04361826
000180 b8 33 d4 bc 60 3d 79 3d 0c 7e 8c 3d f6 1b d1 bd
       -0.025903568 0.060849547 0.06859979 -0.10210411
000190 cc fe ad 3d a0 c9 f7 bc c0 25 3e 3d 9e f1 b4 3d
       0.08495864 -0.03024751 0.04642272 0.08835147
0001a0 5c 77 1a 3d 46 37 82 3d 0e 5d f4 3d 80 6b 09 3c
       0.037711486 0.06358199 0.11931811 0.008387446
0001b0 f2 5c 87 bd 80 05 71 3d 78 9b bf 3d 80 cd e5 3b
       -0.06609525 0.058843136 0.09355825 0.007013023
0001c0 9c c2 db bd c8 c3 fd 3c 64 57 94 bd 68 ac de bd
       -0.10730478 0.030977145 -0.07243231 -0.10872728
0001d0 c4 e6 58 bd 86 de e9 3d de b0 a3 3d b8 82 d5 3c
       -0.05295445 0.11419396 0.07992719 0.026063308
0001e0 9e 0c 9f 3d 50 55 17 3c 38 e7 d6 3c 5a ea df bd
       0.077660784 0.009236649 0.0262333 -0.10933371
0001f0 20 11 09 3c fc a5 ef 3d f2 33 a6 3d 9c 80 bf 3d
       0.008365899 0.11701581 0.081153765 0.09350702
000200 44 6a a0 3d a4 f4 22 bd e2 a7 a6 3d fa 7d 86 3d
       0.078327686 -0.03978409 0.0813749 0.06566997
000210 ac 72 4f bd 1c db 2e 3d 5a 11 8b bd c0 73 01 3b
       -0.05064647 0.042689428 -0.06790419 0.001975283
000220 4c 7e 10 3d 4c 07 01 bd b0 ec fc 3c ae 68 e1 bd
       0.035276696 -0.0315011 0.03087458 -0.11006294
000230 6e 88 d4 3d 2a eb 95 bd 20 3a e8 3c f0 0c 67 3d
       0.103775844 -0.073202446 0.028348029 0.056408823
000240 44 83 7a bd 10 7b 29 3d a0 ca 09 3c f6 a4 92 bd
       -0.06116034 0.041377127 0.008410126 -0.0716037
000250 c8 05 6d bd 78 44 72 bd 84 8f 78 3d e0 87 b7 3d
       -0.05786684 -0.05914733 0.060683742 0.08961463
000260 7c 2c bf bd 98 02 88 bc 08 e5 03 bd c0 0d 1f 3b
       -0.093346566 -0.0166028 -0.032200843 0.002426967
000270 00 06 db 3c d4 f3 f6 bd 70 63 05 bc f8 6b 56 3d
       0.02673626 -0.12058225 -0.0081413835 0.05234906
000280 c4 f6 ae 3d 2c d3 b8 3d 38 75 eb 3c 98 eb 2f 3d
       0.085431606 0.09024653 0.028742418 0.04294929
000290 60 cf 7c bc 62 32 cb 3d 7c 87 f4 3d 9c 5f 78 3d
       -0.015430301 0.09921719 0.11939904 0.060638055
0002a0 a8 60 23 3d 70 ce 5d 3c 58 5f f5 3c cc d0 d8 bd
       0.0398871 0.013537988 0.02995269 -0.105867
0002b0 fa b9 e7 3d 14 58 43 bd cc e8 7f 3d 26 50 f4 3d
       0.11314769 -0.04769142 0.06247787 0.119293496
0002c0 e0 7f 4f bc 22 f0 92 3d d0 89 73 3d b0 52 88 3d
       -0.012664765 0.07174708 0.0594576 0.066563964
0002d0 68 bf f3 3c 78 6e c5 3d ae f8 9b bd b8 94 7c bd
       0.029754356 0.09640211 -0.07615791 -0.061665267
0002e0 30 bd 06 3d 90 d1 01 bd d0 e2 0f bd e0 21 c2 3d
       0.032895267 -0.031693995 -0.035128415 0.094791174
0002f0 20 8e 9b 3d 90 1c e8 3d 2a 2c c5 bd 7c 94 e2 bd
       0.075954676 0.11333573 -0.09627564 -0.110634774
000300 b8 07 0b 3d a0 75 06 3d d8 2f 80 3d 7c a8 e9 3d
       0.033942908 0.03282702 0.062591255 0.11409089
000310 10 a4 54 bc c0 cc 93 bb b8 20 39 bd c8 8b 14 bd
       -0.012978569 -0.004510492 -0.04519722 -0.03626612
000320 c0 fb 2a 3c 80 b7 ed 3c 14 9b 2f 3d ee 90 bf 3d
       0.010435998 0.029018164 0.042872503 0.09353815
000330 50 37 06 3d 82 0b f9 bd a4 bc 28 3d 06 f0 8e bd
       0.032767594 -0.12160398 0.041195527 -0.069793746
000340 3c 67 da bd 20 5b d8 bd 28 f5 3e bd a0 7b 44 bd
       -0.10664222 -0.10564256 -0.046620518 -0.04796946
000350 e8 f5 f7 bc 5c 73 22 bd 70 c5 ec bc a0 24 12 3c
       -0.030268624 -0.039660797 -0.02890274 0.008919865
000360 d6 a7 da 3d 04 91 3d bd c0 48 77 bd 78 4d 5d 3d
       0.106765434 -0.046280876 -0.060372114 0.054028958
000370 f4 f1 a6 bd a2 d8 be bd f4 21 b5 3d 58 15 fe 3c
       -0.08151618 -0.09318663 0.08844367 0.031016037
000380 92 cf 8d 3d 70 9f 98 3c 00 d4 45 bc d8 d6 89 bc
       0.069243565 0.018630713 -0.0120744705 -0.016826078
000390 a0 46 46 bd a8 8f c6 bc b0 1b d2 3d 40 7f cb 3b
       -0.048407197 -0.024238423 0.10259187 0.0062102377
0003a0 64 7b 2e 3d 88 29 ba 3c a0 ca 53 bd c4 e5 e1 3d
       0.042598143 0.022724882 -0.05170691 0.110301524
0003b0 98 73 98 bc ea 44 95 3d 00 d4 d9 3d 94 a3 b8 bd
       -0.018609807 0.07288535 0.10636139 -0.09015575
0003c0 70 67 77 bc 3e f2 a9 bd 3c e5 2b bd fc 84 47 3d
       -0.015100345 -0.08298157 -0.04196666 0.04871081
0003d0 7e 27 a8 bd fe eb 85 3d 90 ea d9 3d 4c 54 09 bd
       -0.082106575 0.065391526 0.10640442 -0.033527657
0003e0 28 7f cc 3c 6c c2 29 3d c4 9f d9 3d f0 a9 fe bd
       0.024962977 0.04144518 0.10626176 -0.12434757
0003f0 ac 05 e4 3d d8 47 e5 bd f8 9d c1 bc 24 14 6f 3d
       0.11133894 -0.11195344 -0.023634896 0.058368817

critic.preprocess.model.model.0.weight f4 [64, 16]
000000 02 0d 1f be d2 1a 34 be 66 36 3e 3e a0 07 62 3e
       -0.15532306 -0.17588356 0.18575439 0.22073221
000010 00 19 40 3c 24 6b fd 3d 4c 0d 00 3e a8 de 7d be
       0.01172471 0.12373951 0.12505072 -0.24791968
000020 40 4f e3 bb e0 0f 78 3e b2 ac 37 be a0 85 2c 3c
       -0.0069369376 0.24224806 -0.17936972 0.010529906
000030 78 b0 ce bd d0 7d 84 3c 82 43 5b be 70 ea 4a be
       -0.100922525 0.016173273 -0.21412471 -0.19815993
000040 16 db 23 be f8 ad a2 3d 78 b8 21 3d ce 37 2a be
       -0.16001543 0.07943338 0.039482564 -0.1662285
000050 a0 77 11 3d cc c2 e8 3d a0 b4 2c 3c 6e 72 70 be
       0.035514474 0.113652796 0.010541111 -0.23481151
000060 5c a0 8d 3d c4 16 6a be 08 3e 10 be 96 db 56 be
       0.06915352 -0.22860247 -0.14086163 -0.20982203
000070 1e 98 66 3e b0 f3 f2 bc 48 7b bd 3d a0 0e b6 bd
       0.22518966 -0.029657215 0.0925203 -0.08889508
000080 64 67 ce bd dc 4e 9e 3d 64 b6 0f 3e 12 f3 1e be
       -0.10078314 0.07729885 0.1403442 -0.15522411
000090 0c f0 b0 bd 56 a1 11 3e f0 88 39 3e 50 45 cb bc
       -0.08639535 0.14221701 0.18118644 -0.024813324
0000a0 a0 91 67 3e 94 2d ec bd 80 73 a9 bc 14 ed f1 bd
       0.22614145 -0.11532131 -0.020684958 -0.11812797
0000b0 30 c6 71 be b8 0f 9d bd ba 04 7f 3e ac ec 34 be
       -0.23610759 -0.07669014 0.24904147 -0.17668408
0000c0 c0 1e 23 bc 38 df 92 bd e4 e7 cd 3d 96 69 67 be
       -0.009956062 -0.07171482 0.10053995 -0.22598872
0000d0 8c ff 7e be d4 b6 c0 bd 50 05 3c be 60 28 09 bc
       -0.24902171 -0.09409872 -0.18361402 -0.008371443
0000e0 e0 91 85 3c 40 72 b9 bc 28 33 2c bd 00 5d e5 bc
       0.01630491 -0.022637486 -0.042040974 -0.027998447
0000f0 a8 fa 4a 3d 76 50 67 3e a8 99 83 3d 84 a8 0b be
       0.04955545 0.22589287 0.06425792 -0.13638502
000100 ae d6 1e 3e ae 5f 33 be 6e fd 61 be b0 26 38 3e
       0.15511581 -0.17516968 -0.22069332 0.17983508
000110 38 29 f2 bd 00 6e 32 bd 3c 0d f1 3d fc 56 87 bd
       -0.11824268 -0.043561935 0.117701024 -0.06608388
000120 68 62 45 bd dc 2f 5f 3e 5c 45 1e be ce 62 53 be
       -0.04818955 0.217956 -0.15456146 -0.2064316
000130 f4 bf da bd 32 ad 4f be 5c 9a 8a bd b2 51 7d 3e
       -0.106811434 -0.20280913 -0.06767723 0.24738196
000140 f6 a4 48 be bc db b1 bd 96 41 5c 3e 72 22 53 be
       -0.19594178 -0.08684489 0.21509394 -0.20618609
000150 a0 5d 47 3e d0 ab c4 3c e0 35 3b bc 90 c3 35 3d
       0.19469309 0.024007708 -0.011426419 0.044375956
000160 86 af 55 be 7c 93 e2 3d d4 61 15 be c0 9e f0 bc
       -0.20867738 0.11063287 -0.145881 -0.029372573
000170 8e 21 00 be e0 15 12 3d 9c e7 b9 3d a4 8f 09 3e
       -0.125128 0.035665393 0.09077379 0.13433701
000180 a0 75 00 bd d0 fb eb 3d c6 0c 23 3e 78 1d 8b 3d
       -0.031362176 0.11522639 0.15922841 0.0679273
000190 82 b1 42 3e 02 21 7e be 86 23 2f be 60 3a 58 3e
       0.19013026 -0.24817279 -0.17103395 0.21116018
0001a0 a2 c2 63 3e 84 c7 2d be bc cf d4 3d 22 57 38 3e
       0.22242215 -0.1697064 0.10391185 0.18001989
0001b0 20 16 7d 3d fc a8 f3 3d f4 77 f3 3d 08 b4 00 3d
       0.06178868 0.118974656 0.118881136 0.03142169
0001c0 fc e7 e2 bd fe e3 7d be 50 c0 d9 bd fe c6 02 3e
       -0.11079404 -0.24794003 -0.10632384 0.12771222
0001d0 20 b9 ce 3c 30 cf b5 bd e0 22 01 be 44 64 2c be
       0.025234759 -0.088774085 -0.1261096 -0.16835123
0001e0 10 39 4c 3d 84 12 a6 bd 5c 2e 9c 3d ec 18 a1 bd
       0.049859107 -0.08109 0.0762603 -0.078660816
0001f0 7c 7d 6a be c0 2b e7 bd 66 0c 09 3e a8 27 0a bd
       -0.22899431 -0.112876415 0.13383636 -0.033729225
000200 2c a7 14 be ee 2c 42 3e 50 a1 39 bd 80 1c 49 bb
       -0.14516896 0.18962452 -0.045319855 -0.0030687153
000210 90 c8 a3 bc 96 df 36 3e 4e c1 73 3e 10 c8 e4 bd
       -0.019993097 0.17858729 0.23804209 -0.111709714
000220 04 4c 61 3e 7c 13 50 be 38 46 30 3d 80 66 6f 3c
       0.22001654 -0.20319933 0.043035716 0.01461184
000230 30 99 1a 3e 10 b1 be bc 82 e4 62 3e fe 98 2d be
       0.15097499 -0.02327779 0.22157481 -0.16952893
000240 d8 83 bd 3d 6c 06 36 3e f8 50 18 be b0 27 b7 3c
       0.09253663 0.17775887 -0.14874637 0.022357792
000250 80 b8 ea bb 10 f1 94 bc d0 43 1e 3e d4 18 42 be
       -0.0071631074 -0.018181354 0.15455556 -0.18954784
000260 8c 9e 69 3e d8 7a 64 bd 70 fe 5c be 50 37 0c bd
       0.22814387 -0.055781215 -0.21581435 -0.034232438
000270 b0 bb 80 3d b4 6c 63 be 50 b0 6f bd b2 49 1b be
       0.062857985 -0.22209436 -0.058517754 -0.15164831
000280 f4 af f2 bd 30 bd 05 3e d4 31 0b be 6e d7 73 be
       -0.11849967 0.1306045 -0.13593227 -0.23812649
000290 c0 87 c3 3c 96 4a 16 be 94 e2 45 3e 52 53 00 3e
       0.023868442 -0.1467689 0.19324714 0.12531784
0002a0 50 10 f5 bd bc 86 f9 3d 50 ca 48 be 90 3f 95 3d
       -0.11966002 0.12183902 -0.19608426 0.07287514
0002b0 2a cd 30 be 8c 29 fb 3d 86 72 05 3e 80 ba a3 bd
       -0.17265764 0.12263784 0.13031968 -0.079945564
0002c0 80 6c 17 3d a0 2a 7d 3d c6 d7 21 3e b2 01 53 be
       0.036968708 0.06180823 0.15804967 -0.20606115
0002d0 40 4b 21 3c 16 e9 56 3e 88 c9 00 3d 48 03 59 3e
       0.009844601 0.20987353 0.031442195 0.21192658
0002e0 ba db 24 3e 10 c6 56 3d a8 f0 30 be 28 19 57 bd
       0.16099444 0.05243498 -0.17279303 -0.052514225
0002f0 58 0e d7 3d e0 d7 e3 bd 32 29 53 be e8 70 55 bd
       0.10500783 -0.11125159 -0.20621184 -0.05210963
000300 6c 6e be 3d 00 15 60 3c c6 23 67 be 02 6e 35 3e
       0.09298405 0.013676882 -0.2257224 0.17717746
000310 30 e7 58 3e 00 c4 8a 3c 14 07 aa bd 00 70 bf 3d
       0.21181941 0.016939163 -0.08302131 0.09347534
000320 fe 6c 23 3e 86 5d 6e 3e 76 d0 01 3e 00 5a c7 bd
       0.15959546 0.23277864 0.12677178 -0.09733963
000330 7c d3 94 3d 8e 8a 15 be 14 76 32 3e 84 38 ee 3d
       0.072669 -0.14603636 0.17427856 0.11631873
000340 42 23 01 3e 50 c1 ee 3c 28 1c 4c 3e 42 9a 0a be
       0.12611106 0.029144913 0.19932616 -0.13535407
000350 10 9b 6a 3e 26 46 02 be 8c ec 3f be 8c 07 62 be
       0.22910714 -0.12722072 -0.18742579 -0.22073191
000360 d0 ab b5 bd 5a c9 69 3e 74 a3 de 3d ae 23 2c be
       -0.08870661 0.22830716 0.1087102 -0.16810486
000370 20 2c a4 bd 70 dd 37 bd f8 e5 02 3d 80 2b 28 be
       -0.08016229 -0.044888914 0.031957597 -0.16422844
000380 7a c0 23 3e 00 1f 2d be 3e d0 45 3e f4 6f 5f be
       0.15991393 -0.16906357 0.1931772 -0.2182005
000390 a0 5c 63 bd 00 51 f4 3d 46 65 47 be 44 5f f3 3d
       -0.055508256 0.11929512 -0.19472227 0.11883405
0003a0 18 f4 05 be 78 f6 3a bd f0 4f bb 3c e2 31 0a 3e
       -0.13081396 -0.045645207 0.022865266 0.13495591
0003b0 80 9f 13 be 08 31 67 be 94 d2 ab 3d f8 d3 4c 3d
       -0.14416313 -0.22577298 0.08389774 0.050006837
0003c0 10 f8 01 3d 3c 79 5b be 1e 64 66 be 34 d0 13 be
       0.03173071 -0.21432966 -0.22499129 -0.14434892
0003d0 c4 f0 fb 3d b8 1d 1a bd 80 49 68 be e6 d5 47 3e
       0.12301782 -0.037626 -0.22684288 0.1951519
0003e0 54 ab 93 bd 38 8a 44 3e e4 e3 78 be 50 47 a9 bc
       -0.072104126 0.19193351 -0.24305683 -0.020663887
0003f0 82 79 3d be ea 75 57 3e 28 9e 70 3e 1c 81 0e be
       -0.18503383 0.21041074 0.23497832 -0.13916439

critic.preprocess.model.model.0.bias f4 [64]
000000 24 6c ed bd 1c a4 e2 bd 7c 82 7a be 48 8b 40 bd
       -0.11592892 -0.11066458 -0.24463838 -0.04700783
000010 2c b9 92 bd 48 9a 66 be 74 07 88 bd 30 02 ae 3d
       -0.07164225 -0.22519791 -0.066420466 0.08496511
000020 b8 6d 00 bd c0 bb a4 3c 60 85 c9 bd d8 61 21 3e
       -0.031354636 0.020109057 -0.098398924 0.1575998
000030 e4 08 90 3d fc 44 9c bd 88 db e6 bd 40 b5 d0 3b
       0.07032946 -0.07630345 -0.11272341 0.006369263
000040 cc 95 e0 bd 50 69 af bc e8 49 01 3d 9a d8 32 be
       -0.109660715 -0.021412522 0.031564623 -0.1746544
000050 50 47 d7 bc 3a a5 6f be 3a 30 68 3e 82 0a 4f 3e
       -0.026279122 -0.23402873 0.22674647 0.20218852
000060 00 62 86 3b 88 3e 4b 3e 18 32 2d 3d dc e8 5d 3e
       0.004101038 0.19848073 0.0422841 0.2167086
000070 68 99 0e 3d 5a 0c 56 3e 3a 31 46 be f0 ab 1f 3e
       0.03481427 0.20903149 -0.19354716 0.15592933
000080 68 e0 e1 3d 3a be 14 3e c6 58 50 be a8 4c 36 3d
       0.1102913 0.1452569 -0.20346364 0.0445067
000090 30 8d 66 bd 30 21 3f 3e 74 70 a6 bd 98 97 d2 3d
       -0.05628699 0.18665004 -0.081269175 0.102828205
0000a0 ee 8f 2f 3e 6e fd 46 be 72 6e 7f 3e 6c a9 0b 3e
       0.17144749 -0.19432613 0.24944475 0.13638848
0000b0 14 25 79 3e 66 f1 3f 3e 06 32 6b be 38 6a c5 3d
       0.2433055 0.1874443 -0.22968301 0.096394
0000c0 84 32 a6 3d 80 9f 83 bc a0 df 9b bd 50 ce 51 bd
       0.08115104 -0.016067266 -0.076110125 -0.051222146
0000d0 18 6b 2a 3e 9a 42 7c 3e 80 f6 30 3d a8 4b 49 bd
       0.16642416 0.24634781 0.04320383 -0.049144417
0000e0 88 4c 0f 3d 7c 86 e4 bd ac fd 3b 3e 80 c9 54 3e
       0.034985095 -0.11158463 0.18358487 0.20779991
0000f0 f4 bc 95 3d de ec 17 3e 00 a2 2f 3c c0 2f 7c bc
       0.073114306 0.14836451 0.010719776 -0.015392244

critic.preprocess.model.model.2.weight f4 [64, 64]
000000 c2 cc d9 3d 70 6e f8 3c ee 50 bb bd 92 2c da bd
       0.106347576 0.030326098 -0.091462955 -0.10653032
000010 3a cd 9a 3d 70 a2 e0 3c 3c 73 17 bd 70 61 48 3d
       0.07558675 0.027421206 -0.03697513 0.04892105
000020 f8 26 be bc a0 cb 6b bc 58 e8 20 3d 88 85 91 bc
       -0.023211941 -0.01439181 0.03928408 -0.017763868
000030 26 3e cc bd 78 ac 8e bd 20 1b e5 bb 9c c8 5d 3d
       -0.099727914 -0.069664896 -0.006991759 0.054146394
000040 84 a7 94 bd c4 2a a1 3d e8 35 72 3d d2 6b 80 3d
       -0.072585136 0.07869485 0.05913344 0.06270565
000050 00 6c 70 3c 6a 15 c3 bd b2 ae f3 bd d2 7a 9b 3d
       0.014674187 -0.09525569 -0.11898555 0.075917855
000060 50 5f 53 bc bc ff 70 bd a8 e0 f9 3c ba 6a 95 3d
       -0.012901142 -0.058837637 0.030502632 0.07295747
000070 f0 87 fb 3c b8 51 d5 bd cc 07 42 3d 88 06 ad 3d
       0.030704468 -0.10415977 0.047370717 0.08448511
000080 90 9f e8 bc c4 00 50 bd b8 1e e5 3d 74 c9 af bd
       -0.028396398 -0.05078198 0.111875 -0.08583346
000090 a8 81 1f bd 12 63 df bd 3c 50 6e bd c8 4f 37 bd
       -0.03894201 -0.10907568 -0.058181986 -0.04475382
0000a0 d0 ff 24 3d 18 1d cf bd 80 ff 53 3d fe 29 f2 bd
       0.040283024 -0.10112971 0.051757336 -0.118244156
0000b0 56 45 fb 3d 98 c9 b6 bc 88 a2 c1 bc d0 d3 56 bd
       0.12269084 -0.022312924 -0.023637071 -0.052448094
0000c0 de d9 bc bd 02 38 d9 bd f2 6f 8a bd 56 cb b1 3d
       -0.09221242 -0.10606386 -0.06759633 0.086813614
0000d0 0e 27 b5 3d 36 07 f0 bd 7a f9 fb 3d 44 c0 3a bd
       0.0884534 -0.117201254 0.12303443 -0.045593515
0000e0 f4 7d c9 bd 40 d8 4f 3b 1a ac c5 bd 50 50 2d bd
       -0.09838477 0.0031714588 -0.096519664 -0.04231292
0000f0 82 35 e2 bd fe 4c a4 3d 60 20 e9 bb fa 47 b4 3d
       -0.11045362 0.080224976 -0.007114455 0.08802791
000100 80 65 87 bb c0 39 56 3c 70 84 fe 3d c8 f8 7a 3d
       -0.004131973 0.013075292 0.12427604 0.061272413
000110 68 42 df 3c 38 b2 9d 3d a0 35 9f bd 00 b4 90 3a
       0.027253345 0.07700008 -0.077739 0.0011039972
000120 e4 c8 74 3d 46 2f 92 3d b0 96 a1 bc f4 2e cb 3d
       0.059761897 0.07137923 -0.019725174 0.09921065
000130 72 b1 89 bd 60 ba 06 bc bc 84 fb 3d 90 0f 43 bc
       -0.06723298 -0.008223146 0.122811764 -0.011905566
000140 50 39 81 3d ea d9 9e 3d 06 e0 a3 bd 80 f6 a5 3b
       0.063097596 0.077564076 -0.080017135 0.0050647855
000150 a0 1d dc bb 18 e8 bd bc e0 61 b8 3c ac fd 4f 3d
       -0.0067173988 -0.02318196 0.022507608 0.05077903
000160 e4 e6 b6 bd 30 d6 54 bc b8 49 38 bd 98 7c 81 bd
       -0.08930758 -0.012990519 -0.04499218 -0.063225925
000170 e0 86 be 3b 7c c6 fd 3d 6c ec 66 3d 18 05 6d 3d
       0.005814418 0.123913735 0.056377813 0.057866186
000180 5a ab bf bd b2 e5 bf 3d 0a 6e ab bd 20 56 6c 3c
       -0.093588546 0.09369983 -0.08370598 0.014424831
000190 30 49 d7 bd 48 b4 ca bd d6 41 ce bd 6e 13 c1 3d
       -0.10512006 -0.09897667 -0.10071151 0.09427534
0001a0 7c 77 54 bd 48 db 43 bd 08 90 e7 3d ae a1 a1 3d
       -0.05187176 -0.047816545 0.11306769 0.07892166
0001b0 bc 5d f6 bd 0c f2 2d bd 58 e9 8d bc 16 1d dc bd
       -0.12029597 -0.042467162 -0.017323181 -0.10747735
0001c0 4c e4 f1 3d aa c8 ac 3d 98 85 06 bd cc 21 12 3d
       0.11811122 0.08436711 -0.03284225 0.035676762
0001d0 0c c1 ef bd b8 b3 48 bd f0 19 da 3c f8 70 ec bd
       -0.11706743 -0.04899952 0.026623696 -0.115449846
0001e0 dc 91 61 3d 4c df d1 3d 5e db b3 bd 1a 4e 97 bd
       0.055070743 0.102476686 -0.08782075 -0.073879436
0001f0 c8 22 2e bd 68 95 e6 3d 7a 57 fd 3d 6a ae f2 3d
       -0.04251364 0.11258966 0.123702005 0.11849673
000200 b8 1c 44 3d 0e 14 b1 3d b0 70 4a 3d ea 49 dd 3d
       0.04787895 0.08646403 0.049423873 0.108051136
000210 40 3e bf 3b 10 61 96 3d a0 f6 89 bb 28 8a 72 3d
       0.005836278 0.07342732 -0.004210308 0.059213787
000220 88 c6 c9 bd e4 60 a9 bd 84 14 de bd 18 b2 bb 3d
       -0.0985232 -0.082704335 -0.10843757 0.09164828
000230 04 65 ce 3d b4 4f 21 bd 48 b8 b5 3c e0 ce d5 bc
       0.10077861 -0.03938265 0.022182599 -0.026099622
000240 3a 6e b9 3d b8 d6 f8 bc 00 c9 93 bc 78 c4 e0 bc
       0.09054227 -0.030375823 -0.01804018 -0.027437434
000250 ae 2a b6 bd 92 a7 8b bd e0 48 f2 bd 90 d9 07 3c
       -0.08894859 -0.06819071 -0.11830306 0.008291617
000260 3e 62 fb 3d 18 a8 37 bd 9c 41 11 3d a8 99 f0 3d
       0.122745976 -0.04483804 0.03546296 0.117480576
000270 76 fc fa bd f0 19 10 3d 26 85 ec bd 8c 14 d3 3d
       -0.12255184 0.035180986 -0.115488335 0.103066534
000280 92 3a 91 3d e6 a8 9f bd f0 f8 41 bd 80 db a6 bd
       0.070912495 -0.07795887 -0.047356546 -0.08147335
000290 20 be 34 bd 54 aa 0a 3d f4 bd 19 3d 8c 89 c0 bd
       -0.04412663 0.033853844 0.03753467 -0.09401235
0002a0 a8 83 a9 bc a0 70 c5 3c d0 b0 67 bc 9c c0 68 3d
       -0.020692661 0.024101555 -0.0141412765 0.05682431
0002b0 48 ac 43 bd c4 a4 66 bd 10 5a 1b 3d e0 d3 da 3d
       -0.047771722 -0.056309476 0.037927687 0.10684943
0002c0 48 28 b7 bd c4 9c 39 bd d0 d0 5a bc a8 b6 7a 3d
       -0.0894323 -0.04531552 -0.013355449 0.06120935
0002d0 64 e4 00 bd 90 e2 10 3c 18 73 42 3d 14 b4 5b bd
       -0.03146781 0.008843079 0.047473043 -0.053638533
0002e0 78 b4 9e bc 38 25 38 3d 00 e4 4a bc 50 6e 22 3c
       -0.019373164 0.04495737 -0.012383461 0.009913996
0002f0 8c f0 47 bd 70 81 cc 3c a8 9a 65 bd 60 b8 a5 bb
       -0.048813388 0.024964064 -0.056055695 -0.0050573796
000300 5e 3e fe 3d 74 08 f7 3d d0 fc 2b bd 2e eb ea 3d
       0.12414239 0.12062159 -0.041989148 0.11470638
000310 6c 6e 48 3d c0 95 6e bc a4 07 05 3d e0 41 8e 3b
       0.04893343 -0.01456207 0.03247799 0.004341349
000320 f8 84 13 3d 14 2a 11 bd e0 6d 93 bc 48 4c 8e bd
       0.03601548 -0.03544052 -0.017996728 -0.06948143
000330 b8 00 1c bd 48 fe bf 3d 1c 74 5e bd 40 41 41 bb
       -0.038086623 0.09374672 -0.05430995 -0.0029488355
000340 10 3e bc 3d b8 2a 90 3d 06 7f fd bd 34 aa 60 3d
       0.09191525 0.07039398 -0.123777434 0.05484982
000350 8a d7 9f bd 00 5e 1b 3d 38 5b 64 bd 44 59 84 bd
       -0.07804783 0.037931442 -0.055751055 -0.064623386
000360 46 32 d0 3d fc 4b bf bd c0 06 ef bc 72 90 e7 3d
       0.10165839 -0.09340665 -0.029178023 0.11306848
000370 38 36 dd 3d 98 ca 91 3d 20 96 69 bd f0 28 41 3c
       0.10801357 0.0711872 -0.057027936 0.011789545
000380 10 db ef bd 18 e3 9c bd e6 73 df bd c4 26 af bd
       -0.11711705 -0.07660502 -0.10910778 -0.08552316
000390 b0 95 8e bd 90 09 19 bc 44 00 4d bd 3c c4 e5 bd
       -0.069621444 -0.009340659 -0.05004908 -0.11219069
0003a0 10 3a ec bd 7e ec a8 bd 04 75 c3 3d 52 31 9e bd
       -0.11534512 -0.08248232 0.09543803 -0.07724251
0003b0 ec f8 15 bd f8 42 b2 bd 3c 9e b4 3d 20 8d f0 3b
       -0.036614344 -0.087041795 0.08819243 0.007341042
0003c0 34 1f 71 3d a0 85 1f bc 44 07 0b bd 44 68 94 bd
       0.05886765 -0.0097364485 -0.033942476 -0.072464496
0003d0 5a 92 f2 bd 88 31 ab bc 42 f1 d0 3d 30 8b 2e 3d
       -0.118443206 -0.020897642 0.10202266 0.04261321
0003e0 42 29 87 bd 20 11 25 bc 84 36 c7 bd b0 ff 71 3c
       -0.06599666 -0.010074884 -0.09727195 0.014770433
0003f0 44 8a 62 bd d2 ec ca 3d 0e 8a 95 3d 8e 84 fc 3d
       -0.05530764 0.09908451 0.073017225 0.1232997

critic.preprocess.model.model.2.bias f4 [64]
000000 f0 7c 83 bc ce 46 9b 3d ac 78 fe bd ec ec 53 bd
       -0.016050786 0.07581864 -0.1242536 -0.05173962
000010 46 e8 ee bd 74 9b 27 bd 58 67 f7 bc 04 00 aa 3d
       -0.116653964 -0.040919736 -0.030200645 0.08300784
000020 5c c4 73 3d 5e a7 98 3d 70 8a 4d bc 18 da 7e 3d
       0.059513435 0.07453798 -0.012545213 0.06221971
000030 ac e0 48 bd a8 77 dc 3d 78 e3 3c 3d 00 98 b1 39
       -0.04904239 0.1076501 0.04611537 0.0003387332
000040 58 fd d0 3d 18 c8 e4 3c 16 2a 9d bd 48 cc 0b bd
       0.102045715 0.027927443 -0.07674043 -0.034130365
000050 cc 05 3a bd 40 70 2a bd c4 e4 5c 3d d8 2c 90 3d
       -0.045415685 -0.041610956 0.053929105 0.07039803
000060 16 26 ad bd 42 5c bd 3d 46 c9 89 3d 62 5a f2 bd
       -0.0845453 0.092461124 0.06727843 -0.118336454
000070 f6 4f e6 bd a6 af e5 3d 00 67 7f 3b 88 85 0e bd
       -0.1124572 0.11215143 0.0038971305 -0.034795314
000080 b4 84 7e bd 90 9d 2c 3c 6c bf 9f 3d 0a 80 b4 3d
       -0.062138274 0.010535613 0.07800183 0.08813484
000090 e6 46 d8 3d 78 47 d2 bc 8c 46 c1 3d 44 93 a0 3d
       0.10560398 -0.025668845 0.09437284 0.07840589
0000a0 c0 74 6f bc 26 38 f9 bd e8 76 30 3d d8 b4 8d 3c
       -0.014615238 -0.121689126 0.043082148 0.017298147
0000b0 ac a3 ca 3d 28 8f af 3c f6 87 94 3d 2c 4c 76 3d
       0.09894499 0.021430567 0.07252495 0.060131237
0000c0 6c 71 c2 bd d8 84 df bc 00 10 75 b8 f2 5c ba 3d
       -0.0949429 -0.027285025 -5.8427453e-05 0.09099759
0000d0 2e e4 b1 bd 2e 4a e4 3d 34 09 98 3d 74 51 6c 3d
       -0.086861 0.11146961 0.0742363 0.057694867
0000e0 32 6e 9e 3d bc 9d 48 3d 06 59 f1 3d 78 0c 20 bd
       0.07735862 0.048978552 0.11784558 -0.03907439
0000f0 b4 bf 84 3d 70 6d 8b bd dc 3b 7c 3d 6c 3a bc bd
       0.06481877 -0.06807983 0.061580524 -0.091908306
