log/CartPole-v0/a2c/policy.pth (torch, 285135 bytes, 22 tensors)

actor.preprocess.model.model.0.weight f4 [64, 8]
-0.21101594 0.40585637 -0.16446488 0.42703378 -0.027199384 -0.25867778 0.36919758 0.010740967
0.25488475 -0.46634525 -0.058925312 -0.3998897 -0.27887923 -0.006498474 -0.03652217 0.4955053
0.07400875 -0.45778638 0.0648409 -0.08520252 -0.30945277 -0.15841626 -0.3337223 -0.1251248
-0.21845002 -0.027399326 -0.22362398 0.13064827 -0.24978466 0.2509271 -0.23219112 0.015584043
0.020698631 -0.17614661 -0.26292095 -0.2243028 -0.435741 0.12762654 0.25809592 -0.01236861
-0.24435529 0.14920637 0.27167895 -0.15442833 -0.10889603 -0.21369839 0.016775578 0.23980549
0.44208252 -0.4251018 -0.43649063 -0.26392385 -0.0970197 0.25138035 -0.09664188 0.14491056
-0.27472666 -0.4138959 -0.5701989 -0.43199602 -0.5618878 0.004525059 -0.17353141 -0.30761164
0.32911274 0.14663443 -0.26731512 0.11461187 0.16260356 -0.23188818 -0.20954686 0.3691947
0.37423006 -0.45718494 -0.48630902 -0.14007333 -0.46430823 -0.026852645 -0.4421509 -0.16465196
0.35420936 0.5198223 0.40703815 0.49740046 0.03258582 -0.13065302 0.26213375 -0.14083962
-0.009696145 0.21602392 -0.29340166 0.20275123 0.14343081 -0.22358541 -0.3414586 0.15177847
0.2572098 0.13541496 0.2975072 -0.22072056 -0.21849373 -0.2725831 0.067628354 0.11380312
-0.13668214 0.42952767 -0.16302444 0.4188374 -0.06741622 0.4276706 -0.15797615 0.38818467
0.17488995 -0.2694725 -0.0060128267 0.1513041 0.36002496 -0.067707576 0.40032506 0.3952333
0.09526547 -0.3440399 -0.088667065 -0.36757004 -0.313384 0.33711803 0.024178088 0.074724585
-0.22268528 0.14185685 -0.36113453 0.005881593 -0.20984863 -0.2318293 -0.022132449 0.3148453
0.06858349 0.52778447 0.20505755 0.40668008 0.13092346 -0.20072547 0.33216733 -0.10798547
-0.15514578 -0.116190515 0.39578757 0.4452954 0.14918524 0.24000627 0.29455864 -0.28543246
0.042337175 0.08776557 -0.4983984 -0.23718305 -0.40049925 0.0746092 -0.5391661 -0.22593938
-0.226296 0.11233577 0.055836767 -0.2350826 0.05022505 0.16072932 0.01490739 -0.33207363
0.14203785 -0.5973046 -0.46082327 -0.5687428 0.041275375 0.0015446334 -0.04652263 -0.07883556
-0.03527137 0.25007936 0.3392653 -0.07860305 0.018666837 0.30862585 0.39009386 0.07230164
0.40730986 -0.4088872 -0.25556687 -0.4068769 -0.58150715 -0.021759508 0.19868459 -0.15855552
-0.046889335 -0.068733804 0.17497642 -0.28675374 -0.3195094 -0.16587652 -0.22777084 -0.04458773
0.117457055 0.06254663 0.03506757 0.05484934 0.16459244 0.4139038 0.18673512 -0.098471045
0.19294856 -0.2213574 -0.28571242 0.28071943 -0.1407978 -0.08796249 0.19209176 -0.11988456
-0.080544434 0.32062936 -0.20618996 -0.27954412 -0.1386605 -0.29920843 -0.083388254 0.3374583
-0.16140832 0.07002202 0.49822772 -0.09764358 0.4684072 0.1501816 0.15861869 0.17950188
-0.23420624 0.07611518 -0.28933153 -0.12335021 -0.25736302 0.11062416 0.074099615 0.24911441
0.028226342 0.24893771 0.31210864 0.18215302 0.35459796 -0.2783456 -0.15551768 0.3718657
0.4165538 -0.13034162 0.25660664 0.36424097 0.19704328 0.2703151 0.2758384 0.14646882
00000000: 9014 58be 68cc cf3e 7b69 28be 2ca4 da3e
00000010: 3ed1 debc 6a71 84be 7707 bd3e e1fa 2f3c
00000020: 4180 823e cec4 eebe ab5b 71bd 58be ccbe
00000030: 42c9 8ebe 27f1 d4bb 4598 15bd dfb2 fd3e
00000040: e691 973d fa62 eabe 4ecb 843d a97e aebd
00000050: 9870 9ebe df37 22be a6dd aabe b720 00be
00000060: 5db1 5fbe 8d74 e0bc affd 64be a9c8 053e
00000070: 8dc7 7fbe 8479 803e 82c3 6dbe 3754 7f3c
00000080: 2d90 a93c c75f 34be 939d 86be a2af 65be
00000090: 7219 dfbe 88b0 023e 2625 843e b6a5 4abc
000000a0: 4638 7abe 8ec9 183e 8119 8b3e 7622 1ebe
000000b0: e204 dfbd c0d3 5abe f06c 893c 928f 753e
000000c0: a458 e23e f1a6 d9be b37b dfbe 0721 87be
000000d0: 44b2 c6bd edb4 803e 2eec c5bd 6f63 143e
000000e0: f9a8 8cbe 2aea d3be 8ef8 11bf 952e ddbe
000000f0: e1d7 0fbf f246 943b 38b2 31be 467f 9dbe
00000100: 7781 a83e 5627 163e 87dd 88be a1b9 ea3d
00000110: 8c81 263e 1874 6dbe 7493 56be 1607 bd3e
00000120: 159b bf3e 2514 eabe 7ffd f8be 626f 0fbe
00000130: cfb9 edbe 14fa dbbc 9a61 e2be 869a 28be
00000140: ee5a b53e 1313 053f 4e67 d03e 46ab fe3e
00000150: b578 053d e8c9 05be 6536 863e 4338 10be
00000160: 94dc 1ebc 6035 5d3e be38 96be 059e 4f3e
00000170: 87df 123e 93f3 64be a9d3 aebe d16b 1b3e
00000180: 01b1 833e 38aa 0a3e dd52 983e 9204 62be
00000190: d2bc 5fbe 0390 8bbe bc80 8a3d 9c11 e93d
000001a0: 67f6 0bbe 0deb db3e e1ef 26be db71 d63e
000001b0: 8411 8abd a4f7 da3e 80c4 21be 24c0 c63e
000001c0: 5a16 333e 4df8 89be 3f07 c5bb 76ef 1a3e
000001d0: 3155 b83e 45aa 8abd 68f7 cc3e 055c ca3e
000001e0: 8b1a c33d ff25 b0be 1497 b5bd 2432 bcbe
000001f0: de73 a0be bc9a ac3e 2011 c63c 3409 993d
00000200: 9c07 64be ec42 113e a0e6 b8be 61ba c03b
00000210: 8fe2 56be a964 6dbe 1c4f b5bc 6733 a13e
00000220: 8075 8c3d e21c 073f 9bfa 513e 5f38 d03e
00000230: cd10 063e fa8a 4dbe d611 aa3e 7c27 ddbd
00000240: 89de 1ebe 4bf5 edbd aba4 ca3e c2fd e33e
00000250: 04c4 183e 34c4 753e 64d0 963e 3424 92be
00000260: bf69 2d3d 6fbe b33d 132e ffbe 1de0 72be
00000270: 3d0e cdbe b5cc 983d ca06 0abf a75c 67be
00000280: 23ba 67be 4c10 e63d 18b5 643d 7eb9 70be
00000290: c8b8 4d3d 3a96 243e 203e 743c 8e05 aabe
000002a0: 5f72 113e f4e8 18bf 07f1 ebbe 2199 11bf
000002b0: 5e10 293d 4c75 ca3a 838e 3ebd 8a74 a1bd
000002c0: b678 10bd 670a 803e 2eb4 ad3e a3fa a0bd
000002d0: 32eb 983c 3504 9e3e 62ba c73e e212 943d
000002e0: eb8a d03e aa59 d1be a9d9 82be 2b52 d0be
000002f0: a7dd 14bf ff40 b2bc f973 4b3e 615c 22be
00000300: 080f 40bd 4fc4 8cbd 052d 333e 63d1 92be
00000310: bc96 a3be 89db 29be c23c 69be a0a1 36bd
00000320: 538d f03d 7318 803d 03a3 0f3d b4a9 603d
00000330: ec8a 283e 33eb d33e 7e37 3f3e 30ab c9bd
00000340: 4f94 453e 84ab 62be e648 92be 75ba 8f3e
00000350: 4c2d 10be ae25 b4bd b4b3 443e 0986 f5bd
00000360: 7bf4 a4bd 8829 a43e 7623 53be 6820 8fbe
00000370: 05fd 0dbe d931 99be 76c7 aabd 56c7 ac3e
00000380: 3948 25be b467 8f3d b417 ff3e 5bf9 c7bd
00000390: 12d3 ef3e 35c9 193e f06c 223e 57cf 373e
000003a0: c3d3 6fbe 47e2 9b3d 4323 94be 099f fcbd
000003b0: 16c5 83be eb8e e23d 8ac1 973d d917 7f3e
000003c0: ee3a e73c 87e9 7e3e b4cc 9f3e 5286 3a3e
000003d0: dd8d b53e 5183 8ebe 0740 1fbe 2e65 be3e
000003e0: 8a46 d53e 4678 05be f261 833e cb7d ba3e
000003f0: b7c5 493e be66 8a3e b13a 8d3e ecfb 153e

actor.preprocess.model.model.0.bias f4 [64]
0.1479588 0.29438952 0.6963287 -0.3304506 0.3760176 -0.11498515 0.2977902 0.7109149
0.19011275 0.06890833 -0.43022776 -0.116580926 -0.3413581 -0.08644176 0.025108458 0.3164461
0.5224026 -0.22081377 0.12024892 0.5827363 -0.25330788 0.48296538 -0.013110188 0.24693535
-0.2581718 -0.004585931 -0.16684681 -0.23292597 0.05864703 0.39546576 0.24131504 -0.100195825
-0.24225202 0.5389503 0.35726222 -0.3838261 -0.30481318 0.46373072 0.39816314 0.2774227
0.3181914 -0.19691876 0.22519326 -0.34556577 -0.11898888 0.58046085 0.37008885 0.3338075
0.4451525 0.38893235 0.29559362 0.13296413 -0.098194115 -0.26333883 0.54829603 -0.3159259
0.36017758 0.028071035 -0.01380478 0.71084285 0.043700084 0.29222238 0.3731738 -0.14557499
00000000: 8382 173e 39ba 963e 9942 323f d230 a9be
00000010: 6185 c03e 567d ebbd f577 983e 85fe 353f
00000020: ebac 423e cf1f 8d3d d046 dcbe fbc1 eebd
00000030: 7dc6 aebe 6108 b1bd 41b0 cd3c 3905 a23e
00000040: 2dbc 053f 011d 62be 1145 f63d 352e 153f
00000050: 92b1 81be 3d47 f73e 1dcc 56bc 9fdc 7c3e
00000060: 182f 84be 9445 96bb e4d9 2abe 2584 6ebe
00000070: de37 703d 7d7a ca3e 4a1b 773e 7833 cdbd
00000080: ea10 78be a6f8 093f 13eb b63e db84 c4be
00000090: 7910 9cbe 1d6e ed3e 0adc cb3e 590a 8e3e
000000a0: fce9 a23e 12a5 49be 1099 663e ffed b0be
000000b0: 71b0 f3bd 1599 143f 497c bd3e d1e8 aa3e
000000c0: 07eb e33e 2422 c73e 0c58 973e c027 083e
000000d0: ff19 c9bd 59d4 86be 215d 0c3f 0ac1 a1be
000000e0: 3269 b83e 3af5 e53c 722d 62bc ccf9 353f
000000f0: dcfe 323d 2c9e 953e a310 bf3e 9c11 15be

actor.preprocess.model.model.2.weight f4 [64, 64]
-0.115788154 0.031462498 -0.036174946 -0.058430165 0.034211073 0.114986554 -0.0073140273 0.09616166
-0.08256142 0.0054057986 0.034335807 -0.06472878 0.118202865 -0.05887671 0.03425143 -0.032976624
0.043173213 0.10056137 -0.11906308 -0.011145785 -0.07746741 0.09837381 0.04772165 -0.049084276
0.03362222 -0.076868504 0.0005643219 0.06211832 -0.14453231 0.01606744 0.06191393 0.07005847
-0.056969494 -0.12628742 0.029663432 -0.082331754 -0.046899915 -0.10584828 0.09570989 -0.06476058
-0.05380259 -0.025615573 -0.009970861 0.0069478652 0.09774724 0.09175688 -0.12113709 -0.12733246
0.034581494 0.056291398 0.09537335 -0.058206294 -0.11417807 0.029275723 -0.058021385 0.09296501
-0.13816175 -0.013199056 -0.013220925 0.01327457 -0.11941028 -0.10632641 -0.06966483 -0.06935421
0.016567156 0.0934473 0.046178207 0.011300147 0.004241213 -0.043710545 -0.08648367 -0.011059031
-0.08071506 0.10605937 0.051962584 0.07505229 -0.12133366 0.05826208 -0.08370453 -0.12207666
0.029578865 0.04071164 -0.07058421 0.08970487 -0.0004978627 -0.11122446 0.09283826 0.04665962
-0.08219044 -0.08820589 0.024050638 -0.122089535 -0.075365454 -0.10736537 0.10225575 -0.044670135
-0.10226415 -0.0965572 -0.014065534 0.003459692 -0.02982995 -0.029000878 0.10078165 -0.060509592
-0.11595537 -0.05050096 -0.07461396 -0.08304916 0.07264526 -0.112016305 0.056583747 -0.063064516
-0.07000758 -0.053823277 -0.06566474 0.011602178 -0.109022275 0.12264952 -0.015800938 -0.118736446
0.10687667 0.025757939 0.024992928 -0.032712713 -0.072658494 -0.10226807 0.036428362 0.07808554
0.1573788 0.21292756 0.048286576 -0.102882065 0.28377393 -0.07087526 0.18800633 0.13801095
0.1340276 -0.007185467 0.27723023 -0.045568313 -0.010105297 0.2011799 0.049204055 0.17578028
0.008546193 0.23187691 0.16843574 0.21432105 -0.02315548 0.13454357 0.08148038 0.12694177
0.0036528632 0.13769034 -0.049520735 0.07788695 0.09665712 -0.06650711 0.1774057 0.15963812
0.07370892 0.20769249 0.057391375 0.27163377 -0.09486131 0.12359461 0.2219945 -0.0019741973
-0.06686456 -0.0051655853 0.16464025 0.05658914 -0.05421698 -0.034289863 -0.027849058 -0.063574515
0.12860999 0.11293984 0.039928395 0.13393816 0.014673118 0.004509735 0.19103119 0.042246893
-0.03331729 -0.03347459 0.14494981 0.15863171 -0.0069861254 0.11368487 0.15044734 -0.030627301
-0.014384761 0.12286585 0.102910295 0.10692412 0.10885318 -0.04700525 0.23306178 0.101616226
0.07778564 -0.07038764 0.28004068 -0.088605 0.018178001 0.26021612 0.015310614 0.22255075
-0.07903477 0.110341884 0.118769266 0.095121965 -0.04799795 0.14444192 0.10319878 -0.0040690764
-0.07079208 0.14994891 0.043524105 0.06745423 0.029233156 -0.0862101 0.029003138 0.11762346
-0.051381767 0.05282215 0.069402464 0.1447753 -0.0087578 0.13899931 0.09844682 0.018695487
0.07267704 0.031297036 0.098965295 0.1876788 -0.070514485 0.12967382 -0.0036345737 -0.051650867
0.0820122 0.07596051 0.11359474 0.18982476 0.08308737 0.12643647 0.12764946 -0.04849705
0.03167282 0.06462486 0.17728588 -0.014053683 0.19666333 0.07657698 -0.044726834 -0.00645075
00000000: 5722 edbd d2de 003d 2e2c 14bd 7854 6fbd
00000010: e920 0c3d 127e eb3d 82aa efbb 68f0 c43d
00000020: f615 a9bd 2023 b13b b4a3 0c3d 8690 84bd
00000030: 5814 f23d b428 71bd 3a4b 0c3d 7f12 07bd
00000040: 65d6 303d 1ff3 cd3d 58d7 f3bd d09c 36bc
00000050: 3ca7 9ebd 3578 c93d c777 433d 980c 49bd
00000060: 74b7 093d 3c6d 9dbd 00ef 133a c86f 7e3d
00000070: 4700 14be dd9f 833c 7699 7d3d d17a 8f3d
00000080: d858 69bd 7d51 01be ba00 f33c 8d9d a8bd
00000090: 201a 40bd fcc6 d8bd 8c03 c43d 32a1 84bd
000000a0: 1b60 5cbd c0d7 d1bc d25c 23bc ebaa e33b
000000b0: b42f c83d 08eb bb3d b916 f8bd 7163 02be
000000c0: 53a5 0d3d cf91 663d 1a53 c33d b969 6ebd
000000d0: 31d6 e9bd a4d3 ef3c d5a7 6dbd 7064 be3d
000000e0: 467a 0dbe da40 58bc 949c 58bc 957d 593c
000000f0: 608d f4bd a9c1 d9bd 6fac 8ebd 9409 8ebd
00000100: d8b7 873c 4c61 bf3d 5c25 3d3d 4024 393c
00000110: e0f9 8a3b d409 33bd 5a1e b1bd f030 35bc
00000120: f04d a5bd a835 d93d b8d6 543d 04b5 993d
00000130: c87d f8bd 38a4 6e3d 486d abbd 5403 fabd
00000140: 604f f23c 40c1 263d 748e 90bd 30b7 b73d
00000150: 0083 02ba a6c9 e3bd fc21 be3d 281e 3f3d
00000160: 7653 a8bd 4aa5 b4bd d805 c53c 140a fabd
00000170: 3459 9abd 60e2 dbbd 766b d13d 08f8 36bd
00000180: de6f d1bd c8bf c5bd 2073 66bc 00bc 623b
00000190: f05d f4bc 4093 edbc 9c66 ce3d e8d8 77bd
000001a0: 027a edbd 18da 4ebd 34cf 98bd ae15 aabd
000001b0: 0ac7 943d ce68 e5bd 5cc4 673d f827 81bd
000001c0: 2260 8fbd cc75 5cbd 3c7b 86bd 1017 3e3c
000001d0: 1247 dfbd ac2f fb3d f870 81bc 182c f3bd
000001e0: 28e2 da3d 5002 d33c f8bd cc3c c4fd 05bd
000001f0: facd 94bd ec71 d1bd e835 153d 50eb 9f3d
00000200: e827 213e af09 5a3e 25c8 453d d5b3 d2bd
00000210: d14a 913e 0c27 91bd bb84 403e be52 0d3e
00000220: 883e 093e 1174 ebbb 1ff1 8d3e d7a5 3abd
00000230: b090 25bc 1b02 4e3e 318a 493d bfff 333e
00000240: 5505 0c3c 2471 6d3e 6b7a 2c3e fa76 5b3e
00000250: 90b0 bdbc cac5 093e 2fdf a63d 06fd 013e
00000260: e064 6f3b b2fe 0c3e 41d6 4abd 3183 9f3d
00000270: 2bf4 c53d e134 88bd d7a9 353e 2d78 233e
00000280: b4f4 963d 57ad 543e 3813 6b3d 9513 8b3e
00000290: a646 c2bd 2c1f fd3d 8752 633e 8961 01bb
000002a0: 49f0 88bd 1244 a9bb 7497 283e 04ca 673d
000002b0: a012 5ebd 8773 0cbd b523 e4bc 5b33 82bd
000002c0: 56b2 033e 014d e73d f58b 233d 1627 093e
000002d0: 8467 703c 66c6 933b ae9d 433e 140b 2d3d
000002e0: b677 08bd a71c 09bd b96d 143e 5a70 223e
000002f0: deeb e4bb 9dd3 e83d de0e 1a3e 1be6 fabc
00000300: 10ae 6bbc 17a1 fb3d a2c2 d23d 08fb da3d
00000310: 6bee de3d 9488 40bd bfa7 6e3e 2b1c d03d
00000320: 144e 9f3d 6527 90bd 7e61 8f3e 8a76 b5bd
00000330: 08ea 943c 0c3b 853e 5fd9 7a3c 58e4 633e
00000340: fbdc a1bd edfa e13d 4d3d f33d 4ecf c23d
00000350: 8099 44bd 95e8 133e e259 d33d e355 85bb
00000360: 70fb 90bd 358c 193e 5546 323d 7125 8a3d
00000370: 5f7a ef3c ec8e b0bd fd97 ed3c 92e4 f03d
00000380: b075 52bd 0a5c 583d e122 8e3d fa3f 143e
00000390: e07c 0fbc d655 0e3e 7d9e c93d 4727 993c
000003a0: b3d7 943d 5231 003d 51ae ca3d df2e 403e
000003b0: e669 90bd 37c9 043e 0732 6ebb dc8f 53bd
000003c0: 03f6 a73d 2f91 9b3d 5ca4 e83d 6c61 423e
000003d0: b629 aa3d 9078 013e 8ab6 023e d8a4 46bd
000003e0: 5cbb 013d 0a5a 843d 6e8a 353e 6b41 66bc
000003f0: 1d62 493e 64d4 9c3d 7c33 37bd d060 d3bb

actor.preprocess.model.model.2.bias f4 [64]
0.030407783 -0.118561506 0.04655685 0.097349375 -0.10618332 -0.052845474 0.0094106635 -0.064782545
-0.09925831 -0.03947215 0.07388245 0.1519907 0.13706878 0.0756431 0.039634753 -0.03380029
0.0132728955 0.021719316 -0.0241674 -0.1002221 0.14663099 0.18169892 0.18879169 0.066900514
0.14894387 0.021613622 0.236218 -0.0003602457 0.3614705 0.25918952 0.117270395 0.11899636
0.1350866 0.07651032 0.2857936 -0.087580785 -0.15230562 0.10629451 -0.058200154 -0.1440984
-0.057371736 0.43235564 0.05203864 0.16424946 0.1395288 -0.09941107 -0.011884933 0.118441924
0.20687866 0.02745026 0.20798227 -0.08451508 -0.0030383614 0.0023461746 0.018584628 0.022993952
0.060613137 0.0101641575 -0.09711913 0.1916741 0.041006833 -0.11723301 0.11839505 0.037893593
00000000: be19 f93c 60d0 f2bd 65b2 3e3d 1c5f c73d
00000010: a476 d9bd 7f74 58bd 2f2f 1a3c b6ac 84bd
00000020: f147 cbbd 8dad 21bd af4f 973d 73a3 1b3e
00000030: c25b 0c3e c5ea 9a3d 0d58 223d 2c72 0abd
00000040: 8f76 593c b5ec b13c b6fa c5bc 3f41 cdbd
00000050: 6f26 163e 480f 3a3e 9c52 413e 2303 893d
00000060: be84 183e 0d0f b13c 22e3 713e 5cdf bcb9
00000070: a912 b93e 7db4 843e 762b f03d 5db4 f33d
00000080: 2454 0a3e 71b1 9c3d 8a53 923e 8e5d b3bd
00000090: 01f6 1bbe f0b0 d93d 4963 6ebd 888e 13be
000000a0: a0fe 6abd b85d dd3e 7826 553d 0331 283e
000000b0: a3e0 0e3e 0898 cbbd 06b9 42bc ae91 f23d
000000c0: 00d8 533e 5edf e03c 4ef9 543e 3e16 adbd
000000d0: 3f1f 47bb 47c2 193b ca3e 983c d05d bc3c
000000e0: 7b45 783d 9187 263c 65e6 c6bd 3746 443e
000000f0: c8f6 273d dc17 f0bd 1b79 f23d 5036 1b3d

actor.last.model.0.weight f4 [1000, 64]
-0.036383104 -0.117703035 0.045202956 -0.06852849 -0.02785924 0.088166036 -0.037262928 0.058508165
0.059016183 -0.055467557 0.13621464 0.06624398 0.13937558 0.045747872 -0.037158933 -0.051172003
-0.024313072 -0.08953419 0.11493786 -0.07470787 -0.08441442 -0.052476335 -0.07979169 0.039408553
-0.027446868 -0.08162732 -0.05949522 -0.012205732 0.04869888 -0.05398989 0.14311647 0.11443874
0.06987454 -0.085564576 -0.11055618 0.09064402 -0.11826 -0.12794355 -0.0402026 -0.031049812
-0.007197678 0.0067211785 -0.021859834 -0.030256212 -0.0061001047 -0.0459069 -0.032434124 0.0770324
0.055643603 -0.02162228 -0.0011414003 -0.08470111 -0.062859975 0.13358444 0.11776092 0.0900719
0.0460395 -0.07217579 -0.035881292 0.12062644 -0.088938646 0.10295367 0.08485719 0.068086974
0.02176979 0.07729812 -0.04240663 -0.08930805 0.0345778 -0.03891789 0.0627836 -0.037141584
0.07978485 -0.08380884 -0.014087501 -0.10668159 0.04178102 -0.08105068 0.044637 0.11410271
-0.13344997 -0.04141471 -0.03530276 -0.12875049 0.07334091 -0.0013676003 -0.15122493 -0.0061330423
-0.035914063 0.08786003 -0.11223433 -0.1168645 0.06768101 0.062271826 -0.08875455 -0.014105634
-0.13989681 -0.13478792 -0.13971724 0.037485573 -0.12843578 0.07305735 -0.027610304 0.05076441
0.043037936 0.10117156 0.034055363 -0.12648207 -0.121296346 0.07967648 -0.070689 -0.06586136
0.038500708 0.050856795 0.009021112 -0.0871389 0.102897264 0.06872891 -0.101069026 -0.056341767
-0.10659433 -0.09027307 0.0965076 -0.12789203 -0.022110263 0.05430855 0.058836933 0.024442645
0.022630338 -0.064865544 -0.12579167 -0.014327771 0.08587462 -0.04721857 -0.08613275 0.045121886
-0.113824315 -0.034670565 -0.1079992 -0.062292434 0.10073849 -0.053220887 0.06625895 0.010445714
0.031963594 0.040333305 0.11111908 -0.041794997 0.019438138 0.0630902 0.0992597 -0.04073259
-0.08980953 0.09383041 0.019462101 -0.061439827 0.02355618 0.015937753 0.119499706 0.08007948
-0.04511715 0.051455617 0.0030250086 0.07336495 -0.13349833 0.058346935 0.054981124 0.0911988
0.090080604 0.14400378 -0.07952421 -0.0036118834 0.13100813 0.04812272 -0.007831255 -0.120629
-0.07286749 -0.123823 0.10975413 0.09885672 -0.051381126 -0.04368837 -0.032116838 -0.12078148
0.0014614095 -0.056735355 -0.007077481 0.08921881 -0.08632717 0.064248174 -0.03835507 0.00936432
0.013669877 0.029890656 -0.038510475 -0.0632951 -0.04826653 -0.038949836 0.032730345 -0.06375875
-0.07051789 -0.0005180123 0.0723417 -0.00881103 0.04568325 -0.076319404 -0.06006765 0.003253743
0.076253004 -0.105427094 0.00045334725 -0.045923628 -0.048183817 -0.011768319 -0.10366552 0.072775505
0.11752058 0.08351 0.004996426 -0.12064115 -0.09239837 0.0072719986 -0.10600936 0.015881026
-0.0059051528 0.121102266 0.10728756 0.018825483 0.028511675 -0.09056484 0.11777311 -0.068320304
0.0122131705 0.045339443 -0.108960204 0.031646326 -0.0879578 0.11323045 -0.07711443 0.044800013
0.006347519 -0.033783205 -0.0865009 -0.09052932 -0.13146336 0.103919655 0.07917938 -0.023957208
-0.062132444 0.06421336 -0.035772648 -0.00037862684 -0.08103611 0.084710345 0.037851647 -0.08258583
00000000: 7306 15bd 4a0e f1bd bc26 393d aa58 8cbd
00000010: 1039 e4bc 6590 b43d 03a1 18bd 42a6 6f3d
00000020: f4ba 713d f331 63bd da7b 0b3e ecaa 873d
00000030: 79b8 0e3e 1f62 3b3d f733 18bd bc99 51bd
00000040: 352c c7bc b45d b7bd 8a64 eb3d 7100 99bd
00000050: 78e1 acbd 6df1 56bd d369 a3bd dd6a 213d
00000060: 41d8 e0bc 392c a7bd 43b1 73bd 8dfa 47bc
00000070: 7a78 473d 8124 5dbd 208d 123e dc5e ea3d
00000080: 621a 8f3d 7b3c afbd 476b e2bd 92a3 b93d
00000090: 4d32 f2bd a203 03be 7bab 24bd 2d5c febc
000000a0: 80da ebbb 553d dc3b 6513 b3bc e0db f7bc
000000b0: 63e3 c7bb e008 3cbd a5d9 04bd 2ac3 9d3d
000000c0: 8cea 633d 3521 b1bc 0a9b 95ba c777 adbd
000000d0: bbbc 80bd 5cca 083e a32c f13d 9e77 b83d
000000e0: ea93 3c3d e7d0 93bd 43f8 12bd ff0a f73d
000000f0: 7725 b6bd 60d9 d23d 9bc9 ad3d 2f71 8b3d
00000100: 8f56 b23c 7a4e 9e3d 93b2 2dbd 24e7 b6bd
00000110: 74a1 0d3d 5e68 1fbd b094 803d c621 18bd
00000120: 3d66 a33d f8a3 abbd 43cf 66bc e17b dabd
00000130: 9322 2b3d e6fd a5bd 49d5 363d aeae e93d
00000140: 1ca7 08be 79a2 29bd a099 10bd 2bd7 03be
00000150: c233 963d 0d41 b3ba b5da 1abe b0f7 c8bb
00000160: a01a 13bd f6ef b33d 1ddb e5bd a856 efbd
00000170: 579c 8a3d be10 7f3d f2c4 b5bd 511b 67bc
00000180: 1c41 0fbe d805 0abe 0912 0fbe 798a 193d
00000190: ab84 03be 189f 953d 012f e2bc 58ee 4f3d
000001a0: 8c48 303d 0933 cf3d a37d 0b3d 8484 01be
000001b0: 386a f8bd 6c2d a33d 65c5 90bd 52e2 86bd
000001c0: ebb2 1d3d 374f 503d 49cd 133c e175 b2bd
000001d0: cdbb d23d bec1 8c3d 47fd cebd a0c6 66bd
000001e0: 214e dabd 16e1 b8bd c7a5 c53d 21f6 02be
000001f0: 9520 b5bc a472 5e3d fffe 703d f13b c83c
00000200: 4263 b93c 3ad8 84bd 88cf 00be 07bf 6abc
00000210: 08df af3d 4268 41bd 5e66 b0bd bad1 383d
00000220: b91c e9bd b902 0ebd af2e ddbd 5a26 7fbd
00000230: fb4f ce3d 25fe 59bd c6b2 873d 8024 2b3c
00000240: 42ec 023d 8934 253d 6692 e33d 3b31 2bbd
00000250: bb3c 9f3c 6f35 813d ab48 cb3d 37d7 26bd
00000260: 0fee b7bd 282a c03d fc6e 9f3c 54a8 7bbd
00000270: e4f8 c03c e48f 823c 43bc f43d b600 a43d
00000280: c3cc 38bd 20c3 523d 393f 463b 5d40 963d
00000290: c9b3 08be 32fd 6e3d e333 613d 70c6 ba3d
000002a0: 2e7c b83d ba75 133e 97dd a2bd 59b5 6cbb
000002b0: ff26 063e 541c 453d aa4e 00bc 560c f7bd
000002c0: 8d3b 95bd ea96 fdbd c6c6 e03d 6475 ca3d
000002d0: 0475 52bd 94f2 32bd f28c 03bd 485c f7bd
000002e0: c48c bf3a 5563 68bd 37ea e7bb 5ab8 b63d
000002f0: 4dcc b0bd 8c94 833d 351a 1dbd ce6c 193c
00000300: 9ff7 5f3c 40dd f43c 29bd 1dbd dda0 81bd
00000310: 20b3 45bd dd89 1fbd 4110 063d f393 82bd
00000320: af6b 90bd 38cb 07ba e327 943d 235c 10bc
00000330: 5c1e 3b3d 594d 9cbd 7f09 76bd c03c 553b
00000340: 892a 9c3d 29ea d7bd 3daf ed39 6a1a 3cbd
00000350: 655c 45bd e8cf 40bc 974e d4bd 530b 953d
00000360: a1ae f03d 4a07 ab3d 0fb9 a33b b512 f7bd
00000370: 5b3b bdbd f249 ee3b 6f1b d9bd ed18 823c
00000380: 0380 c1bb 7704 f83d 95b9 db3d e637 9a3c
00000390: 5191 e93c 0f7a b9bd 0733 f13d 84eb 8bbd
000003a0: c019 483c dab5 393d 8726 dfbd 949f 013d
000003b0: 3823 b4bd 5ee5 e73d 2cee 9dbd 3880 373d
000003c0: d9fe cf3b 4260 0abd 6227 b1bd 7067 b9bd
000003d0: 559e 06be d4d3 d43d cc28 a23d e841 c4bc
000003e0: 977e 7ebd 4b82 833d 5786 12bd 6f82 c6b9
000003f0: 43f6 a5bd 9e7c ad3d 540a 1b3d c222 a9bd

actor.last.model.0.bias f4 [1000]
-0.05740617 0.016821088 0.04122204 -0.029328924 -0.09618313 -0.12654167 -0.03311178 -0.0009797525
0.094136484 -0.013975979 0.05165188 0.03632132 0.028679322 0.099873476 -0.0107534025 0.078339644
0.06842632 0.08057571 -0.07476025 -0.04795663 -0.13941298 -0.05056421 -0.12964419 0.06302703
-0.08133995 -0.05628748 -0.087547645 0.08051867 0.0038832093 -0.0037017944 -0.0025172709 -0.016044132
0.029174097 0.040344395 0.0013675219 -0.09047848 -0.041041195 0.047954235 -0.10604794 0.03805563
-0.07477195 0.10284493 0.042439945 -0.097567506 -0.077111386 -0.04067746 -0.019163344 0.0737497
-0.050202996 0.1108218 -0.02806536 -0.13155824 0.037087902 -0.0231648 -0.02463573 0.052488517
0.093730785 0.06499042 -0.14389303 -0.03180524 0.013624805 0.083465636 0.0653604 -0.12628144
0.050387736 -0.080802284 0.077478975 0.019778082 0.04155583 0.08732551 0.070260815 -0.11619591
0.0059063993 -0.08078591 0.09732089 -0.08151205 -0.036222726 0.056554567 -0.029499467 -0.067021206
-0.0906688 -0.019019455 0.025010146 0.08512335 0.059221685 0.048387654 0.049199615 0.014582972
-0.006735811 -0.110800415 -0.12117524 0.08229419 -0.020322135 -0.032486636 -0.06841264 -0.13454127
-0.057844643 0.03872525 -0.08252302 0.096074924 -0.124754116 -0.020259937 -0.015540201 -0.0449002
0.012231083 -0.07099499 -0.026772933 0.028762868 0.09875458 0.07605686 -0.0645521 -0.01835891
-0.044438522 0.022961166 0.100967966 -0.07589293 0.08002711 0.0047432035 0.08092005 -0.1117424
-0.10044628 0.0062449286 -0.006575028 -0.10437071 -0.063529454 -0.06839561 0.22108544 -0.01949105
-0.16434816 -0.018549886 0.1299356 -0.117585465 -0.110597104 -0.09046052 0.0069093183 0.0761026
-0.018859116 -0.10165465 -0.027509334 0.08576669 -0.066867724 -0.10187979 -0.14523812 -0.062114567
-0.14446668 0.08851603 0.017544536 -0.12622935 0.010233516 0.04938908 0.053699642 0.03126865
0.14871174 0.11169551 -0.018791007 -0.13569793 -0.15818627 0.0046879025 0.07063273 -0.020932617
-0.11683896 -0.05295484 -0.015601866 0.047924496 0.010612482 -0.013977689 0.022304485 -0.09736599
0.08021927 -0.0954823 -0.047697667 -0.09662286 0.022755848 0.030276934 -0.0011934092 -0.02906698
0.0976461 -0.04968243 -0.12291168 0.059364345 0.08508845 -0.07209474 0.0638106 -0.044910476
-0.09798298 -0.10069297 -0.040965717 0.09773231 0.039554544 0.02720721 0.070214316 0.12159211
0.043275464 -0.068585195 0.047280792 -0.053878825 -0.13090345 0.008529394 -0.10358859 0.06668422
-0.14966322 0.037360825 -0.019880587 0.061071366 0.034633808 -0.033705454 -0.080294125 -0.12670225
-0.13747075 -0.05168893 0.021215355 -0.01734249 -0.025366968 -0.017566934 -0.09763023 -0.0119744055
0.010947297 -0.07782716 -0.010182082 0.077536784 -0.016314648 0.012302781 0.047069296 -0.11117347
-0.081736654 0.08634927 0.07545049 0.050995134 -0.030823689 0.050282322 0.1140276 -0.030651154
-0.025079546 0.029402144 0.2663987 -0.0478125 -0.1004524 -0.114061534 -0.08643459 0.091638006
-0.117467165 -0.06476534 0.038897414 -0.14525484 -0.010051452 0.0033781577 0.0047823885 0.06672287
-0.16142917 -0.04306672 -0.02799113 -0.0011171879 -0.017217286 0.0045813546 -0.0357694 -0.11295516
00000000: bb22 6bbd 61cc 893c 71d8 283d 3643 f0bc
00000010: a9fb c4bd 2494 01be 38a0 07bd 0a6b 80ba
00000020: a1ca c03d 81fb 64bc ec90 533d aac5 143d
00000030: e6f0 ea3c 778a cc3d 0a2f 30bc 8970 a03d
00000040: 1923 8c3d e104 a53d e71b 99bd 2c6e 44bd
00000050: 47c2 0ebe 6b1c 4fbd 72c1 04be 5114 813d
00000060: 8f95 a6bd b38d 66bd 2e4c b3bd f9e6 a43d
00000070: 717d 7e3b ce99 72bb ccf8 24bb fc6e 83bc
00000080: 84fe ee3c 2a40 253d 6c3e b33a c84c b9bd
00000090: d01a 28bd a96b 443d aa2f d9bd 38e0 1b3d
000000a0: 0922 99bd 5da0 d23d 82d5 2d3d 79d1 c7bd
000000b0: 93ec 9dbd 699d 26bd 72fc 9cbc 150a 973d
000000c0: a8a1 4dbd 8af6 e23d 53e9 e5bc 34b7 06be
000000d0: 7ce9 173d 1bc4 bdbc dfd0 c9bc 33fe 563d
000000e0: edf5 bf3d b319 853d b258 13be 3646 02bd
000000f0: 933a 5f3c 08f0 aa3d acdb 853d ec4f 01be
00000100: 5f63 4e3d ab7b a5bd 4cad 9e3d a505 a23c
00000110: 7236 2a3d b8d7 b23d e7e4 8f3d 1ff8 edbd
00000120: 788a c13b 1573 a5bd 2d50 c73d caef a6bd
00000130: 485e 14bd c3a5 673d dea8 f1bc 6a42 89bd
00000140: 90b0 b9bd b0ce 9bbc 14e2 cc3c 2755 ae3d
00000150: 7092 723d 2232 463d 8985 493d 6bed 6e3c
00000160: 14b8 dcbb 54eb e2bd b92a f8bd db89 a83d
00000170: 9b7a a6bc b510 05bd ed1b 8cbd 30c5 09be
00000180: 81ee 6cbd 5e9e 1e3d d401 a9bd eec2 c43d
00000190: 167f ffbd 2bf8 a5bc 549c 7ebc 46e9 37bd
000001a0: e164 483c d265 91bd e952 dbbc 1ba0 eb3c
000001b0: d73f ca3d b3c3 9b3d e433 84bd 6d65 96bc
000001c0: 2b05 36bd 0e19 bc3c 4bc8 ce3d c16d 9bbd
000001d0: 41e5 a33d e06c 9b3b 69b9 a53d 33d9 e4bd
000001e0: c7b6 cdbd 42a2 cc3b 5573 d7bb 50c0 d5bd
000001f0: bb1b 82bd ff12 8cbd 3964 623e b2ab 9fbc
00000200: e24a 28be eef5 97bc d70d 053e a6d0 f0bd
00000210: bc80 e2bd 5d43 b9bd 9067 e23b aedb 9b3d
00000220: 6f7e 9abc 5030 d0bd 415b e1bc 72a6 af3d
00000230: f2f1 88bd 5aa6 d0bd 4db9 14be d86b 7ebd
00000240: 13ef 13be e447 b53d 8fb9 8f3c 4442 01be
00000250: 7aaa 273c 344c 4a3d 28f4 5b3d 8e13 003d
00000260: e447 183e 9ec0 e43d 99ef 99bc 66f4 0abe
00000270: 95fb 21be fa9c 993b e5a7 903d e17a abbc
00000280: 4449 efbd 2de7 58bd f89e 7fbc 7a4c 443d
00000290: fadf 2d3c ad02 65bc e5b7 b63c d267 c7bd
000002a0: 004a a43d 398c c3bd a15e 43bd 35e2 c5bd
000002b0: 796a ba3c 5507 f83c 2b6c 9cba e01d eebc
000002c0: aefa c73d ce7f 4bbd 1eb9 fbbd 0728 733d
000002d0: da42 ae3d 68a6 93bd 22af 823d 0cf4 37bd
000002e0: 4dab c8bd 1e38 cebd abcb 27bd e127 c83d
000002f0: f203 223d a8e1 de3c 86cc 8f3d 4905 f93d
00000300: 9d41 313d 6576 8cbd 81a9 413d 0bb0 5cbd
00000310: 8e0b 06be dfbe 0b3c 4126 d4bd bd91 883d
00000320: 5141 19be aa07 193d 9ddc a2bc f825 7a3d
00000330: 2edc 0d3d bb0e 0abd 3f71 a4bd 3cbe 01be
00000340: 22c5 0cbe c5b7 53bd d3cb ad3c d611 8ebc
00000350: 63ce cfbc 88e8 8fbc 5cf2 c7bd 4c30 44bc
00000360: 4b5c 333c d963 9fbd bfd2 26bc 9bcb 9e3d
00000370: 4ca6 85bc 9b91 493c bccb 403d ebae e3bd
00000380: 8c65 a7bd e3d7 b03d c985 9a3d 46e0 503d
00000390: f681 fcbc d6f4 4d3d 4d87 e93d 2118 fbbc
000003a0: 9f73 cdbc c4dc f03c 6965 883e 0ad7 43bd
000003b0: fdb9 cdbd 1899 e9bd 9e04 b1bd b5ac bb3d
000003c0: a092 f0bd b1a3 84bd e552 1f3d afbd 14be
000003d0: d8ae 24bc 1564 5d3b 95b5 9c3b 00a6 883d
000003e0: b04d 25be bb66 30bd a74d e5bc 9b6e 92ba
000003f0: 440b 8dbc 301f 963b ef82 12bd 0955 e7bd

critic.preprocess.model.model.0.weight f4 [64, 8]
-0.21101594 0.40585637 -0.16446488 0.42703378 -0.027199384 -0.25867778 0.36919758 0.010740967
0.25488475 -0.46634525 -0.058925312 -0.3998897 -0.27887923 -0.006498474 -0.03652217 0.4955053
0.07400875 -0.45778638 0.0648409 -0.08520252 -0.30945277 -0.15841626 -0.3337223 -0.1251248
-0.21845002 -0.027399326 -0.22362398 0.13064827 -0.24978466 0.2509271 -0.23219112 0.015584043
0.020698631 -0.17614661 -0.26292095 -0.2243028 -0.435741 0.12762654 0.25809592 -0.01236861
-0.24435529 0.14920637 0.27167895 -0.15442833 -0.10889603 -0.21369839 0.016775578 0.23980549
0.44208252 -0.4251018 -0.43649063 -0.26392385 -0.0970197 0.25138035 -0.09664188 0.14491056
-0.27472666 -0.4138959 -0.5701989 -0.43199602 -0.5618878 0.004525059 -0.17353141 -0.30761164
0.32911274 0.14663443 -0.26731512 0.11461187 0.16260356 -0.23188818 -0.20954686 0.3691947
0.37423006 -0.45718494 -0.48630902 -0.14007333 -0.46430823 -0.026852645 -0.4421509 -0.16465196
0.35420936 0.5198223 0.40703815 0.49740046 0.03258582 -0.13065302 0.26213375 -0.14083962
-0.009696145 0.21602392 -0.29340166 0.20275123 0.14343081 -0.22358541 -0.3414586 0.15177847
0.2572098 0.13541496 0.2975072 -0.22072056 -0.21849373 -0.2725831 0.067628354 0.11380312
-0.13668214 0.42952767 -0.16302444 0.4188374 -0.06741622 0.4276706 -0.15797615 0.38818467
0.17488995 -0.2694725 -0.0060128267 0.1513041 0.36002496 -0.067707576 0.40032506 0.3952333
0.09526547 -0.3440399 -0.088667065 -0.36757004 -0.313384 0.33711803 0.024178088 0.074724585
-0.22268528 0.14185685 -0.36113453 0.005881593 -0.20984863 -0.2318293 -0.022132449 0.3148453
0.06858349 0.52778447 0.20505755 0.40668008 0.13092346 -0.20072547 0.33216733 -0.10798547
-0.15514578 -0.116190515 0.39578757 0.4452954 0.14918524 0.24000627 0.29455864 -0.28543246
0.042337175 0.08776557 -0.4983984 -0.23718305 -0.40049925 0.0746092 -0.5391661 -0.22593938
-0.226296 0.11233577 0.055836767 -0.2350826 0.05022505 0.16072932 0.01490739 -0.33207363
0.14203785 -0.5973046 -0.46082327 -0.5687428 0.041275375 0.0015446334 -0.04652263 -0.07883556
-0.03527137 0.25007936 0.3392653 -0.07860305 0.018666837 0.30862585 0.39009386 0.07230164
0.40730986 -0.4088872 -0.25556687 -0.4068769 -0.58150715 -0.021759508 0.19868459 -0.15855552
-0.046889335 -0.068733804 0.17497642 -0.28675374 -0.3195094 -0.16587652 -0.22777084 -0.04458773
0.117457055 0.06254663 0.03506757 0.05484934 0.16459244 0.4139038 0.18673512 -0.098471045
0.19294856 -0.2213574 -0.28571242 0.28071943 -0.1407978 -0.08796249 0.19209176 -0.11988456
-0.080544434 0.32062936 -0.20618996 -0.27954412 -0.1386605 -0.29920843 -0.083388254 0.3374583
-0.16140832 0.07002202 0.49822772 -0.09764358 0.4684072 0.1501816 0.15861869 0.17950188
-0.23420624 0.07611518 -0.28933153 -0.12335021 -0.25736302 0.11062416 0.074099615 0.24911441
0.028226342 0.24893771 0.31210864 0.18215302 0.35459796 -0.2783456 -0.15551768 0.3718657
0.4165538 -0.13034162 0.25660664 0.36424097 0.19704328 0.2703151 0.2758384 0.14646882
00000000: 9014 58be 68cc cf3e 7b69 28be 2ca4 da3e
00000010: 3ed1 debc 6a71 84be 7707 bd3e e1fa 2f3c
00000020: 4180 823e cec4 eebe ab5b 71bd 58be ccbe
00000030: 42c9 8ebe 27f1 d4bb 4598 15bd dfb2 fd3e
00000040: e691 973d fa62 eabe 4ecb 843d a97e aebd
00000050: 9870 9ebe df37 22be a6dd aabe b720 00be
00000060: 5db1 5fbe 8d74 e0bc affd 64be a9c8 053e
00000070: 8dc7 7fbe 8479 803e 82c3 6dbe 3754 7f3c
00000080: 2d90 a93c c75f 34be 939d 86be a2af 65be
00000090: 7219 dfbe 88b0 023e 2625 843e b6a5 4abc
000000a0: 4638 7abe 8ec9 183e 8119 8b3e 7622 1ebe
000000b0: e204 dfbd c0d3 5abe f06c 893c 928f 753e
000000c0: a458 e23e f1a6 d9be b37b dfbe 0721 87be
000000d0: 44b2 c6bd edb4 803e 2eec c5bd 6f63 143e
000000e0: f9a8 8cbe 2aea d3be 8ef8 11bf 952e ddbe
000000f0: e1d7 0fbf f246 943b 38b2 31be 467f 9dbe
00000100: 7781 a83e 5627 163e 87dd 88be a1b9 ea3d
00000110: 8c81 263e 1874 6dbe 7493 56be 1607 bd3e
00000120: 159b bf3e 2514 eabe 7ffd f8be 626f 0fbe
00000130: cfb9 edbe 14fa dbbc 9a61 e2be 869a 28be
00000140: ee5a b53e 1313 053f 4e67 d03e 46ab fe3e
00000150: b578 053d e8c9 05be 6536 863e 4338 10be
00000160: 94dc 1ebc 6035 5d3e be38 96be 059e 4f3e
00000170: 87df 123e 93f3 64be a9d3 aebe d16b 1b3e
00000180: 01b1 833e 38aa 0a3e dd52 983e 9204 62be
00000190: d2bc 5fbe 0390 8bbe bc80 8a3d 9c11 e93d
000001a0: 67f6 0bbe 0deb db3e e1ef 26be db71 d63e
000001b0: 8411 8abd a4f7 da3e 80c4 21be 24c0 c63e
000001c0: 5a16 333e 4df8 89be 3f07 c5bb 76ef 1a3e
000001d0: 3155 b83e 45aa 8abd 68f7 cc3e 055c ca3e
000001e0: 8b1a c33d ff25 b0be 1497 b5bd 2432 bcbe
000001f0: de73 a0be bc9a ac3e 2011 c63c 3409 993d
00000200: 9c07 64be ec42 113e a0e6 b8be 61ba c03b
00000210: 8fe2 56be a964 6dbe 1c4f b5bc 6733 a13e
00000220: 8075 8c3d e21c 073f 9bfa 513e 5f38 d03e
00000230: cd10 063e fa8a 4dbe d611 aa3e 7c27 ddbd
00000240: 89de 1ebe 4bf5 edbd aba4 ca3e c2fd e33e
00000250: 04c4 183e 34c4 753e 64d0 963e 3424 92be
00000260: bf69 2d3d 6fbe b33d 132e ffbe 1de0 72be
00000270: 3d0e cdbe b5cc 983d ca06 0abf a75c 67be
00000280: 23ba 67be 4c10 e63d 18b5 643d 7eb9 70be
00000290: c8b8 4d3d 3a96 243e 203e 743c 8e05 aabe
000002a0: 5f72 113e f4e8 18bf 07f1 ebbe 2199 11bf
000002b0: 5e10 293d 4c75 ca3a 838e 3ebd 8a74 a1bd
000002c0: b678 10bd 670a 803e 2eb4 ad3e a3fa a0bd
000002d0: 32eb 983c 3504 9e3e 62ba c73e e212 943d
000002e0: eb8a d03e aa59 d1be a9d9 82be 2b52 d0be
000002f0: a7dd 14bf ff40 b2bc f973 4b3e 615c 22be
00000300: 080f 40bd 4fc4 8cbd 052d 333e 63d1 92be
00000310: bc96 a3be 89db 29be c23c 69be a0a1 36bd
00000320: 538d f03d 7318 803d 03a3 0f3d b4a9 603d
00000330: ec8a 283e 33eb d33e 7e37 3f3e 30ab c9bd
00000340: 4f94 453e 84ab 62be e648 92be 75ba 8f3e
00000350: 4c2d 10be ae25 b4bd b4b3 443e 0986 f5bd
00000360: 7bf4 a4bd 8829 a43e 7623 53be 6820 8fbe
00000370: 05fd 0dbe d931 99be 76c7 aabd 56c7 ac3e
00000380: 3948 25be b467 8f3d b417 ff3e 5bf9 c7bd
00000390: 12d3 ef3e 35c9 193e f06c 223e 57cf 373e
000003a0: c3d3 6fbe 47e2 9b3d 4323 94be 099f fcbd
000003b0: 16c5 83be eb8e e23d 8ac1 973d d917 7f3e
000003c0: ee3a e73c 87e9 7e3e b4cc 9f3e 5286 3a3e
000003d0: dd8d b53e 5183 8ebe 0740 1fbe 2e65 be3e
000003e0: 8a46 d53e 4678 05be f261 833e cb7d ba3e
000003f0: b7c5 493e be66 8a3e b13a 8d3e ecfb 153e

critic.preprocess.model.model.0.bias f4 [64]
0.1479588 0.29438952 0.6963287 -0.3304506 0.3760176 -0.11498515 0.2977902 0.7109149
0.19011275 0.06890833 -0.43022776 -0.116580926 -0.3413581 -0.08644176 0.025108458 0.3164461
0.5224026 -0.22081377 0.12024892 0.5827363 -0.25330788 0.48296538 -0.013110188 0.24693535
-0.2581718 -0.004585931 -0.16684681 -0.23292597 0.05864703 0.39546576 0.24131504 -0.100195825
-0.24225202 0.5389503 0.35726222 -0.3838261 -0.30481318 0.46373072 0.39816314 0.2774227
0.3181914 -0.19691876 0.22519326 -0.34556577 -0.11898888 0.58046085 0.37008885 0.3338075
0.4451525 0.38893235 0.29559362 0.13296413 -0.098194115 -0.26333883 0.54829603 -0.3159259
0.36017758 0.028071035 -0.01380478 0.71084285 0.043700084 0.29222238 0.3731738 -0.14557499
00000000: 8382 173e 39ba 963e 9942 323f d230 a9be
00000010: 6185 c03e 567d ebbd f577 983e 85fe 353f
00000020: ebac 423e cf1f 8d3d d046 dcbe fbc1 eebd
00000030: 7dc6 aebe 6108 b1bd 41b0 cd3c 3905 a23e
00000040: 2dbc 053f 011d 62be 1145 f63d 352e 153f
00000050: 92b1 81be 3d47 f73e 1dcc 56bc 9fdc 7c3e
00000060: 182f 84be 9445 96bb e4d9 2abe 2584 6ebe
00000070: de37 703d 7d7a ca3e 4a1b 773e 7833 cdbd
00000080: ea10 78be a6f8 093f 13eb b63e db84 c4be
00000090: 7910 9cbe 1d6e ed3e 0adc cb3e 590a 8e3e
000000a0: fce9 a23e 12a5 49be 1099 663e ffed b0be
000000b0: 71b0 f3bd 1599 143f 497c bd3e d1e8 aa3e
000000c0: 07eb e33e 2422 c73e 0c58 973e c027 083e
000000d0: ff19 c9bd 59d4 86be 215d 0c3f 0ac1 a1be
000000e0: 3269 b83e 3af5 e53c 722d 62bc ccf9 353f
000000f0: dcfe 323d 2c9e 953e a310 bf3e 9c11 15be

critic.preprocess.model.model.2.weight f4 [64, 64]
-0.115788154 0.031462498 -0.036174946 -0.058430165 0.034211073 0.114986554 -0.0073140273 0.09616166
-0.08256142 0.0054057986 0.034335807 -0.06472878 0.118202865 -0.05887671 0.03425143 -0.032976624
0.043173213 0.10056137 -0.11906308 -0.011145785 -0.07746741 0.09837381 0.04772165 -0.049084276
0.03362222 -0.076868504 0.0005643219 0.06211832 -0.14453231 0.01606744 0.06191393 0.07005847
-0.056969494 -0.12628742 0.029663432 -0.082331754 -0.046899915 -0.10584828 0.09570989 -0.06476058
-0.05380259 -0.025615573 -0.009970861 0.0069478652 0.09774724 0.09175688 -0.12113709 -0.12733246
0.034581494 0.056291398 0.09537335 -0.058206294 -0.11417807 0.029275723 -0.058021385 0.09296501
-0.13816175 -0.013199056 -0.013220925 0.01327457 -0.11941028 -0.10632641 -0.06966483 -0.06935421
0.016567156 0.0934473 0.046178207 0.011300147 0.004241213 -0.043710545 -0.08648367 -0.011059031
-0.08071506 0.10605937 0.051962584 0.07505229 -0.12133366 0.05826208 -0.08370453 -0.12207666
0.029578865 0.04071164 -0.07058421 0.08970487 -0.0004978627 -0.11122446 0.09283826 0.04665962
-0.08219044 -0.08820589 0.024050638 -0.122089535 -0.075365454 -0.10736537 0.10225575 -0.044670135
-0.10226415 -0.0965572 -0.014065534 0.003459692 -0.02982995 -0.029000878 0.10078165 -0.060509592
-0.11595537 -0.05050096 -0.07461396 -0.08304916 0.07264526 -0.112016305 0.056583747 -0.063064516
-0.07000758 -0.053823277 -0.06566474 0.011602178 -0.109022275 0.12264952 -0.015800938 -0.118736446
0.10687667 0.025757939 0.024992928 -0.032712713 -0.072658494 -0.10226807 0.036428362 0.07808554
0.1573788 0.21292756 0.048286576 -0.102882065 0.28377393 -0.07087526 0.18800633 0.13801095
0.1340276 -0.007185467 0.27723023 -0.045568313 -0.010105297 0.2011799 0.049204055 0.17578028
0.008546193 0.23187691 0.16843574 0.21432105 -0.02315548 0.13454357 0.08148038 0.12694177
0.0036528632 0.13769034 -0.049520735 0.07788695 0.09665712 -0.06650711 0.1774057 0.15963812
0.07370892 0.20769249 0.057391375 0.27163377 -0.09486131 0.12359461 0.2219945 -0.0019741973
-0.06686456 -0.0051655853 0.16464025 0.05658914 -0.05421698 -0.034289863 -0.027849058 -0.063574515
0.12860999 0.11293984 0.039928395 0.13393816 0.014673118 0.004509735 0.19103119 0.042246893
-0.03331729 -0.03347459 0.14494981 0.15863171 -0.0069861254 0.11368487 0.15044734 -0.030627301
-0.014384761 0.12286585 0.102910295 0.10692412 0.10885318 -0.04700525 0.23306178 0.101616226
0.07778564 -0.07038764 0.28004068 -0.088605 0.018178001 0.26021612 0.015310614 0.22255075
-0.07903477 0.110341884 0.118769266 0.095121965 -0.04799795 0.14444192 0.10319878 -0.0040690764
-0.07079208 0.14994891 0.043524105 0.06745423 0.029233156 -0.0862101 0.029003138 0.11762346
-0.051381767 0.05282215 0.069402464 0.1447753 -0.0087578 0.13899931 0.09844682 0.018695487
0.07267704 0.031297036 0.098965295 0.1876788 -0.070514485 0.12967382 -0.0036345737 -0.051650867
0.0820122 0.07596051 0.11359474 0.18982476 0.08308737 0.12643647 0.12764946 -0.04849705
0.03167282 0.06462486 0.17728588 -0.014053683 0.19666333 0.07657698 -0.044726834 -0.00645075
00000000: 5722 edbd d2de 003d 2e2c 14bd 7854 6fbd
00000010: e920 0c3d 127e eb3d 82aa efbb 68f0 c43d
00000020: f615 a9bd 2023 b13b b4a3 0c3d 8690 84bd
00000030: 5814 f23d b428 71bd 3a4b 0c3d 7f12 07bd
00000040: 65d6 303d 1ff3 cd3d 58d7 f3bd d09c 36bc
00000050: 3ca7 9ebd 3578 c93d c777 433d 980c 49bd
00000060: 74b7 093d 3c6d 9dbd 00ef 133a c86f 7e3d
00000070: 4700 14be dd9f 833c 7699 7d3d d17a 8f3d
00000080: d858 69bd 7d51 01be ba00 f33c 8d9d a8bd
00000090: 201a 40bd fcc6 d8bd 8c03 c43d 32a1 84bd
000000a0: 1b60 5cbd c0d7 d1bc d25c 23bc ebaa e33b
000000b0: b42f c83d 08eb bb3d b916 f8bd 7163 02be
000000c0: 53a5 0d3d cf91 663d 1a53 c33d b969 6ebd
000000d0: 31d6 e9bd a4d3 ef3c d5a7 6dbd 7064 be3d
000000e0: 467a 0dbe da40 58bc 949c 58bc 957d 593c
000000f0: 608d f4bd a9c1 d9bd 6fac 8ebd 9409 8ebd
00000100: d8b7 873c 4c61 bf3d 5c25 3d3d 4024 393c
00000110: e0f9 8a3b d409 33bd 5a1e b1bd f030 35bc
00000120: f04d a5bd a835 d93d b8d6 543d 04b5 993d
00000130: c87d f8bd 38a4 6e3d 486d abbd 5403 fabd
00000140: 604f f23c 40c1 263d 748e 90bd 30b7 b73d
00000150: 0083 02ba a6c9 e3bd fc21 be3d 281e 3f3d
00000160: 7653 a8bd 4aa5 b4bd d805 c53c 140a fabd
00000170: 3459 9abd 60e2 dbbd 766b d13d 08f8 36bd
00000180: de6f d1bd c8bf c5bd 2073 66bc 00bc 623b
00000190: f05d f4bc 4093 edbc 9c66 ce3d e8d8 77bd
000001a0: 027a edbd 18da 4ebd 34cf 98bd ae15 aabd
000001b0: 0ac7 943d ce68 e5bd 5cc4 673d f827 81bd
000001c0: 2260 8fbd cc75 5cbd 3c7b 86bd 1017 3e3c
000001d0: 1247 dfbd ac2f fb3d f870 81bc 182c f3bd
000001e0: 28e2 da3d 5002 d33c f8bd cc3c c4fd 05bd
000001f0: facd 94bd ec71 d1bd e835 153d 50eb 9f3d
00000200: e827 213e af09 5a3e 25c8 453d d5b3 d2bd
00000210: d14a 913e 0c27 91bd bb84 403e be52 0d3e
00000220: 883e 093e 1174 ebbb 1ff1 8d3e d7a5 3abd
00000230: b090 25bc 1b02 4e3e 318a 493d bfff 333e
00000240: 5505 0c3c 2471 6d3e 6b7a 2c3e fa76 5b3e
00000250: 90b0 bdbc cac5 093e 2fdf a63d 06fd 013e
00000260: e064 6f3b b2fe 0c3e 41d6 4abd 3183 9f3d
00000270: 2bf4 c53d e134 88bd d7a9 353e 2d78 233e
00000280: b4f4 963d 57ad 543e 3813 6b3d 9513 8b3e
00000290: a646 c2bd 2c1f fd3d 8752 633e 8961 01bb
000002a0: 49f0 88bd 1244 a9bb 7497 283e 04ca 673d
000002b0: a012 5ebd 8773 0cbd b523 e4bc 5b33 82bd
000002c0: 56b2 033e 014d e73d f58b 233d 1627 093e
000002d0: 8467 703c 66c6 933b ae9d 433e 140b 2d3d
000002e0: b677 08bd a71c 09bd b96d 143e 5a70 223e
000002f0: deeb e4bb 9dd3 e83d de0e 1a3e 1be6 fabc
00000300: 10ae 6bbc 17a1 fb3d a2c2 d23d 08fb da3d
00000310: 6bee de3d 9488 40bd bfa7 6e3e 2b1c d03d
00000320: 144e 9f3d 6527 90bd 7e61 8f3e 8a76 b5bd
00000330: 08ea 943c 0c3b 853e 5fd9 7a3c 58e4 633e
00000340: fbdc a1bd edfa e13d 4d3d f33d 4ecf c23d
00000350: 8099 44bd 95e8 133e e259 d33d e355 85bb
00000360: 70fb 90bd 358c 193e 5546 323d 7125 8a3d
00000370: 5f7a ef3c ec8e b0bd fd97 ed3c 92e4 f03d
00000380: b075 52bd 0a5c 583d e122 8e3d fa3f 143e
00000390: e07c 0fbc d655 0e3e 7d9e c93d 4727 993c
000003a0: b3d7 943d 5231 003d 51ae ca3d df2e 403e
000003b0: e669 90bd 37c9 043e 0732 6ebb dc8f 53bd
000003c0: 03f6 a73d 2f91 9b3d 5ca4 e83d 6c61 423e
000003d0: b629 aa3d 9078 013e 8ab6 023e d8a4 46bd
000003e0: 5cbb 013d 0a5a 843d 6e8a 353e 6b41 66bc
000003f0: 1d62 493e 64d4 9c3d 7c33 37bd d060 d3bb

critic.preprocess.model.model.2.bias f4 [64]
0.030407783 -0.118561506 0.04655685 0.097349375 -0.10618332 -0.052845474 0.0094106635 -0.064782545
-0.09925831 -0.03947215 0.07388245 0.1519907 0.13706878 0.0756431 0.039634753 -0.03380029
0.0132728955 0.021719316 -0.0241674 -0.1002221 0.14663099 0.18169892 0.18879169 0.066900514
0.14894387 0.021613622 0.236218 -0.0003602457 0.3614705 0.25918952 0.117270395 0.11899636
0.1350866 0.07651032 0.2857936 -0.087580785 -0.15230562 0.10629451 -0.058200154 -0.1440984
-0.057371736 0.43235564 0.05203864 0.16424946 0.1395288 -0.09941107 -0.011884933 0.118441924
0.20687866 0.02745026 0.20798227 -0.08451508 -0.0030383614 0.0023461746 0.018584628 0.022993952
0.060613137 0.0101641575 -0.09711913 0.1916741 0.041006833 -0.11723301 0.11839505 0.037893593
00000000: be19 f93c 60d0 f2bd 65b2 3e3d 1c5f c73d
00000010: a476 d9bd 7f74 58bd 2f2f 1a3c b6ac 84bd
00000020: f147 cbbd 8dad 21bd af4f 973d 73a3 1b3e
00000030: c25b 0c3e c5ea 9a3d 0d58 223d 2c72 0abd
00000040: 8f76 593c b5ec b13c b6fa c5bc 3f41 cdbd
00000050: 6f26 163e 480f 3a3e 9c52 413e 2303 893d
00000060: be84 183e 0d0f b13c 22e3 713e 5cdf bcb9
00000070: a912 b93e 7db4 843e 762b f03d 5db4 f33d
00000080: 2454 0a3e 71b1 9c3d 8a53 923e 8e5d b3bd
00000090: 01f6 1bbe f0b0 d93d 4963 6ebd 888e 13be
000000a0: a0fe 6abd b85d dd3e 7826 553d 0331 283e
000000b0: a3e0 0e3e 0898 cbbd 06b9 42bc ae91 f23d
000000c0: 00d8 533e 5edf e03c 4ef9 543e 3e16 adbd
000000d0: 3f1f 47bb 47c2 193b ca3e 983c d05d bc3c
000000e0: 7b45 783d 9187 263c 65e6 c6bd 3746 443e
000000f0: c8f6 273d dc17 f0bd 1b79 f23d 5036 1b3d

critic.last.model.0.weight f4 [1, 64]
-0.08478883 0.06404808 0.082658924 0.06984509 -0.015995756 -0.088767804 -0.020834548 -0.07677797
0.07937133 0.12069639 0.11979072 0.01469724 0.12950894 -0.05634997 -0.10434716 0.05509016
0.022937987 0.1340346 0.029039437 0.055588134 0.026317634 -0.06346201 0.026764048 -0.06143159
0.02586868 -0.057900805 -0.10721689 -0.01516081 -0.02922406 -0.036386516 0.107823506 0.02972853
-0.041370157 0.09651066 0.054159097 0.11762115 -0.091567956 0.049802087 0.069726504 0.13461418
0.00585483 0.0039053229 -0.09696507 0.016929401 -0.06447884 -0.119439885 0.07162314 -0.09080106
0.011828432 -0.09898055 0.004139376 -0.031513628 -0.046973437 0.057817638 -0.017790979 0.11302976
0.101240814 -0.20049785 0.097726755 0.022597566 -0.04440702 0.020525873 0.11801264 -0.031117555
00000000: c4a5 adbd a42b 833d 1549 a93d f10a 8f3d
00000010: 8809 83bc e5cb b5bd 37ad aabc c53d 9dbd
00000020: 708d a23d ab2f f73d d654 f53d b1cc 703c
00000030: fe9d 043e 3acf 66bd f7b3 d5bd 38a6 613d
00000040: 72e8 bb3c 5e40 093e 1de4 ed3c 62b0 633d
00000050: 1498 d73c 5ff8 81bd 4740 db3c b19f 7bbd
00000060: 8eea d33c 6529 6dbd 8794 dbbd 0c65 78bc
00000070: 4c67 efbc 070a 15bd 92d2 dc3d 3f89 f33c
00000080: c173 29bd 62a7 c53d eed5 5d3d 5ce3 f03d
00000090: fb87 bbbd 46fd 4b3d c5cc 8e3d 4dd8 093e
000000a0: e0d9 bf3b 72f0 7f3b 9f95 c6bd 87af 8a3c
000000b0: 7b0d 84bd e69c f4bd 27af 923d e8f5 b9bd
000000c0: 0acc 413c 51b6 cabd 9aa3 873b 6f14 01bd
000000d0: 3867 40bd 30d2 6c3d 63be 91bc 267c e73d
000000e0: 5857 cf3d 4f4f 4dbe f724 c83d 881e b93c
000000f0: 23e4 35bd e025 a83c 9cb0 f13d 3eea febc
