log/CartPole-v0/a2c/policy.pth (torch, 912911 bytes, 22 tensors)

actor.preprocess.model.model.0.weight f4 [64, 97]
0	0xbd929d02	-0.07158853
1	0x3da6605a	0.08123846
2	0xbda9696c	-0.08272061
3	0x3db28cf4	0.08718291
4	0xbd30b8c1	-0.043144945
5	0xbdaef752	-0.08543266
6	0x3d999b64	0.075003415
7	0xbc04a928	-0.008096971
8	0x3c2c2740	0.010507405
9	0xbdb004b2	-0.085946456
10	0x3ce57f38	0.028014764
11	0xbd88bdcb	-0.06676825
12	0xbcfe05ac	-0.031008564
13	0xbd83d6de	-0.06437467
14	0xbbbe2a10	-0.005803354
15	0x3da17b2a	0.0788482
16	0xbcdbd044	-0.026832707
17	0xbdaee481	-0.085396774
18	0x3d7d56b0	0.06185025
19	0x3caa8c08	0.020818725
20	0xbd2c78c0	-0.042107344
21	0xbdbf91d0	-0.093539834
22	0xbd6ed756	-0.05831083
23	0xbdae5252	-0.08511795
24	0xbd6e664a	-0.05820302
25	0xbc4b4f38	-0.012409024
26	0xbd8cd1a0	-0.0687592
27	0x3d0718e0	0.032982707
28	0xbd9c3134	-0.07626572
29	0x3d9cdbe6	0.0765913
30	0xbd91d38c	-0.071204275
31	0x3c13b418	0.009015106
32	0xbd1be79c	-0.038062677
33	0xba002b00	-0.000488922
34	0xbcefdfd0	-0.029281527
35	0xbc6d8bf0	-0.014498696
36	0xbd9845ec	-0.074352115
37	0xbbef9d40	-0.007312447
38	0x3dadf716	0.084943935
39	0xbd4781f2	-0.04870791
40	0xbd8fb7c8	-0.07017475
41	0x3d2f8308	0.04284957
42	0x3d9fc9d2	0.07802166
43	0xbd35a78b	-0.044349235
44	0xbd00183e	-0.03127312
45	0xbd7b5fbe	-0.061370604
46	0x3b9ddd80	0.0048176646
47	0x3d8d0abc	0.06886813
48	0x3d892b04	0.06697658
49	0xbd9c2e30	-0.07625997
50	0xbda996ec	-0.08280739
51	0xbcf51ed4	-0.029921927
52	0x3c9b4f3c	0.01895868
53	0x3c4aeb70	0.012385234
54	0xbca58d90	-0.020209104
55	0xbc9c90c4	-0.019111998
56	0xbd8be444	-0.068306476
57	0xbcfda184	-0.030960806
58	0xbda091b8	-0.07840294
59	0xbd183534	-0.037160113
60	0xbd94eede	-0.07272123
61	0x3c462d98	0.012095831
62	0x3d585488	0.05281499
63	0xbda10fc3	-0.078643344
64	0x3d8dfe12	0.06933226
65	0x3cc01ea8	0.023452118
66	0xbdc3fcc3	-0.09569695
67	0x3c691840	0.014226973
68	0x3ce60bb8	0.02808176
69	0xbdbbcde1	-0.09170128
70	0xbda50902	-0.08058359
71	0x3da54b08	0.08070952
72	0x3dc21992	0.094775334
73	0xbd88b076	-0.06674282
74	0xbd93b92f	-0.07213055
75	0x3ccd3650	0.025050312
76	0xbd8c302a	-0.06845124
77	0xbca90264	-0.020631023
78	0xbd18b154	-0.03727849
79	0xbd6fea31	-0.05857295
80	0x3d86496a	0.06556971
81	0x3dabd940	0.083910465
82	0x3d52dc20	0.05147946
83	0x3d9e4d34	0.07729569
84	0xbd65d197	-0.056108084
85	0xbd974caf	-0.07387673
86	0x3c87cb40	0.01657641
87	0xbd9d1f26	-0.07671957
88	0xba93abc0	-0.0011266395
89	0x3d7b9668	0.061422735
90	0xbdae5837	-0.085129194
91	0x3d607b18	0.05480489
92	0x3d20bcd4	0.03924258
93	0xbd814162	-0.06311299
94	0xbdbe41e2	-0.0928991
95	0x3d359e48	0.044340402
96	0x3d97473e	0.07386635
97	0x3d1f49fc	0.038888916
98	0x3daefab2	0.0854391
99	0xbd81d12d	-0.06338725
100	0xbd8081e4	-0.06274775
101	0xbda051f3	-0.078281306
102	0x3c9f1a54	0.019421734
103	0x3d05ddec	0.032682344
104	0xbda98966	-0.0827816
105	0x3db5c784	0.08875945
106	0xbda59380	-0.08084774
107	0x3daffe20	0.08593392
108	0xbd5c6467	-0.05380669
109	0x3da24b6c	0.07924542
110	0xbd9e6332	-0.07733764
111	0x3d8b2344	0.06793836
112	0x3ccfdd18	0.02537398
113	0xbdc4739f	-0.095923655
114	0xbcac2b3c	-0.02101671
115	0x3ccbcb00	0.024877071
116	0x3dae15ee	0.085002765
117	0xbd3513a8	-0.0442082
118	0x3db9bc34	0.090691
119	0x3db4c7e6	0.0882719
120	0xbd0265fc	-0.03183554
121	0xbd472eda	-0.048628666
122	0x3ca94cd8	0.020666525
123	0xbd6415ef	-0.05568498
124	0xbd1e2d5e	-0.038617484
125	0x3d1ab610	0.037771285
126	0x3c9f3d5c	0.019438438
127	0xbd1e6f9a	-0.03868065
128	0xbda73e76	-0.0816621
129	0x3d747760	0.059684157
130	0xbdaeb769	-0.085310765
131	0x3ca9d684	0.020732172
132	0xbd27f9da	-0.04100976
133	0xbdac2958	-0.08406323
134	0x3b8f10a0	0.0043659955
135	0x3d94ac02	0.072593704
136	0xbb834350	-0.004005827
137	0x3dc8a75a	0.09797545
138	0x3bac12b0	0.005251251
139	0x3d810dd2	0.06301464
140	0xbc83d0c8	-0.016090766
141	0xbda706ae	-0.08155571
142	0x3d46d120	0.04853928
143	0xbd609d09	-0.05483726
144	0xbd81317c	-0.063082665
145	0xbd924b82	-0.07143308
146	0x3d9a8156	0.075442
147	0x3db7994a	0.089647844
148	0x3b9c0960	0.00476186
149	0x3d4dd894	0.050255373
150	0x3d5006fc	0.05078791
151	0xbdce366a	-0.100689724
152	0xbb38a360	-0.002817355
153	0x3dc97ebc	0.09838626
154	0xbd9531d4	-0.072848946
155	0x3b8c22c0	0.0042766035
156	0xbd27e394	-0.04098852
157	0x3bd73d50	0.0065685883
158	0xbdb21a55	-0.08696429
159	0xbda4d2e5	-0.080480374
160	0xbd8518a7	-0.06498843
161	0x3d042410	0.032260954
162	0x3c835ca4	0.016035385
163	0xbd8a43a0	-0.0675118
164	0x3c6c51c8	0.014423795
165	0x3d3d10fc	0.046158776
166	0x3b8c48e0	0.0042811483
167	0xbdc34f3f	-0.09536599
168	0x3ce61468	0.028085902
169	0xbdbe2522	-0.09284426
170	0xbd6a5454	-0.057209328
171	0xbdae8625	-0.0852168
172	0x3dbb4e6e	0.09145819
173	0xbc455820	-0.012044936
174	0x3d19e958	0.03757605
175	0xbd13e17c	-0.03610371
176	0xbd27a838	-0.04093191
177	0x3d009708	0.031394035
178	0x3d6977f8	0.056999177
179	0xbd811c6b	-0.063042484
180	0xbd0fb8f0	-0.03508848
181	0x3d6c958c	0.057759807
182	0x3d96b4ac	0.07358679
183	0xbc251cb8	-0.010077648
184	0x3dbc191a	0.09184475
185	0xbd3fd78c	-0.04683642
186	0xbc09a428	-0.008400954
187	0xbd4482d0	-0.047976315
188	0xbdc46339	-0.09589238
189	0xbcff279c	-0.031146817
190	0x3dcf2548	0.10114533
191	0xbd92f5f7	-0.0717582
192	0xbb847fb0	-0.004043542
193	0xbcee99f4	-0.029126145
194	0x3d2740a8	0.040833145
195	0xbdbbf893	-0.09178271
196	0xbdcf2112	-0.101137295
197	0xbd1c898c	-0.038217112
198	0xbd98b995	-0.07457272
199	0xbb5ed200	-0.0033999681
200	0x3bd8fdd0	0.0066220537
201	0xbc16a240	-0.009193957
202	0xbc8bdfbc	-0.017074458
203	0xbc3a4e78	-0.0113712475
204	0x3ca4e010	0.020126373
205	0x3dbbe42a	0.09174378
206	0x3cd5caa8	0.02609761
207	0xbd62e1e4	-0.055391207
208	0x3d81055c	0.0629985
209	0xbd91b380	-0.07114315
210	0xbdb79102	-0.08963205
211	0x3d9594ec	0.07303795
212	0xbd44b3aa	-0.048022904
213	0xbc90ef30	-0.017692178
214	0x3d43ccfc	0.04780291
215	0xbcdbdde4	-0.026839204
216	0xbca054b0	-0.019571632
217	0x3db54a24	0.08852032
218	0xbd808f52	-0.06277336
219	0xbdabb436	-0.08383982
220	0xbd31af79	-0.043380234
221	0xbda8b0dd	-0.08236859
222	0xbce12b00	-0.027486324
223	0x3dcdc3ea	0.10047133
224	0xbda2fa93	-0.079579495
225	0xbd107860	-0.03527105
226	0x3db2e8b6	0.08735792
227	0xbdab7fee	-0.0837401
228	0x3da1f0b0	0.079072356
229	0x3c1fc060	0.009750456
230	0xbb981110	-0.004640706
231	0x3c93a484	0.018022783
232	0xbdad926a	-0.08475192
233	0x3d380ae4	0.04493226
234	0xbd72ade9	-0.059247885
235	0xbc437340	-0.011929333
236	0xbd5027e5	-0.050819296
237	0x3c6d52e0	0.014485091
238	0x3d170190	0.036866724
239	0x3d5f79b4	0.054559425
240	0xbc50b078	-0.012737386
241	0x3d3faf20	0.04679787
242	0x3d847112	0.06466879
243	0x3ce20000	0.02758789
244	0x3d9e251c	0.07721922
245	0xbdce6c4f	-0.10079252
246	0xbd8e42dd	-0.06946347
247	0x3dafa316	0.08576028
248	0x3db90122	0.09033419
249	0xbd8d282f	-0.0689243
250	0x3d2cdca4	0.042202607
251	0x3d95bc46	0.07311301
252	0x3ccd9388	0.025094762
253	0x3d45eb64	0.04832019
254	0x3d45c390	0.048282206
255	0x3c5115d8	0.012761556

actor.preprocess.model.model.0.bias f4 [64]
0	0xbc53c360	-0.012924999
1	0xbcb94c5c	-0.022619419
2	0xbd14c6aa	-0.036322273
3	0xbda2a201	-0.07941056
4	0xbd3f662f	-0.04672831
5	0x3dac597c	0.08415505
6	0x3db0791a	0.08616848
7	0x3db84ef8	0.08999437
8	0xbdb7302d	-0.08944736
9	0x3dc9115c	0.09817764
10	0xbd9b1d09	-0.075738974
11	0x3c8347f0	0.016025513
12	0xbda184d5	-0.07886664
13	0x3d8940d2	0.067018166
14	0x3d15df74	0.036590055
15	0x3cf183f0	0.029481858
16	0x3d000940	0.03125882
17	0x3cceaac8	0.02522792
18	0xbd45f0e2	-0.048325427
19	0xbd742dc3	-0.059613954
20	0xbd16c028	-0.03680435
21	0xbb9c7d60	-0.004775688
22	0xbce3eeac	-0.027823769
23	0xbd53843c	-0.05163978
24	0xbdcc11c7	-0.09964328
25	0x3d53618c	0.0516067
26	0x3ca6e334	0.02037201
27	0xbd85cd79	-0.065333314
28	0xbda0c7ce	-0.0785061
29	0x3dad44d6	0.08460395
30	0xbd241604	-0.04006006
31	0x3dbae01a	0.09124775
32	0xbb160a60	-0.0022894368
33	0xbd8ba7b8	-0.06819099
34	0xbdb4a2b6	-0.08820097
35	0x3d65fdd8	0.056150287
36	0xbdb22265	-0.086979665
37	0x3d784cbc	0.060620055
38	0xbcdf9150	-0.02729097
39	0xbd60af36	-0.054854594
40	0xbca9f440	-0.02074635
41	0xbdce7eef	-0.100828044
42	0x3dbf485c	0.09339973
43	0xbda88ad7	-0.082296066
44	0xbd8d17e5	-0.06889323
45	0xbd79466f	-0.060858186
46	0xbdc55c72	-0.09636773
47	0xbd5bd930	-0.053673923
48	0x3d38e84c	0.04514341
49	0xbd7716fd	-0.060324658
50	0xbd5e8a7e	-0.054331295
51	0x3dabd858	0.08390874
52	0x3d366404	0.044528976
53	0xbd4c49bb	-0.049875002
54	0xbd7db271	-0.061937753
55	0x3d73a9c0	0.059488058
56	0x3db6a5b8	0.08918327
57	0x3c0b7078	0.008510701
58	0xbcbe2f94	-0.023216046
59	0x3dc1494a	0.09437807
60	0xbdc266ea	-0.094922855
61	0x3d711e20	0.05886662
62	0xbdb160cf	-0.08661043
63	0xbb0fa0e0	-0.0021915957

actor.preprocess.model.model.2.weight f4 [64, 64]
0	0x3acf0980	0.0015795678
1	0x3dd503ac	0.10401091
2	0x3cea5f38	0.028609857
3	0xbcecab50	-0.028890282
4	0xbd1470d8	-0.03624043
5	0x3d8de8ec	0.06929192
6	0x3cca4f28	0.024695948
7	0x3c87f3f0	0.01659581
8	0xbcc69e10	-0.024245292
9	0x3d0c0e2c	0.034193203
10	0xbd51a6e0	-0.051184535
11	0xbdbe8988	-0.09303576
12	0xbdc65782	-0.096846595
13	0x3d69d0ec	0.05708401
14	0xbb85f500	-0.004088044
15	0xbd7029c0	-0.058633566
16	0xbdb6a890	-0.089188695
17	0xbdb5ed24	-0.088831216
18	0x3ca7b1a0	0.02047044
19	0x3d8f8528	0.070078194
20	0xbdfa2fb6	-0.122161314
21	0x3ddf6f5a	0.109099105
22	0x3daee034	0.08538857
23	0x3dcf4fd2	0.101226464
24	0xbd793c3c	-0.06084846
25	0x3dfb146e	0.12259756
26	0x3d4a1a50	0.0493415
27	0x3d916f92	0.071013585
28	0xbde0d0c2	-0.109773174
29	0xbc85d5e8	-0.01633735
30	0xbdfdd7a2	-0.12394644
31	0x3d0f3740	0.0349648
32	0x3d3380a0	0.04382384
33	0x3d877dd4	0.06615797
34	0x3de469a6	0.11152963
35	0x3d8d43b6	0.068976805
36	0x3df1a9f8	0.11799997
37	0xbd088fec	-0.03334038
38	0x3de84608	0.113414824
39	0x3d1ddbd0	0.038539708
40	0x3c9538e0	0.018215597
41	0x3db3e1e2	0.08783318
42	0x3daa4bd4	0.08315244
43	0x3ce77cb8	0.028257713
44	0x3cc91548	0.02454628
45	0x3c011ab0	0.007879898
46	0x3d8d1ae6	0.06889896
47	0x3dd14378	0.10217947
48	0xbdbba5fa	-0.09162517
49	0x3ab7d800	0.0014026165
50	0xbc023a00	-0.007948399
51	0x3db3ae46	0.087734744
52	0xbdf7ec4a	-0.121056154
53	0x3df39a40	0.11894655
54	0xbdd88a6a	-0.105732754
55	0xbd9ddd32	-0.07708205
56	0xbdb30c64	-0.08742598
57	0xbd089320	-0.033343434
58	0xbd90710e	-0.070528135
59	0x3d75a660	0.05997312
60	0xbcaf7248	-0.021416798
61	0xbc84ac58	-0.016195461
62	0x3dc24506	0.094858214
63	0x3d2d7db0	0.042356193
64	0xbd3fa5c0	-0.04678893
65	0x3cf45300	0.029824734
66	0xbd5919b4	-0.053003028
67	0x3dec3dfe	0.115352616
68	0x3da05b34	0.078298956
69	0xbdf1caae	-0.11806236
70	0xbdb9d296	-0.09073369
71	0x3cdb98d0	0.026806265
72	0x3dc11740	0.09428263
73	0x3db78a7c	0.08961961
74	0x3df7b560	0.120951414
75	0xbd9eabee	-0.07747637
76	0x3d8202a8	0.06348163
77	0x3dce5122	0.100740686
78	0x3bf92e20	0.0076043755
79	0xbd1350d4	-0.035965756
80	0x3df40708	0.119154036
81	0xbb9ec260	-0.0048449486
82	0x39dbea00	0.0004194528
83	0x3cc4c538	0.024019822
84	0x3dfa5582	0.122233406
85	0x3dddb0ba	0.108247235
86	0x3d763440	0.060108423
87	0xbda5fff4	-0.0810546
88	0x3d3f8ae0	0.0467633
89	0xbddbe03a	-0.10736127
90	0xbcba08b0	-0.02270922
91	0xbd0ce76c	-0.03440039
92	0xbc9b8378	-0.018983588
93	0xbda7220e	-0.08160792
94	0x3c9c12c8	0.019051924
95	0xbcb00c18	-0.021490142
96	0x3d5f9ad4	0.054591015
97	0x3d88c906	0.06678967
98	0xb9cf2200	-0.0003950745
99	0xbd5af2f4	-0.053454354
100	0x3d4c963c	0.049947962
101	0xbd8b46a8	-0.06800586
102	0xbdf5ca38	-0.12001461
103	0xbdeddd4e	-0.11614476
104	0x3d7d10b4	0.061783507
105	0xbc3a6d70	-0.011378631
106	0xbdc475ba	-0.09592767
107	0xbdbd3dec	-0.09240326
108	0x3dba58e8	0.09098989
109	0xbc8dd450	-0.017313153
110	0x3d811112	0.06302084
111	0x3dc46f96	0.09591596
112	0x3cc395c8	0.023875132
113	0x3de502c8	0.11182171
114	0xbc5882c0	-0.013214767
115	0x3d9e6a7c	0.07735154
116	0xbb8419a0	-0.004031375
117	0xbdee808e	-0.116456136
118	0xbd8c4004	-0.068481475
119	0x3d1b99c0	0.037988424
120	0x3d06fd08	0.032956153
121	0xbd66cb14	-0.056346014
122	0xbd642fd8	-0.05570969
123	0xbcf94e90	-0.03043297
124	0xbdb9457e	-0.09046458
125	0x3d161b24	0.036646977
126	0x3d2dee98	0.04246387
127	0xbb11f0c0	-0.0022268742
128	0xbd7568dc	-0.059914455
129	0xbddd934c	-0.1081911
130	0x3d9da4c2	0.07697441
131	0xbdfbef94	-0.12301555
132	0x3c54b980	0.01298368
133	0xbdfe5412	-0.12418379
134	0xbc8973d8	-0.016778871
135	0x3d856ad0	0.065145135
136	0xbc144f90	-0.009052172
137	0xbd80806c	-0.062744945
138	0xbb76e900	-0.00376755
139	0x3c60d970	0.013723716
140	0x3d988b4c	0.07448444
141	0xbd437ee0	-0.04772842
142	0x3de41ed0	0.111386895
143	0x3d82dac2	0.06389381
144	0xbce5e108	-0.028061405
145	0x3d29803c	0.04138206
146	0xbd3252d0	-0.043536007
147	0x3d193ae8	0.037409693
148	0xbde35962	-0.11101033
149	0xbdff8d8c	-0.1247817
150	0x3dce7886	0.10081582
151	0x3dc64f9a	0.096831515
152	0x3b7b9cc0	0.003839299
153	0xbd816488	-0.06318003
154	0xbcb86518	-0.022509143
155	0xbc8299b8	-0.01594244
156	0xbd3d586c	-0.046226904
157	0xbdfbc176	-0.12292759
158	0xbd629aa8	-0.055323273
159	0xbdae3d72	-0.085078135
160	0xbbdd2600	-0.0067489147
161	0x3d753e14	0.059873655
162	0xbdc25c04	-0.09490207
163	0x3d851ac4	0.06499246
164	0xbcce8c08	-0.025213256
165	0xbdf43056	-0.11923282
166	0xbd053a48	-0.032526284
167	0xbdf61e16	-0.12017457
168	0xbd8997a0	-0.06718373
169	0x3dfd14c4	0.12357476
170	0xbdfe1f5a	-0.124083236
171	0xbc262c00	-0.010142326
172	0xbd92e530	-0.0717262
173	0x3da0ae98	0.07845801
174	0xbdedf57c	-0.11619088
175	0x3da6361a	0.08115788
176	0xbdc2ddde	-0.09514974
177	0x3d672ea4	0.056440964
178	0xbde3cf96	-0.11123578
179	0x3c49b150	0.012310341
180	0x3da428e8	0.08015615
181	0xbdd75fa0	-0.10516286
182	0xbd5d5294	-0.05403383
183	0xbdf02994	-0.117266804
184	0x3df33c90	0.11876786
185	0x3ce1b2b8	0.02755104
186	0xbda89c1a	-0.08232899
187	0xbdaf69ca	-0.085650995
188	0x3cd5e7d8	0.026111528
189	0xbd66ddc8	-0.05636385
190	0xbdfcf4ec	-0.12351403
191	0xbd9815b4	-0.074260145
192	0x3dcb010e	0.099123105
193	0x3bf9bb00	0.007621169
194	0xbd402768	-0.04691258
195	0x3ddfa5d4	0.10920301
196	0x3b0b6100	0.0021267533
197	0x3dd77f18	0.10522288
198	0xbcd90170	-0.026489943
199	0x3d33d480	0.043903828
200	0xbdfedd16	-0.124445125
201	0xbcda5180	-0.02665019
202	0x3acbd080	0.0015549809
203	0xbb9febc0	-0.0048803985
204	0xbda22716	-0.07917611
205	0xbcf12e80	-0.029441118
206	0x3d5deeb0	0.05418271
207	0xbc9af7e8	-0.018917039
208	0xbc8f39d8	-0.017483637
209	0xbdbeb26c	-0.09311375
210	0x3df895ca	0.12137945
211	0x3c7ddfd0	0.015495256
212	0x3de7d9c8	0.11320835
213	0xbd8f243e	-0.069893345
214	0x3cdcd3f0	0.026956528
215	0xbc914d28	-0.017736986
216	0xbd0bd724	-0.03414072
217	0xbd6f6be8	-0.058452517
218	0xbc970890	-0.0184367
219	0x3d826726	0.0636733
220	0x3dae897a	0.08522315
221	0xbc01eee0	-0.007930487
222	0xbd96156e	-0.07328306
223	0x3d9f0b2e	0.07765804
224	0x3daee528	0.08539802
225	0x3d91da0a	0.07121666
226	0xbddfbc8c	-0.10924634
227	0xbda8f032	-0.082489386
228	0x3dc28a10	0.094989896
229	0x3c841610	0.016123801
230	0x3ce96088	0.028488412
231	0x3df1b7d0	0.118026376
232	0xbd15aab0	-0.036539733
233	0xbd1a9f90	-0.037749827
234	0x3c8fecd0	0.017568976
235	0xbd4ee8d4	-0.05051501
236	0x3ccc46c8	0.024936095
237	0x3d88b04a	0.066742495
238	0x3dfe214e	0.12408696
239	0x3c3746e0	0.0111863315
240	0xbc847640	-0.016169667
241	0xbd1db260	-0.03850019
242	0x3c7356a0	0.014852196
243	0xbd86473a	-0.06556554
244	0x3bc49100	0.0059987307
245	0xbd138e9c	-0.036024675
246	0x3d0d3e3c	0.03448318
247	0x3dd7957a	0.10526557
248	0x3cebd3e8	0.028787568
249	0x3d6fcdd0	0.058545887
250	0xbc9243f0	-0.01785466
251	0xbbfe83a0	-0.0077671558
252	0xbc3e84b0	-0.011628315
253	0xbc50a200	-0.012733936
254	0x3df4d8a0	0.119553804
255	0xbdef8122	-0.11694552

actor.preprocess.model.model.2.bias f4 [64]
0	0x3ddfb132	0.10922469
1	0x3de28b98	0.11061782
2	0x3bb8ec20	0.0056433827
3	0xbd11cd98	-0.03559646
4	0x3df52472	0.11969842
5	0x3d253b6c	0.040339872
6	0x3dbc7994	0.09202877
7	0xbd55a3d8	-0.052158207
8	0xbd6aba9c	-0.05730687
9	0x3def96dc	0.11698696
10	0x3dca79da	0.098865226
11	0xbd967990	-0.07347405
12	0x3df7272c	0.12068018
13	0x3ca9c8b8	0.020725593
14	0xbc817450	-0.015802532
15	0xbcef6aa8	-0.029225662
16	0xbccce298	-0.025010392
17	0x3c44fbc0	0.0120229125
18	0x3dc616b0	0.09672296
19	0xbd848e92	-0.06472506
20	0x3dd3e294	0.10345951
21	0xbd8f163e	-0.06986664
22	0xbcc1b740	-0.02364695
23	0x3bb291c0	0.0054495037
24	0xbdf3510c	-0.11880693
25	0x3dd0c55a	0.10193892
26	0x3c4261a0	0.011864096
27	0x3def2f32	0.11678924
28	0x3df69416	0.12039964
29	0x3d16136c	0.036639616
30	0x3dc87ed0	0.097898126
31	0xbde994fc	-0.1140537
32	0xbb6871c0	-0.003546819
33	0x3dbe7a26	0.09300642
34	0xbdf33f92	-0.118773594
35	0x3dbad6d2	0.09123005
36	0xbdcd2ba2	-0.10018088
37	0xbd9a35fe	-0.075298294
38	0x3d4913b0	0.04909104
39	0xbbec4760	-0.007210657
40	0xbd05a7dc	-0.032630786
41	0x3d49f27c	0.049303517
42	0xbd70fa3c	-0.058832392
43	0xbdf35dfa	-0.11883159
44	0x3d29cd34	0.041455463
45	0xbc135900	-0.008993387
46	0xbddf199c	-0.108935565
47	0x3dc3167c	0.09525773
48	0xbd96d36a	-0.07364543
49	0xbd8bfdc6	-0.06835513
50	0xbd4b0994	-0.04956968
51	0x3d890554	0.066904694
52	0x3cb1f398	0.0217226
53	0x3dbc8e98	0.09206885
54	0xbd4f6e4c	-0.050642297
55	0x3cb05e50	0.021529347
56	0xbdac3f30	-0.084104896
57	0x3d563258	0.052294105
58	0xbdcf3cb4	-0.10119
59	0x3dac8e70	0.08425605
60	0xbd9f1cb2	-0.07769145
61	0x3c6b3250	0.014355257
62	0xbd819d36	-0.06328814
63	0xbcffaf58	-0.03121154

actor.last.model.0.weight f4 [3327, 64]
0	0x3d59bc4c	0.05315809
1	0xbd82971e	-0.063764796
2	0xbd16ed10	-0.036847174
3	0xbc6faca0	-0.014628559
4	0xbcf55c28	-0.02995117
5	0xbdf3e670	-0.11909187
6	0x3ddddc66	0.10833053
7	0x3d140a28	0.0361425
8	0xbca538a8	-0.020168617
9	0xbc6f3ae0	-0.014601439
10	0xbd0b7bd8	-0.034053653
11	0x3d7643f0	0.060123384
12	0xbd2bb214	-0.041917875
13	0xbc833348	-0.016015664
14	0xbda09db6	-0.07842581
15	0x3ba91940	0.0051604807
16	0xbde1da40	-0.11027956
17	0x3d3c238c	0.045932338
18	0x3dcd80d8	0.100343406
19	0x3be54aa0	0.0069974214
20	0xbddf1a38	-0.10893673
21	0xbc40f0a0	-0.0117761195
22	0x3d436194	0.04770048
23	0x3dcac6b0	0.09901178
24	0xbd13d544	-0.036092058
25	0xbc8579b0	-0.016293377
26	0x3da521a2	0.080630556
27	0xbd9faa20	-0.07796121
28	0x3d8bd1c0	0.06827116
29	0x3dd5fdf0	0.10448825
30	0xbbe8e9a0	-0.0071079284
31	0x3b534980	0.0032239854
32	0xbdc8d332	-0.09805907
33	0xbd774f7c	-0.060378537
34	0xbc177b20	-0.009245664
35	0x3cc891a0	0.024483502
36	0x3d89c1e8	0.06726438
37	0x3da71a64	0.081593305
38	0x3adf8700	0.0017053783
39	0xbd992420	-0.074775934
40	0xbd092718	-0.03348455
41	0xbd8d39de	-0.06895803
42	0xbdf09c0a	-0.11748512
43	0xbc637d20	-0.013884813
44	0x3dfb18a8	0.12260562
45	0x3d267618	0.040639967
46	0x3d7e8010	0.06213385
47	0xbde1b5d8	-0.11021012
48	0xbdc4081e	-0.09571861
49	0xbdc79f24	-0.097471505
50	0xbd0916d8	-0.03346905
51	0x3d006f6c	0.03135626
52	0xbde1e63a	-0.1103024
53	0xbd967170	-0.07345855
54	0x3cdc7430	0.026910871
55	0x3c78caa0	0.015185028
56	0xbccb98c0	-0.02485311
57	0x3d8fb59c	0.07017061
58	0xbcec2908	-0.028828159
59	0xbdf534f0	-0.11972988
60	0xbcc536e8	-0.024074033
61	0x3d8bd2da	0.06827326
62	0x3db17534	0.08664933
63	0xbdeda540	-0.116037846
64	0x3ded07fe	0.1157379
65	0xbda264f2	-0.0792941
66	0xbc8aba68	-0.016934589
67	0xbd930ba6	-0.07179956
68	0x3b99d2a0	0.004694298
69	0xbd2f1324	-0.042742863
70	0x3df83c48	0.12120873
71	0x3bab14a0	0.0052209646
72	0xbb0a9a80	-0.0021149218
73	0xbd753b08	-0.05987075
74	0xbd7d12fc	-0.061785683
75	0x3c7d3ee0	0.015456885
76	0xbb0e81c0	-0.0021744817
77	0xbd8b5938	-0.068041265
78	0xbde3a8cc	-0.1111618
79	0x3de7d21c	0.11319372
80	0xbc820ec0	-0.015876174
81	0x3d26250c	0.040562674
82	0xbc964f58	-0.01834838
83	0xbddb34ea	-0.10703452
84	0x3ba8fce0	0.005157098
85	0x3d872a02	0.06599809
86	0x3d067b7c	0.032832608
87	0xbd05fc30	-0.032711208
88	0xba538c00	-0.0008069873
89	0x3c7ba070	0.0153580755
90	0x3cdce608	0.026965156
91	0x3d029138	0.031876773
92	0x3dc8062e	0.09766804
93	0xbdc1b92c	-0.09459147
94	0x3d74acb8	0.05973503
95	0xbd48c158	-0.049012512
96	0xbd7e7f00	-0.062132835
97	0xbdb34e62	-0.08755185
98	0xbde1ef16	-0.1103193
99	0xbd0b05f4	-0.033941224
100	0x3dcad3d0	0.09903681
101	0x3cbd3510	0.023096591
102	0x3cb04750	0.02151838
103	0x3d5412e0	0.051775813
104	0xbd8e434a	-0.06946428
105	0x3c042730	0.008065984
106	0xbcc632c0	-0.024194121
107	0xbcecc460	-0.028902233
108	0xbd1799c0	-0.03701186
109	0xbd68757c	-0.056752667
110	0xbdf99362	-0.12186314
111	0xbd454e08	-0.04817012
112	0x3d018cc4	0.031628385
113	0x3df13918	0.11778468
114	0xbba2c560	-0.0049673766
115	0x3dace1a0	0.08441472
116	0x3c6018c0	0.013677776
117	0x3d8b18dc	0.06791851
118	0x3db5a48c	0.088692755
119	0x3ce0d408	0.027444854
120	0xbd8897f6	-0.06669609
121	0x3d7d7d3c	0.06188701
122	0xbd638400	-0.055545807
123	0x3df0a89a	0.11750908
124	0xbdf94ed6	-0.1217324
125	0x3dd49b28	0.10381156
126	0x3dfff3c0	0.124976635
127	0x3b21ab40	0.0024668723
128	0xbdad4862	-0.084610716
129	0xbcdca580	-0.026934385
130	0x3a919780	0.0011107773
131	0xbdc6dd52	-0.09710182
132	0x3bdfbba0	0.0068277866
133	0x3d036074	0.032074407
134	0x3dab8a12	0.08375944
135	0x3ddbfd24	0.10741642
136	0x3de85820	0.113449335
137	0x3dd83122	0.10556246
138	0x3c022590	0.007943526
139	0xbb403a40	-0.0029331595
140	0x3bc11b20	0.005893126
141	0x3c1a5520	0.009419709
142	0xbdef8b7a	-0.11696525
143	0xbd3302a8	-0.043703705
144	0x3d800dc4	0.062526256
145	0x3de70392	0.11279978
146	0xbd397530	-0.045277774
147	0x3da4f956	0.080553696
148	0x3c77e610	0.015130535
149	0xbd8503de	-0.06494878
150	0x3dadd126	0.084871575
151	0x3dba9a32	0.09111442
152	0xbda8070a	-0.082044676
153	0x3b64fac0	0.0034939498
154	0xbde2f370	-0.11081588
155	0xbd3070c0	-0.043076277
156	0xbce85e48	-0.02836527
157	0x3d241018	0.04005441
158	0x3d99efe4	0.07516459
159	0x3df4d6a2	0.119550005
160	0xbca16c88	-0.019705072
161	0xbdd70672	-0.10499276
162	0xbddb9cc6	-0.107232615
163	0x3d939552	0.07206215
164	0x3d6dbf88	0.058043987
165	0xbd92a1fc	-0.07159802
166	0xbc9fbc60	-0.019499004
167	0xbc812ad8	-0.0157675
168	0x3d9e2204	0.07721332
169	0xbdfc8524	-0.12330082
170	0x3d9e2702	0.07722284
171	0x3b765680	0.003758818
172	0xbb295880	-0.0025840104
173	0x3d0303b8	0.03198597
174	0xbdc6108c	-0.09671125
175	0x3da346d2	0.07972492
176	0x3df2bbde	0.11852239
177	0xbd8acad4	-0.06776968
178	0xbbca3a00	-0.006171465
179	0xbd3472d0	-0.044054806
180	0x3deeae72	0.116543666
181	0x3ddfa6c0	0.10920477
182	0xbcf11580	-0.029429197
183	0x3b957860	0.004561469
184	0x3dd1c56a	0.10242732
185	0xbc5f7370	-0.013638362
186	0xbd705054	-0.058670357
187	0x3d398e20	0.045301557
188	0xbdac8a5c	-0.084248275
189	0x3d90d146	0.07071166
190	0xbd77e438	-0.06052038
191	0xbc2049c0	-0.009783208
192	0x3c483e70	0.0122219175
193	0xbcaf6a30	-0.021412939
194	0xbd49ff2c	-0.049315616
195	0x3dffbfd0	0.12487757
196	0x3db93706	0.09043698
197	0x3d84e73a	0.064894155
198	0xbd2fd7a4	-0.04293026
199	0x3df39116	0.11892907
200	0x3db73e50	0.08947432
201	0x3d8e3678	0.06943983
202	0x3d92bbec	0.071647495
203	0x3c1b13d0	0.009465173
204	0x3d267730	0.04064101
205	0xbd765660	-0.060140967
206	0xbd85d1ee	-0.065341815
207	0x3de59706	0.11210446
208	0x3c4e1cb0	0.012580082
209	0xbdc0d8d6	-0.09416358
210	0xbde3bc8a	-0.11119945
211	0x3d7d1f74	0.061797574
212	0xbd0a95c4	-0.033834234
213	0xbdaaefce	-0.0834652
214	0xbdc98310	-0.09839451
215	0xbd9fd0a4	-0.07803467
216	0x3db14ba2	0.08657004
217	0xbb46e340	-0.0030347854
218	0xbd478860	-0.04871404
219	0x3c4fea70	0.012690172
220	0x3db7a8f8	0.08967775
221	0xbc5439a0	-0.012953192
222	0xbd9f60c2	-0.07782127
223	0xbd9af3e4	-0.0756605
224	0xbd5f3278	-0.05449149
225	0x3db33a00	0.08751297
226	0x3da5a004	0.08087161
227	0xbd9d29ca	-0.07673986
228	0x3ce10108	0.027466312
229	0x3dc048b6	0.093888685
230	0xbdca460a	-0.0987664
231	0x3dccd322	0.10001208
232	0xbd584fd8	-0.05281052
233	0xbc46be60	-0.01213035
234	0xbd048ff8	-0.03236386
235	0x3ddeef48	0.10885483
236	0x3ba35060	0.0049839467
237	0x3dcfcee2	0.10146882
238	0xbd7ee260	-0.062227607
239	0x3cf9f8d0	0.03051415
240	0xbc1a8a60	-0.009432405
241	0xbddeb5d8	-0.10874528
242	0xbc4bd450	-0.012440756
243	0x3c216e40	0.009852946
244	0xbd70a654	-0.058752373
245	0xbd5c5a28	-0.053796917
246	0x3c94e160	0.018173873
247	0xbd4f1880	-0.050560474
248	0xbc514bb0	-0.012774393
249	0x3d96fb2c	0.07372126
250	0xbce29848	-0.027660504
251	0xbbbe31e0	-0.0058042854
252	0x3cf0e5c8	0.029406443
253	0x3d988f70	0.074492335
254	0xbdd7a224	-0.10528973
255	0x3cee2020	0.029068053

actor.last.model.0.bias f4 [3327]
0	0x3dd204ec	0.10254845
1	0x3d9f82e2	0.07788636
2	0xbd8bae76	-0.06820385
3	0xbde6df76	-0.112730905
4	0xbccdd398	-0.02512531
5	0xbcdb4c08	-0.026769653
6	0x3d2a4398	0.04156837
7	0xbd2a76e0	-0.041617274
8	0xbcb1e9b0	-0.021717876
9	0x3d867240	0.0656476
10	0x3cadc1e0	0.02121061
11	0xbda38926	-0.07985143
12	0xbd220904	-0.03955938
13	0x3d756e9c	0.05991994
14	0xbdd91cb2	-0.10601176
15	0x3dd95d1a	0.10613461
16	0xbda8902a	-0.08230622
17	0xbb852380	-0.00406307
18	0x3dbe9fe6	0.09307842
19	0xbcac6678	-0.021044955
20	0x3d402ed0	0.046919644
21	0xbdb079b4	-0.08616963
22	0xbdc3e6c8	-0.095655024
23	0xbdb87fa4	-0.090087205
24	0xbcc359b0	-0.023846477
25	0x3dcf58b6	0.10124342
26	0x3d349430	0.044086635
27	0x3da91796	0.08256452
28	0x3b863940	0.00409618
29	0x3dbc43cc	0.09192619
30	0x3d5d0f34	0.053969577
31	0xbddeb25c	-0.10873863
32	0xbbd23240	-0.0064146817
33	0x3c42e490	0.011895314
34	0x3d34a1e0	0.04409969
35	0x3da57288	0.08078486
36	0x3db1c65a	0.08680411
37	0x3d030138	0.031983584
38	0x3cd06d68	0.025442794
39	0xbd70bb00	-0.058772087
40	0xbd548314	-0.05188282
41	0x3dd9c036	0.106323645
42	0x3df9f33e	0.12204598
43	0xbd1f10bc	-0.03883432
44	0xbd935b98	-0.071952045
45	0xbdbbe468	-0.091744244
46	0xbd55a764	-0.05216159
47	0x3d4186a8	0.04724756
48	0xbd896366	-0.06708412
49	0x3dec3564	0.11533621
50	0x3db8e492	0.09027971
51	0x3dc995bc	0.09843013
52	0x3dfe73fc	0.12424466
53	0x3bd23700	0.006415248
54	0x3dad9082	0.08474828
55	0x3c87c060	0.016571224
56	0x3d89663e	0.06708954
57	0x3d169fd8	0.036773533
58	0x3cf56678	0.029956087
59	0x3cb38c90	0.021917611
60	0x3d7400c4	0.059571043
61	0x3d350c30	0.044201076
62	0x3d038ffc	0.032119736
63	0x3b510580	0.0031894147
64	0xbd9f1c18	-0.0776903
65	0xbcc17c28	-0.023618773
66	0xbb199540	-0.0023434907
67	0xbd8b8da2	-0.06814124
68	0xbbf0a720	-0.0073441416
69	0x3db57d72	0.088618174
70	0xbd9994ea	-0.07499106
71	0x3dd0e74a	0.10200365
72	0x3dd401f2	0.103519335
73	0x3dcbac7e	0.0994501
74	0x3d1a44a4	0.037663117
75	0x3d5e7a94	0.05431612
76	0xbd8e7526	-0.06955938
77	0xbd974cc6	-0.0738769
78	0x3d99082a	0.0747226
79	0xbbe45640	-0.0069682896
80	0x3c8b3a78	0.016995654
81	0x3de41016	0.11135881
82	0x3d7e2060	0.062042594
83	0xbbea03a0	-0.0071415454
84	0xbd2f6ee8	-0.042830378
85	0xbda28674	-0.07935801
86	0xbb339e80	-0.0027407706
87	0xbca87fd8	-0.020568773
88	0x3cc8a428	0.024492338
89	0xbb388940	-0.002815798
90	0x3dfe5a92	0.12419619
91	0x3dd8b68e	0.105816945
92	0xbb1d23c0	-0.0023977607
93	0x3d5820c8	0.052765638
94	0x3d9190a4	0.07107666
95	0xbdf6cb46	-0.1205049
96	0xbddb49e6	-0.107074544
97	0xbda3af38	-0.07992405
98	0xbdf563ea	-0.11981948
99	0x3d179654	0.0370086
100	0xbcc8e7d0	-0.0245246
101	0x3dc97636	0.09837
102	0x3de0eb66	0.10982399
103	0xbdf3d962	-0.11906697
104	0x3debe7d0	0.11518824
105	0x3dadb33e	0.08481453
106	0x3deff29e	0.117161974
107	0xbdf28766	-0.118422315
108	0xbd8e360c	-0.069439024
109	0x3de5fad0	0.11229479
110	0xbd10e310	-0.035372794
111	0x3dd6c11a	0.1048605
112	0xbdd2586c	-0.102707714
113	0xbc91dfd8	-0.017806932
114	0x3ce96ae8	0.02849336
115	0xbdcb632e	-0.099310264
116	0xbd44b4a4	-0.048023835
117	0x3dee6118	0.11639613
118	0xbdbe489e	-0.092911944
119	0xbc327f10	-0.010894552
120	0xbd15c18c	-0.036561534
121	0x3de953f6	0.113929674
122	0x3bb2d3c0	0.0054573715
123	0xbd1679d8	-0.036737293
124	0x3d1e7170	0.0386824
125	0x3dc2147a	0.09476562
126	0xbdb16f88	-0.08663851
127	0x3d839910	0.06425679
128	0xb9e12600	-0.00042943656
129	0xbd46b670	-0.04851383
130	0xbdb07e4c	-0.08617839
131	0xbdd7d444	-0.10538533
132	0xbd1598bc	-0.036522612
133	0xbcd97538	-0.026545152
134	0xbdf733c0	-0.120704174
135	0x3ddcb72a	0.10777123
136	0x3d2da038	0.042389125
137	0x3d06bc68	0.032894522
138	0xbdb8878a	-0.09010227
139	0xbc854df8	-0.01627253
140	0xbdded122	-0.10879733
141	0x3d37d49c	0.044880494
142	0x3bce93e0	0.006304249
143	0xbdfbc584	-0.122935325
144	0xbdc95d2a	-0.09832223
145	0x3d5ef8cc	0.05443649
146	0x3da7a70c	0.081861585
147	0xbdf83114	-0.12118736
148	0xbdfd8e5c	-0.123806685
149	0xbdb2e9be	-0.08735989
150	0x3bf6fc60	0.0075374097
151	0x3c5043d0	0.01271148
152	0xbdcd152c	-0.10013804
153	0x3dd2a814	0.102859646
154	0x3cdfc1e0	0.027314126
155	0xbdba3ea4	-0.09093979
156	0xbd8abf20	-0.067747355
157	0x3df68b1c	0.12038252
158	0xbcae9338	-0.021310434
159	0xbca22bc0	-0.019796252
160	0x3c2590e0	0.010105342
161	0x3d96d3c0	0.07364607
162	0x3c5bd800	0.013418198
163	0xbd7bf54c	-0.06151323
164	0xbdf773fa	-0.12082668
165	0xbd9c0820	-0.07618737
166	0xbde6af68	-0.11263925
167	0x3d4fc1e4	0.050722018
168	0xbd9cbdda	-0.07653399
169	0x3db12882	0.086503044
170	0xbd8a98ce	-0.067674264
171	0xbd0f4310	-0.034976065
172	0x3dfee8ba	0.12446733
173	0xbde250ac	-0.11050543
174	0x3cc68760	0.024234474
175	0xbda74934	-0.08168259
176	0x3da3c074	0.07995692
177	0xbdbf4e74	-0.093411356
178	0xbd5da214	-0.054109648
179	0xbdd3a5e4	-0.103343755
180	0xbd36cdcc	-0.044629857
181	0x3dded7a8	0.10880977
182	0x3decbb50	0.115591645
183	0xbd746d74	-0.059674695
184	0x3df1ad30	0.11800611
185	0x3c00f640	0.007871211
186	0xbbc43360	-0.0059875697
187	0xbda3d5e4	-0.07999781
188	0xbce6c078	-0.028167948
189	0xbd56ea5c	-0.052469596
190	0x3c0f7ab0	0.008757278
191	0xbdcecbf2	-0.10097493
192	0xbdd50df6	-0.104030535
193	0x3dc7b106	0.097505614
194	0x3dd55b38	0.10417789
195	0xbc8d7220	-0.017266333
196	0x3d59ed7c	0.053205
197	0xbdd1de92	-0.1024753
198	0x3d479854	0.048729256
199	0xbdcdef74	-0.10055438
200	0xbc07ad80	-0.008281112
201	0xbdfabb26	-0.12242727
202	0x3d8ce152	0.06878914
203	0xbdca7e48	-0.098873675
204	0x3afc0280	0.0019226819
205	0x3ca652b8	0.020303115
206	0xbbda2f80	-0.0066584945
207	0x3da19748	0.07890183
208	0xbdd47544	-0.10373929
209	0xbdb14eea	-0.0865763
210	0xbdf0cd06	-0.11757855
211	0xbdea400a	-0.11437996
212	0x3d52b36c	0.05144064
213	0x3dbba9e2	0.09163262
214	0x3d5e3304	0.05424787
215	0x3be44aa0	0.006966904
216	0x3de79bd2	0.11309017
217	0x3d8d78e4	0.06907824
218	0xbda1b634	-0.078960806
219	0x3d30cc00	0.0431633
220	0xbc343710	-0.010999456
221	0xbd8108de	-0.063005194
222	0xbd9eda3c	-0.07756469
223	0x3d84d562	0.06486012
224	0x3ca5fad0	0.020261198
225	0xbdd21b74	-0.102591425
226	0xbd0f0ae4	-0.034922495
227	0xbd4e5b4c	-0.050380036
228	0xba0ccf00	-0.00053714216
229	0x3da14ad8	0.078756034
230	0x3d902140	0.07037592
231	0x3c17e9e0	0.009272069
232	0xbc6ce240	-0.014458239
233	0x3debb816	0.11509721
234	0x3df6ec8e	0.12056838
235	0x3d8a974e	0.0676714
236	0x3d43efe4	0.0478362
237	0xbdf90516	-0.12159173
238	0x3d852606	0.06501393
239	0x3d5f8e1c	0.054578885
240	0x3d703b2c	0.05865018
241	0x3de619d4	0.11235395
242	0xbb88f9c0	-0.004180163
243	0xbdbddd34	-0.09270707
244	0xbd8e26e0	-0.069410086
245	0x3d62d9f0	0.055383623
246	0xbc98e510	-0.018663913
247	0xbd95aa90	-0.07307923
248	0xbcb6a1e8	-0.022294
249	0xbcaf6128	-0.021408632
250	0xbd757718	-0.05992803
251	0x3d2fdef0	0.04293722
252	0xbdaa122a	-0.08304246
253	0x3dcd1b42	0.10014965
254	0xbcc7dd00	-0.024397373
255	0xbdb6d972	-0.08928193

critic.preprocess.model.model.0.weight f4 [64, 97]
0	0xbd929d02	-0.07158853
1	0x3da6605a	0.08123846
2	0xbda9696c	-0.08272061
3	0x3db28cf4	0.08718291
4	0xbd30b8c1	-0.043144945
5	0xbdaef752	-0.08543266
6	0x3d999b64	0.075003415
7	0xbc04a928	-0.008096971
8	0x3c2c2740	0.010507405
9	0xbdb004b2	-0.085946456
10	0x3ce57f38	0.028014764
11	0xbd88bdcb	-0.06676825
12	0xbcfe05ac	-0.031008564
13	0xbd83d6de	-0.06437467
14	0xbbbe2a10	-0.005803354
15	0x3da17b2a	0.0788482
16	0xbcdbd044	-0.026832707
17	0xbdaee481	-0.085396774
18	0x3d7d56b0	0.06185025
19	0x3caa8c08	0.020818725
20	0xbd2c78c0	-0.042107344
21	0xbdbf91d0	-0.093539834
22	0xbd6ed756	-0.05831083
23	0xbdae5252	-0.08511795
24	0xbd6e664a	-0.05820302
25	0xbc4b4f38	-0.012409024
26	0xbd8cd1a0	-0.0687592
27	0x3d0718e0	0.032982707
28	0xbd9c3134	-0.07626572
29	0x3d9cdbe6	0.0765913
30	0xbd91d38c	-0.071204275
31	0x3c13b418	0.009015106
32	0xbd1be79c	-0.038062677
33	0xba002b00	-0.000488922
34	0xbcefdfd0	-0.029281527
35	0xbc6d8bf0	-0.014498696
36	0xbd9845ec	-0.074352115
37	0xbbef9d40	-0.007312447
38	0x3dadf716	0.084943935
39	0xbd4781f2	-0.04870791
40	0xbd8fb7c8	-0.07017475
41	0x3d2f8308	0.04284957
42	0x3d9fc9d2	0.07802166
43	0xbd35a78b	-0.044349235
44	0xbd00183e	-0.03127312
45	0xbd7b5fbe	-0.061370604
46	0x3b9ddd80	0.0048176646
47	0x3d8d0abc	0.06886813
48	0x3d892b04	0.06697658
49	0xbd9c2e30	-0.07625997
50	0xbda996ec	-0.08280739
51	0xbcf51ed4	-0.029921927
52	0x3c9b4f3c	0.01895868
53	0x3c4aeb70	0.012385234
54	0xbca58d90	-0.020209104
55	0xbc9c90c4	-0.019111998
56	0xbd8be444	-0.068306476
57	0xbcfda184	-0.030960806
58	0xbda091b8	-0.07840294
59	0xbd183534	-0.037160113
60	0xbd94eede	-0.07272123
61	0x3c462d98	0.012095831
62	0x3d585488	0.05281499
63	0xbda10fc3	-0.078643344
64	0x3d8dfe12	0.06933226
65	0x3cc01ea8	0.023452118
66	0xbdc3fcc3	-0.09569695
67	0x3c691840	0.014226973
68	0x3ce60bb8	0.02808176
69	0xbdbbcde1	-0.09170128
70	0xbda50902	-0.08058359
71	0x3da54b08	0.08070952
72	0x3dc21992	0.094775334
73	0xbd88b076	-0.06674282
74	0xbd93b92f	-0.07213055
75	0x3ccd3650	0.025050312
76	0xbd8c302a	-0.06845124
77	0xbca90264	-0.020631023
78	0xbd18b154	-0.03727849
79	0xbd6fea31	-0.05857295
80	0x3d86496a	0.06556971
81	0x3dabd940	0.083910465
82	0x3d52dc20	0.05147946
83	0x3d9e4d34	0.07729569
84	0xbd65d197	-0.056108084
85	0xbd974caf	-0.07387673
86	0x3c87cb40	0.01657641
87	0xbd9d1f26	-0.07671957
88	0xba93abc0	-0.0011266395
89	0x3d7b9668	0.061422735
90	0xbdae5837	-0.085129194
91	0x3d607b18	0.05480489
92	0x3d20bcd4	0.03924258
93	0xbd814162	-0.06311299
94	0xbdbe41e2	-0.0928991
95	0x3d359e48	0.044340402
96	0x3d97473e	0.07386635
97	0x3d1f49fc	0.038888916
98	0x3daefab2	0.0854391
99	0xbd81d12d	-0.06338725
100	0xbd8081e4	-0.06274775
101	0xbda051f3	-0.078281306
102	0x3c9f1a54	0.019421734
103	0x3d05ddec	0.032682344
104	0xbda98966	-0.0827816
105	0x3db5c784	0.08875945
106	0xbda59380	-0.08084774
107	0x3daffe20	0.08593392
108	0xbd5c6467	-0.05380669
109	0x3da24b6c	0.07924542
110	0xbd9e6332	-0.07733764
111	0x3d8b2344	0.06793836
112	0x3ccfdd18	0.02537398
113	0xbdc4739f	-0.095923655
114	0xbcac2b3c	-0.02101671
115	0x3ccbcb00	0.024877071
116	0x3dae15ee	0.085002765
117	0xbd3513a8	-0.0442082
118	0x3db9bc34	0.090691
119	0x3db4c7e6	0.0882719
120	0xbd0265fc	-0.03183554
121	0xbd472eda	-0.048628666
122	0x3ca94cd8	0.020666525
123	0xbd6415ef	-0.05568498
124	0xbd1e2d5e	-0.038617484
125	0x3d1ab610	0.037771285
126	0x3c9f3d5c	0.019438438
127	0xbd1e6f9a	-0.03868065
128	0xbda73e76	-0.0816621
129	0x3d747760	0.059684157
130	0xbdaeb769	-0.085310765
131	0x3ca9d684	0.020732172
132	0xbd27f9da	-0.04100976
133	0xbdac2958	-0.08406323
134	0x3b8f10a0	0.0043659955
135	0x3d94ac02	0.072593704
136	0xbb834350	-0.004005827
137	0x3dc8a75a	0.09797545
138	0x3bac12b0	0.005251251
139	0x3d810dd2	0.06301464
140	0xbc83d0c8	-0.016090766
141	0xbda706ae	-0.08155571
142	0x3d46d120	0.04853928
143	0xbd609d09	-0.05483726
144	0xbd81317c	-0.063082665
145	0xbd924b82	-0.07143308
146	0x3d9a8156	0.075442
147	0x3db7994a	0.089647844
148	0x3b9c0960	0.00476186
149	0x3d4dd894	0.050255373
150	0x3d5006fc	0.05078791
151	0xbdce366a	-0.100689724
152	0xbb38a360	-0.002817355
153	0x3dc97ebc	0.09838626
154	0xbd9531d4	-0.072848946
155	0x3b8c22c0	0.0042766035
156	0xbd27e394	-0.04098852
157	0x3bd73d50	0.0065685883
158	0xbdb21a55	-0.08696429
159	0xbda4d2e5	-0.080480374
160	0xbd8518a7	-0.06498843
161	0x3d042410	0.032260954
162	0x3c835ca4	0.016035385
163	0xbd8a43a0	-0.0675118
164	0x3c6c51c8	0.014423795
165	0x3d3d10fc	0.046158776
166	0x3b8c48e0	0.0042811483
167	0xbdc34f3f	-0.09536599
168	0x3ce61468	0.028085902
169	0xbdbe2522	-0.09284426
170	0xbd6a5454	-0.057209328
171	0xbdae8625	-0.0852168
172	0x3dbb4e6e	0.09145819
173	0xbc455820	-0.012044936
174	0x3d19e958	0.03757605
175	0xbd13e17c	-0.03610371
176	0xbd27a838	-0.04093191
177	0x3d009708	0.031394035
178	0x3d6977f8	0.056999177
179	0xbd811c6b	-0.063042484
180	0xbd0fb8f0	-0.03508848
181	0x3d6c958c	0.057759807
182	0x3d96b4ac	0.07358679
183	0xbc251cb8	-0.010077648
184	0x3dbc191a	0.09184475
185	0xbd3fd78c	-0.04683642
186	0xbc09a428	-0.008400954
187	0xbd4482d0	-0.047976315
188	0xbdc46339	-0.09589238
189	0xbcff279c	-0.031146817
190	0x3dcf2548	0.10114533
191	0xbd92f5f7	-0.0717582
192	0xbb847fb0	-0.004043542
193	0xbcee99f4	-0.029126145
194	0x3d2740a8	0.040833145
195	0xbdbbf893	-0.09178271
196	0xbdcf2112	-0.101137295
197	0xbd1c898c	-0.038217112
198	0xbd98b995	-0.07457272
199	0xbb5ed200	-0.0033999681
200	0x3bd8fdd0	0.0066220537
201	0xbc16a240	-0.009193957
202	0xbc8bdfbc	-0.017074458
203	0xbc3a4e78	-0.0113712475
204	0x3ca4e010	0.020126373
205	0x3dbbe42a	0.09174378
206	0x3cd5caa8	0.02609761
207	0xbd62e1e4	-0.055391207
208	0x3d81055c	0.0629985
209	0xbd91b380	-0.07114315
210	0xbdb79102	-0.08963205
211	0x3d9594ec	0.07303795
212	0xbd44b3aa	-0.048022904
213	0xbc90ef30	-0.017692178
214	0x3d43ccfc	0.04780291
215	0xbcdbdde4	-0.026839204
216	0xbca054b0	-0.019571632
217	0x3db54a24	0.08852032
218	0xbd808f52	-0.06277336
219	0xbdabb436	-0.08383982
220	0xbd31af79	-0.043380234
221	0xbda8b0dd	-0.08236859
222	0xbce12b00	-0.027486324
223	0x3dcdc3ea	0.10047133
224	0xbda2fa93	-0.079579495
225	0xbd107860	-0.03527105
226	0x3db2e8b6	0.08735792
227	0xbdab7fee	-0.0837401
228	0x3da1f0b0	0.079072356
229	0x3c1fc060	0.009750456
230	0xbb981110	-0.004640706
231	0x3c93a484	0.018022783
232	0xbdad926a	-0.08475192
233	0x3d380ae4	0.04493226
234	0xbd72ade9	-0.059247885
235	0xbc437340	-0.011929333
236	0xbd5027e5	-0.050819296
237	0x3c6d52e0	0.014485091
238	0x3d170190	0.036866724
239	0x3d5f79b4	0.054559425
240	0xbc50b078	-0.012737386
241	0x3d3faf20	0.04679787
242	0x3d847112	0.06466879
243	0x3ce20000	0.02758789
244	0x3d9e251c	0.07721922
245	0xbdce6c4f	-0.10079252
246	0xbd8e42dd	-0.06946347
247	0x3dafa316	0.08576028
248	0x3db90122	0.09033419
249	0xbd8d282f	-0.0689243
250	0x3d2cdca4	0.042202607
251	0x3d95bc46	0.07311301
252	0x3ccd9388	0.025094762
253	0x3d45eb64	0.04832019
254	0x3d45c390	0.048282206
255	0x3c5115d8	0.012761556

critic.preprocess.model.model.0.bias f4 [64]
0	0xbc53c360	-0.012924999
1	0xbcb94c5c	-0.022619419
2	0xbd14c6aa	-0.036322273
3	0xbda2a201	-0.07941056
4	0xbd3f662f	-0.04672831
5	0x3dac597c	0.08415505
6	0x3db0791a	0.08616848
7	0x3db84ef8	0.08999437
8	0xbdb7302d	-0.08944736
9	0x3dc9115c	0.09817764
10	0xbd9b1d09	-0.075738974
11	0x3c8347f0	0.016025513
12	0xbda184d5	-0.07886664
13	0x3d8940d2	0.067018166
14	0x3d15df74	0.036590055
15	0x3cf183f0	0.029481858
16	0x3d000940	0.03125882
17	0x3cceaac8	0.02522792
18	0xbd45f0e2	-0.048325427
19	0xbd742dc3	-0.059613954
20	0xbd16c028	-0.03680435
21	0xbb9c7d60	-0.004775688
22	0xbce3eeac	-0.027823769
23	0xbd53843c	-0.05163978
24	0xbdcc11c7	-0.09964328
25	0x3d53618c	0.0516067
26	0x3ca6e334	0.02037201
27	0xbd85cd79	-0.065333314
28	0xbda0c7ce	-0.0785061
29	0x3dad44d6	0.08460395
30	0xbd241604	-0.04006006
31	0x3dbae01a	0.09124775
32	0xbb160a60	-0.0022894368
33	0xbd8ba7b8	-0.06819099
34	0xbdb4a2b6	-0.08820097
35	0x3d65fdd8	0.056150287
36	0xbdb22265	-0.086979665
37	0x3d784cbc	0.060620055
38	0xbcdf9150	-0.02729097
39	0xbd60af36	-0.054854594
40	0xbca9f440	-0.02074635
41	0xbdce7eef	-0.100828044
42	0x3dbf485c	0.09339973
43	0xbda88ad7	-0.082296066
44	0xbd8d17e5	-0.06889323
45	0xbd79466f	-0.060858186
46	0xbdc55c72	-0.09636773
47	0xbd5bd930	-0.053673923
48	0x3d38e84c	0.04514341
49	0xbd7716fd	-0.060324658
50	0xbd5e8a7e	-0.054331295
51	0x3dabd858	0.08390874
52	0x3d366404	0.044528976
53	0xbd4c49bb	-0.049875002
54	0xbd7db271	-0.061937753
55	0x3d73a9c0	0.059488058
56	0x3db6a5b8	0.08918327
57	0x3c0b7078	0.008510701
58	0xbcbe2f94	-0.023216046
59	0x3dc1494a	0.09437807
60	0xbdc266ea	-0.094922855
61	0x3d711e20	0.05886662
62	0xbdb160cf	-0.08661043
63	0xbb0fa0e0	-0.0021915957

critic.preprocess.model.model.2.weight f4 [64, 64]
0	0x3acf0980	0.0015795678
1	0x3dd503ac	0.10401091
2	0x3cea5f38	0.028609857
3	0xbcecab50	-0.028890282
4	0xbd1470d8	-0.03624043
5	0x3d8de8ec	0.06929192
6	0x3cca4f28	0.024695948
7	0x3c87f3f0	0.01659581
8	0xbcc69e10	-0.024245292
9	0x3d0c0e2c	0.034193203
10	0xbd51a6e0	-0.051184535
11	0xbdbe8988	-0.09303576
12	0xbdc65782	-0.096846595
13	0x3d69d0ec	0.05708401
14	0xbb85f500	-0.004088044
15	0xbd7029c0	-0.058633566
16	0xbdb6a890	-0.089188695
17	0xbdb5ed24	-0.088831216
18	0x3ca7b1a0	0.02047044
19	0x3d8f8528	0.070078194
20	0xbdfa2fb6	-0.122161314
21	0x3ddf6f5a	0.109099105
22	0x3daee034	0.08538857
23	0x3dcf4fd2	0.101226464
24	0xbd793c3c	-0.06084846
25	0x3dfb146e	0.12259756
26	0x3d4a1a50	0.0493415
27	0x3d916f92	0.071013585
28	0xbde0d0c2	-0.109773174
29	0xbc85d5e8	-0.01633735
30	0xbdfdd7a2	-0.12394644
31	0x3d0f3740	0.0349648
32	0x3d3380a0	0.04382384
33	0x3d877dd4	0.06615797
34	0x3de469a6	0.11152963
35	0x3d8d43b6	0.068976805
36	0x3df1a9f8	0.11799997
37	0xbd088fec	-0.03334038
38	0x3de84608	0.113414824
39	0x3d1ddbd0	0.038539708
40	0x3c9538e0	0.018215597
41	0x3db3e1e2	0.08783318
42	0x3daa4bd4	0.08315244
43	0x3ce77cb8	0.028257713
44	0x3cc91548	0.02454628
45	0x3c011ab0	0.007879898
46	0x3d8d1ae6	0.06889896
47	0x3dd14378	0.10217947
48	0xbdbba5fa	-0.09162517
49	0x3ab7d800	0.0014026165
50	0xbc023a00	-0.007948399
51	0x3db3ae46	0.087734744
52	0xbdf7ec4a	-0.121056154
53	0x3df39a40	0.11894655
54	0xbdd88a6a	-0.105732754
55	0xbd9ddd32	-0.07708205
56	0xbdb30c64	-0.08742598
57	0xbd089320	-0.033343434
58	0xbd90710e	-0.070528135
59	0x3d75a660	0.05997312
60	0xbcaf7248	-0.021416798
61	0xbc84ac58	-0.016195461
62	0x3dc24506	0.094858214
63	0x3d2d7db0	0.042356193
64	0xbd3fa5c0	-0.04678893
65	0x3cf45300	0.029824734
66	0xbd5919b4	-0.053003028
67	0x3dec3dfe	0.115352616
68	0x3da05b34	0.078298956
69	0xbdf1caae	-0.11806236
70	0xbdb9d296	-0.09073369
71	0x3cdb98d0	0.026806265
72	0x3dc11740	0.09428263
73	0x3db78a7c	0.08961961
74	0x3df7b560	0.120951414
75	0xbd9eabee	-0.07747637
76	0x3d8202a8	0.06348163
77	0x3dce5122	0.100740686
78	0x3bf92e20	0.0076043755
79	0xbd1350d4	-0.035965756
80	0x3df40708	0.119154036
81	0xbb9ec260	-0.0048449486
82	0x39dbea00	0.0004194528
83	0x3cc4c538	0.024019822
84	0x3dfa5582	0.122233406
85	0x3dddb0ba	0.108247235
86	0x3d763440	0.060108423
87	0xbda5fff4	-0.0810546
88	0x3d3f8ae0	0.0467633
89	0xbddbe03a	-0.10736127
90	0xbcba08b0	-0.02270922
91	0xbd0ce76c	-0.03440039
92	0xbc9b8378	-0.018983588
93	0xbda7220e	-0.08160792
94	0x3c9c12c8	0.019051924
95	0xbcb00c18	-0.021490142
96	0x3d5f9ad4	0.054591015
97	0x3d88c906	0.06678967
98	0xb9cf2200	-0.0003950745
99	0xbd5af2f4	-0.053454354
100	0x3d4c963c	0.049947962
101	0xbd8b46a8	-0.06800586
102	0xbdf5ca38	-0.12001461
103	0xbdeddd4e	-0.11614476
104	0x3d7d10b4	0.061783507
105	0xbc3a6d70	-0.011378631
106	0xbdc475ba	-0.09592767
107	0xbdbd3dec	-0.09240326
108	0x3dba58e8	0.09098989
109	0xbc8dd450	-0.017313153
110	0x3d811112	0.06302084
111	0x3dc46f96	0.09591596
112	0x3cc395c8	0.023875132
113	0x3de502c8	0.11182171
114	0xbc5882c0	-0.013214767
115	0x3d9e6a7c	0.07735154
116	0xbb8419a0	-0.004031375
117	0xbdee808e	-0.116456136
118	0xbd8c4004	-0.068481475
119	0x3d1b99c0	0.037988424
120	0x3d06fd08	0.032956153
121	0xbd66cb14	-0.056346014
122	0xbd642fd8	-0.05570969
123	0xbcf94e90	-0.03043297
124	0xbdb9457e	-0.09046458
125	0x3d161b24	0.036646977
126	0x3d2dee98	0.04246387
127	0xbb11f0c0	-0.0022268742
128	0xbd7568dc	-0.059914455
129	0xbddd934c	-0.1081911
130	0x3d9da4c2	0.07697441
131	0xbdfbef94	-0.12301555
132	0x3c54b980	0.01298368
133	0xbdfe5412	-0.12418379
134	0xbc8973d8	-0.016778871
135	0x3d856ad0	0.065145135
136	0xbc144f90	-0.009052172
137	0xbd80806c	-0.062744945
138	0xbb76e900	-0.00376755
139	0x3c60d970	0.013723716
140	0x3d988b4c	0.07448444
141	0xbd437ee0	-0.04772842
142	0x3de41ed0	0.111386895
143	0x3d82dac2	0.06389381
144	0xbce5e108	-0.028061405
145	0x3d29803c	0.04138206
146	0xbd3252d0	-0.043536007
147	0x3d193ae8	0.037409693
148	0xbde35962	-0.11101033
149	0xbdff8d8c	-0.1247817
150	0x3dce7886	0.10081582
151	0x3dc64f9a	0.096831515
152	0x3b7b9cc0	0.003839299
153	0xbd816488	-0.06318003
154	0xbcb86518	-0.022509143
155	0xbc8299b8	-0.01594244
156	0xbd3d586c	-0.046226904
157	0xbdfbc176	-0.12292759
158	0xbd629aa8	-0.055323273
159	0xbdae3d72	-0.085078135
160	0xbbdd2600	-0.0067489147
161	0x3d753e14	0.059873655
162	0xbdc25c04	-0.09490207
163	0x3d851ac4	0.06499246
164	0xbcce8c08	-0.025213256
165	0xbdf43056	-0.11923282
166	0xbd053a48	-0.032526284
167	0xbdf61e16	-0.12017457
168	0xbd8997a0	-0.06718373
169	0x3dfd14c4	0.12357476
170	0xbdfe1f5a	-0.124083236
171	0xbc262c00	-0.010142326
172	0xbd92e530	-0.0717262
173	0x3da0ae98	0.07845801
174	0xbdedf57c	-0.11619088
175	0x3da6361a	0.08115788
176	0xbdc2ddde	-0.09514974
177	0x3d672ea4	0.056440964
178	0xbde3cf96	-0.11123578
179	0x3c49b150	0.012310341
180	0x3da428e8	0.08015615
181	0xbdd75fa0	-0.10516286
182	0xbd5d5294	-0.05403383
183	0xbdf02994	-0.117266804
184	0x3df33c90	0.11876786
185	0x3ce1b2b8	0.02755104
186	0xbda89c1a	-0.08232899
187	0xbdaf69ca	-0.085650995
188	0x3cd5e7d8	0.026111528
189	0xbd66ddc8	-0.05636385
190	0xbdfcf4ec	-0.12351403
191	0xbd9815b4	-0.074260145
192	0x3dcb010e	0.099123105
193	0x3bf9bb00	0.007621169
194	0xbd402768	-0.04691258
195	0x3ddfa5d4	0.10920301
196	0x3b0b6100	0.0021267533
197	0x3dd77f18	0.10522288
198	0xbcd90170	-0.026489943
199	0x3d33d480	0.043903828
200	0xbdfedd16	-0.124445125
201	0xbcda5180	-0.02665019
202	0x3acbd080	0.0015549809
203	0xbb9febc0	-0.0048803985
204	0xbda22716	-0.07917611
205	0xbcf12e80	-0.029441118
206	0x3d5deeb0	0.05418271
207	0xbc9af7e8	-0.018917039
208	0xbc8f39d8	-0.017483637
209	0xbdbeb26c	-0.09311375
210	0x3df895ca	0.12137945
211	0x3c7ddfd0	0.015495256
212	0x3de7d9c8	0.11320835
213	0xbd8f243e	-0.069893345
214	0x3cdcd3f0	0.026956528
215	0xbc914d28	-0.017736986
216	0xbd0bd724	-0.03414072
217	0xbd6f6be8	-0.058452517
218	0xbc970890	-0.0184367
219	0x3d826726	0.0636733
220	0x3dae897a	0.08522315
221	0xbc01eee0	-0.007930487
222	0xbd96156e	-0.07328306
223	0x3d9f0b2e	0.07765804
224	0x3daee528	0.08539802
225	0x3d91da0a	0.07121666
226	0xbddfbc8c	-0.10924634
227	0xbda8f032	-0.082489386
228	0x3dc28a10	0.094989896
229	0x3c841610	0.016123801
230	0x3ce96088	0.028488412
231	0x3df1b7d0	0.118026376
232	0xbd15aab0	-0.036539733
233	0xbd1a9f90	-0.037749827
234	0x3c8fecd0	0.017568976
235	0xbd4ee8d4	-0.05051501
236	0x3ccc46c8	0.024936095
237	0x3d88b04a	0.066742495
238	0x3dfe214e	0.12408696
239	0x3c3746e0	0.0111863315
240	0xbc847640	-0.016169667
241	0xbd1db260	-0.03850019
242	0x3c7356a0	0.014852196
243	0xbd86473a	-0.06556554
244	0x3bc49100	0.0059987307
245	0xbd138e9c	-0.036024675
246	0x3d0d3e3c	0.03448318
247	0x3dd7957a	0.10526557
248	0x3cebd3e8	0.028787568
249	0x3d6fcdd0	0.058545887
250	0xbc9243f0	-0.01785466
251	0xbbfe83a0	-0.0077671558
252	0xbc3e84b0	-0.011628315
253	0xbc50a200	-0.012733936
254	0x3df4d8a0	0.119553804
255	0xbdef8122	-0.11694552

critic.preprocess.model.model.2.bias f4 [64]
0	0x3ddfb132	0.10922469
1	0x3de28b98	0.11061782
2	0x3bb8ec20	0.0056433827
3	0xbd11cd98	-0.03559646
4	0x3df52472	0.11969842
5	0x3d253b6c	0.040339872
6	0x3dbc7994	0.09202877
7	0xbd55a3d8	-0.052158207
8	0xbd6aba9c	-0.05730687
9	0x3def96dc	0.11698696
10	0x3dca79da	0.098865226
11	0xbd967990	-0.07347405
12	0x3df7272c	0.12068018
13	0x3ca9c8b8	0.020725593
14	0xbc817450	-0.015802532
15	0xbcef6aa8	-0.029225662
16	0xbccce298	-0.025010392
17	0x3c44fbc0	0.0120229125
18	0x3dc616b0	0.09672296
19	0xbd848e92	-0.06472506
20	0x3dd3e294	0.10345951
21	0xbd8f163e	-0.06986664
22	0xbcc1b740	-0.02364695
23	0x3bb291c0	0.0054495037
24	0xbdf3510c	-0.11880693
25	0x3dd0c55a	0.10193892
26	0x3c4261a0	0.011864096
27	0x3def2f32	0.11678924
28	0x3df69416	0.12039964
29	0x3d16136c	0.036639616
30	0x3dc87ed0	0.097898126
31	0xbde994fc	-0.1140537
32	0xbb6871c0	-0.003546819
33	0x3dbe7a26	0.09300642
34	0xbdf33f92	-0.118773594
35	0x3dbad6d2	0.09123005
36	0xbdcd2ba2	-0.10018088
37	0xbd9a35fe	-0.075298294
38	0x3d4913b0	0.04909104
39	0xbbec4760	-0.007210657
40	0xbd05a7dc	-0.032630786
41	0x3d49f27c	0.049303517
42	0xbd70fa3c	-0.058832392
43	0xbdf35dfa	-0.11883159
44	0x3d29cd34	0.041455463
45	0xbc135900	-0.008993387
46	0xbddf199c	-0.108935565
47	0x3dc3167c	0.09525773
48	0xbd96d36a	-0.07364543
49	0xbd8bfdc6	-0.06835513
50	0xbd4b0994	-0.04956968
51	0x3d890554	0.066904694
52	0x3cb1f398	0.0217226
53	0x3dbc8e98	0.09206885
54	0xbd4f6e4c	-0.050642297
55	0x3cb05e50	0.021529347
56	0xbdac3f30	-0.084104896
57	0x3d563258	0.052294105
58	0xbdcf3cb4	-0.10119
59	0x3dac8e70	0.08425605
60	0xbd9f1cb2	-0.07769145
61	0x3c6b3250	0.014355257
62	0xbd819d36	-0.06328814
63	0xbcffaf58	-0.03121154

critic.last.model.0.weight f4 [1, 64]
0	0x3dea2812	0.11433424
1	0xbccf7230	-0.025323004
2	0xbde3ce3c	-0.111233205
3	0x3d2abb38	0.041682452
4	0xbde96eea	-0.11398108
5	0x3caa3190	0.020775586
6	0x3ca9d258	0.020730183
7	0x3ccc5610	0.024943382
8	0xbb41cc40	-0.0029571205
9	0x3dcb3772	0.09922685
10	0xbda000cc	-0.07812652
11	0xbdf7ede0	-0.12105918
12	0x3c951570	0.018198699
13	0x3dc1f37c	0.09470269
14	0x3d2a7324	0.041613713
15	0x3c5efd50	0.013610199
16	0xbc13c370	-0.009018764
17	0x3de5478a	0.111952856
18	0xbd9caa54	-0.07649675
19	0x3dd55236	0.10416071
20	0xbddd1260	-0.107945204
21	0x3d4c5c30	0.049892604
22	0x3dbcbec8	0.09216076
23	0x3d24cdcc	0.040235326
24	0x3c81e258	0.015855
25	0xbb7268c0	-0.0036988705
26	0xbdaa004c	-0.08300838
27	0x3d87024c	0.06592235
28	0x3dce2f06	0.10067563
29	0xbdb73922	-0.08946444
30	0x3d2edc48	0.042690545
31	0xbdbda046	-0.09259085
32	0x3ccc11e8	0.024910882
33	0xbd9a3a1a	-0.07530613
34	0xbbff5e40	-0.007793218
35	0x3dec5f8e	0.11541663
36	0x3d6d702c	0.057968304
37	0x3d9f5a34	0.07780877
38	0xbd0ba858	-0.034096092
39	0x3de0b18a	0.10971363
40	0xbd58857c	-0.052861676
41	0xbd312158	-0.04324469
42	0xbd62a5d8	-0.055333942
43	0x3c434850	0.011919096
44	0xbdbaed76	-0.09127323
45	0x3d850a3e	0.06496094
46	0x3d11b0c0	0.035568953
47	0x3d410500	0.04712391
48	0xbbb2c640	-0.005455762
49	0xbda0e24c	-0.07855663
50	0x3d3f3a34	0.046686366
51	0xbb896520	-0.0041929632
52	0x3d28f928	0.04125324
53	0xbd012ea8	-0.031538635
54	0x3cade4e8	0.021227315
55	0xbd5b7e6c	-0.053587362
56	0xbd715478	-0.058918446
57	0xbc5806a0	-0.013185173
58	0x3c5e1210	0.013554111
59	0xbdef6bf0	-0.11690509
60	0x3ce2a820	0.027668059
61	0xbcb203e0	-0.021730363
62	0x3d9af0c0	0.07565451
63	0xbdc4c9f2	-0.096088305
